results/kinematic_model/model_kinematic_fold_1.pth (torch, 74495 bytes, 48 tensors)

cnn_lstm.res1.conv1.weight f4 [8, 8, 21]
0.0030137715 -0.038707726 -0.0067354124 -0.035019554 -0.016232807 -0.055763133 -0.03459168 -0.005949818
-0.008515572 0.014095841 -0.04632771 0.015048 -0.042813133 0.00790072 0.012565194 -0.03340637
-0.057783253 -0.012733625 -0.0069249454 -0.026324876 -0.01172085 0.010448144 0.034712154 0.029389622
0.020808348 0.0040293615 0.024761142 0.014391396 0.033905607 0.012806082 -0.014694445 0.03042365
0.04419026 0.013350141 0.007659221 0.03452558 -0.034664523 -0.025808783 -0.019691233 0.014970407
0.017172579 0.029609153 0.084914744 0.06442066 0.061896387 0.034908663 0.053697437 0.030870676
0.029376969 0.025648862 0.043503795 0.029472226 0.0035658595 0.021447493 0.07391996 0.039096717
0.0032413083 0.035673477 0.03591472 0.026562536 0.051115472 0.077969946 0.031424705 0.047607146
0.008954637 0.01520778 -0.013783873 0.036602534 0.02490443 0.03578767 0.01877922 0.05620084
0.025890537 0.0016134847 0.068626784 0.011071124 0.010906227 0.029873852 0.007456753 0.020998416
0.043171104 0.051953655 0.021083465 0.0098828515 0.016535386 -0.0018632194 0.008558017 0.069899015
0.0015463701 -0.0053373035 -0.006797753 0.009474204 0.06026232 -0.026907962 0.013889785 -0.012865864
-0.048162412 -0.0029376438 0.021029947 -0.018397491 0.014933402 0.008355929 0.012454463 0.03210397
0.009244078 0.048680164 0.06651448 -0.0013259961 0.037767373 0.055534817 0.054620672 0.05568343
0.040514562 0.07717477 0.031774126 0.022422753 0.032812476 0.006461553 0.047936793 0.015765697
0.07936622 0.018046565 0.015903607 0.050234072 0.021949993 0.047191378 0.04040607 0.0024269822
0.04493916 0.011635889 -0.0045258706 -0.0035016516 -0.019567631 0.014253992 -0.026315711 -0.03169766
0.019852381 -0.019493261 0.01032983 -0.005615652 -0.0070656613 -0.00024002514 0.008216211 0.0055877487
0.006091047 -0.008664616 -0.057864916 0.023322906 0.04043876 0.010840706 0.0058127088 -0.006145373
-0.005312891 0.035270497 0.0234023 0.042609572 0.06124573 0.033019066 0.051734023 0.023462167
-0.0012837825 0.04272121 0.023260152 0.050888985 0.035324056 0.05703694 0.028582944 0.0057055578
-0.015653517 -0.0283776 0.038496744 -0.017806876 -0.0010609683 0.0036405968 -0.04545764 0.0048557036
-0.0018188916 0.00031556803 -0.014254202 -0.009612786 -0.021829557 0.016734747 -0.044237018 0.015714306
-0.012395304 0.0031538059 0.014761293 -0.019143779 -0.008404724 -0.022081422 -0.0018954306 0.027674064
0.017919444 -0.039567683 -0.027215006 -0.039147604 -0.036775813 0.03197413 0.0043114214 -0.0010707789
0.019743254 0.038606085 0.014564 -0.022216817 -0.014555992 0.00037778137 0.011539603 -0.0015912225
0.0059097884 0.0019505208 -0.021655545 -0.07213092 0.011104205 0.004629789 -0.024677861 -0.020028068
-0.0010830165 -0.025273861 0.00287322 -0.037073966 -0.055119272 0.0089409035 0.024579333 -0.022753438
-0.009136444 -0.024622925 -0.03443344 0.0329442 -0.03675966 -0.0085129775 0.00031095525 0.01594611
-0.015540598 0.002174975 0.011546541 -0.0100404 -0.019983977 -0.019334218 -0.0064483 -0.008891286
-0.015330156 0.0010839705 0.017385101 -0.0124874795 0.00419138 -0.04412751 0.004407095 -0.038875118
0.011724999 0.02564893 -0.026689123 -0.018560281 -0.026613189 -0.014990748 0.0044461503 -0.013837802
00000000: b282 453b fe8b 1ebd bcb4 dcbb aa70 0fbd
00000010: aafa 84bc e267 64bd 01b0 0dbd b1f6 c2bb
00000020: e684 0bbc 3ef2 663c 20c2 3dbd e38b 763c
00000030: d35c 2fbd 0672 013c 3ede 4d3c 1ed5 08bd
00000040: 22ae 6cbd b2a0 50bc a7ea e2bb 44a7 d7bc
00000050: cf08 40bc b12e 2b3c 552e 0e3d 81c2 f03c
00000060: 4576 aa3c bc08 843b e1d7 ca3c e4c9 6b3c
00000070: 9be0 0a3d 9ad0 513c f8c0 70bc 053b f93c
00000080: d900 353d 8dba 5a3c 34fa fa3b b26a 0d3d
00000090: 63fc 0dbd f16c d3bc 824f a1bc 7046 753c
000000a0: 82ad 8c3c e58e f23c c8e7 ad3d fbee 833d
000000b0: 1187 7d3d 63fc 0e3d d8f1 5b3d 80e4 fc3c
000000c0: f8a7 f03c 901d d23c 0931 323d bd6f f13c
000000d0: 32b1 693b a7b2 af3c 5963 973d e123 203d
000000e0: 216c 543b 5a1e 123d 501b 133d ad99 d93c
000000f0: 755e 513d b5ae 9f3d 31b7 003d b6ff 423d
00000100: 78b6 123c 0d2a 793c c1d5 61bc 8aec 153d
00000110: 6004 cc3c 1896 123d e1d6 993c da32 663d
00000120: 6418 d43c 907b d33a 338c 8c3d a963 353c
00000130: 08b0 323c 02ba f43c c757 f43b df04 ac3c
00000140: 2fd4 303d 5bcd 543d 3bb7 ac3c afeb 213c
00000150: 3875 873c 4537 f4ba ed36 0c3c 3727 8f3d
00000160: 92af ca3a 8ce4 aebb afbf debb b139 1b3c
00000170: 9fd5 763d 166e dcbc fb91 633c 58cb 52bc
00000180: f345 45bd 7c85 40bb ff46 ac3c 56b6 96bc
00000190: 3aab 743c 4ee7 083c ce0d 4c3c 747f 033d
000001a0: 7974 173c da64 473d be38 883d 0ccd adba
000001b0: f6b1 1a3d 7a78 633d edb9 5f3d 4f14 643d
000001c0: 99f2 253d ce0d 9e3d 9625 023d ecaf b73c
000001d0: 6066 063d 6fbb d33b 5f59 443d 1027 813c
000001e0: c28a a23d 64d6 933c 4848 823c 3ec2 4d3d
000001f0: 79d0 b33c bf4b 413d d680 253d 010e 1f3b
00000200: 2012 383d 75a4 3e3c c14d 94bb f77b 65bb
00000210: 4c4c a0bc 9389 693c 0c94 d7bc 68d5 01bd
00000220: 76a1 a23c 55b0 9fbc 733e 293c 8103 b8bb
00000230: 1087 e7bb 42af 7bb9 499d 063c 6f19 b73b
00000240: 6897 c73b 09f6 0dbc c303 6dbd ae0f bf3c
00000250: 1da3 253d 379d 313c 8978 be3b 205f c9bb
00000260: c317 aebb cc77 103d 2eb6 bf3c 6087 2e3d
00000270: cddc 7a3d 003f 073d 0ee7 533d bb33 c03c
00000280: 9844 a8ba 6ffc 2e3d 138c be3c f870 503d
00000290: f5af 103d 919f 693d c726 ea3c b0f5 ba3b
000002a0: ce3b 80bc 2478 e8bc c3ae 1d3d badf 91bc
000002b0: 3010 8bba 1497 6e3b ca31 3abd 981c 9f3b
000002c0: e067 eeba d372 a539 758a 69bc f27e 1dbc
000002d0: e6d3 b2bc 4f17 893c e031 35bd 4abb 803c
000002e0: ac15 4bbc 15b0 4e3b 5ad9 713c 6ad3 9cbc
000002f0: f8b3 09bc 19e4 b4bc 1970 f8ba b8b4 e23c
00000300: cccb 923c b911 22bd 01f2 debc 3d59 20bd
00000310: 3ca2 16bd 4ef7 023d d346 8d3b 6159 8cba
00000320: 9bbc a13c 6a21 1e3d d89d 6e3c 0b00 b6bc
00000330: 417c 6ebc f510 c639 9a10 3d3c 9190 d0ba
00000340: e6a6 c13b 9ea8 ff3a f866 b1bc 60b9 93bd
00000350: 69ee 353c 7cb5 973b 3a29 cabc e711 a4bc
00000360: 01f4 8dba 210b cfbc a24c 3c3b dfda 17bd
00000370: bfc4 61bd de7c 123c 995a c93c 6b65 babc
00000380: 06b1 15bc 04b6 c9bc 140a 0dbd 7ff0 063d
00000390: 4c91 16bd 047a 0bbc b507 a339 6ba1 823c
000003a0: fe9d 7ebc 068a 0e3b b42d 3d3c 7d80 24bc
000003b0: 70b5 a3bc cb62 9ebc 434c d3bb c2ac 11bc
000003c0: 562b 7bbc 0414 8e3a 336b 8e3c 4998 4cbc
000003d0: d857 893b 0cbf 34bd 6469 903b 843b 1fbd
000003e0: 361a 403c b41d d23c 26a3 dabc bb0b 98bc
000003f0: e703 dabc c19b 75bc 03b1 913b f3b7 62bc

cnn_lstm.res1.conv1.bias f4 [8]
0.002151217 -0.009455872 -0.0048006224 0.018645078 -0.0048300456 -0.0065591484 -0.0071724155 0.007393425
00000000: 6ffb 0c3b cdec 1abc 8a4e 9dbb 90bd 983c
00000010: 5c45 9ebb 20ee d6bb 9506 ebbb 8b44 f23b

cnn_lstm.res1.conv2.weight f4 [8, 8, 21]
-0.033251304 -0.02026139 -0.03262529 -0.051138148 -0.053551544 -0.05752397 -0.044258263 0.0068711713
-0.01886852 -0.054461554 -0.03971275 -0.005540793 -0.046584137 -0.036229588 0.01082844 -0.012125224
-0.070335515 -0.021162953 -0.012026125 -0.02445978 -0.06280191 -0.017537873 0.00947641 0.01348915
0.002278416 0.037742615 -0.0037732425 -0.0073144883 0.014904036 -0.008386423 -0.009869881 -0.010458355
-0.045642506 0.0034275486 0.0049446123 0.020865187 0.025994007 -0.0061036805 -0.0067584505 -0.03954483
-0.0047634095 -0.015821198 -0.015410241 -0.026160598 -0.02915924 0.003754139 0.023872452 -0.005786244
-0.009258823 -0.018536465 0.03557409 0.0044939336 -0.036626637 0.012953744 0.013508609 0.021926155
-0.023268811 0.021849878 0.006074178 -0.00027303505 0.011425479 0.039418023 -0.0012024503 -0.014596678
-0.038224462 0.0076476727 -0.013650346 -0.026811017 -0.0032836474 -0.038990106 -0.0052407305 -0.022834916
-0.05566931 0.022111472 -0.029223422 -0.021486703 -0.005343547 0.004676575 -0.010731677 0.029497033
-0.0069258497 -0.013316616 0.023058804 0.017128086 -0.019573277 0.0038223055 0.010709609 0.014119249
-0.004795252 0.027251655 -0.038069107 -0.02819201 0.029356593 -0.018990848 -0.015190721 0.051049773
-0.009322574 0.029465953 0.021823913 -0.018550793 -0.018945515 0.02476785 0.022086505 0.0053489166
-0.03864651 -0.03368532 0.016739456 -0.016531093 0.020274924 -0.0005630798 -0.01213126 -0.0452184
-0.0055626584 0.016457021 -0.025643326 -0.028662173 -0.008939318 0.011843028 0.009747966 -0.01643091
-0.037111793 0.005981358 0.044002917 -0.02149235 0.008690046 -0.03296267 -0.02530082 0.004976682
6.324677e-06 -0.046140425 -0.019005211 0.011356665 -0.03686599 -0.027995313 0.046829186 0.008190587
0.03253932 0.03194805 0.047476195 0.0021304174 0.023111165 -0.0072022323 -0.052383427 -0.0054674097
0.01226063 0.042406816 -0.00087561697 -0.035254233 0.012875738 -0.002405499 -0.003698756 0.030138675
-0.01935414 0.002658352 0.0064373007 -0.007685935 0.026862899 -0.008109853 -0.04381492 -0.0050918525
-0.00492894 -0.011532549 -0.017856162 0.013103534 -0.002677542 -0.005434318 -0.0343817 -0.02406664
0.025902065 -0.006872268 0.037827067 0.05910737 0.03954175 0.050883144 0.033319592 0.04564602
0.030614935 0.064219765 0.021164393 0.027322447 0.04582755 0.025907572 0.03252112 0.053737514
0.045375526 0.08785287 0.011364095 0.032895595 0.04612917 -3.605823e-05 0.03682052 -0.0088060945
0.030202053 -0.025454873 -0.002617118 0.0032310414 0.027964246 -0.007397655 0.008293521 -0.021532713
0.006275119 0.0012025152 -0.00468619 0.03336687 -0.012170427 0.01913157 0.027222063 -0.011835406
-0.017366575 0.0009933987 -0.022962939 0.012534572 -0.027431648 0.04706827 0.023216402 -0.026910398
-0.021759698 -0.027838625 0.01882316 0.04558255 0.01799808 0.0015590724 0.018138442 0.028833812
0.018013524 0.038920157 -0.007600545 0.030417986 0.000265919 0.04335932 0.0011211624 -0.013034145
0.046389405 0.030452214 0.028210001 0.012759857 0.05311114 0.05329775 0.07895554 0.03034776
0.06297003 0.03939499 0.017391639 0.06879887 0.04179147 0.03051055 0.03410918 0.049580034
0.024571558 0.05246377 0.061676364 0.0446121 -0.02279866 -0.011173419 0.0020302804 0.0027839034
00000000: 8532 08bd 37fb a5bc 19a2 05bd 3c76 51bd
00000010: dd58 5bbd 419e 6bbd 2748 35bd 9027 e13b
00000020: 2892 9abc 1413 5fbd d6a9 22bd 8a8f b5bb
00000030: 02cf 3ebd 7a65 14bd c569 313c e0a8 46bc
00000040: 110c 90bd ee5d adbc 3909 45bc e05f c8bc
00000050: 4a9e 80bd 96ab 8fbc f242 1b3c 9901 5d3c
00000060: 7a51 153b 0098 1a3d 8148 77bb 60ae efbb
00000070: 0f30 743c 3567 09bc 48b5 21bc 8559 2bbc
00000080: a3f3 3abd b9a0 603b 6a06 a23b 78ed aa3c
00000090: 62f1 d43c 6201 c8bb fe75 ddbb c2f9 21bd
000000a0: 6016 9cbb 759b 81bc 3c7b 7cbc c04e d6bc
000000b0: 5cdf eebc 0008 763b 2990 c33c 889a bdbb
000000c0: 51b2 17bc c9d9 97bc 23b6 113d d941 933b
000000d0: d005 16bd f13b 543c 3653 5d3c 7b9e b33c
000000e0: 3c9e bebc 84fe b23c e609 c73b 2526 8fb9
000000f0: ef31 3b3c cb74 213d 899b 9dba e826 6fbc
00000100: 4191 1cbd 5499 fa3b b3a5 5fbc c7a2 dbbc
00000110: 7632 57bb 17b4 1fbd 6fba abbb 4a10 bbbc
00000120: 8105 64bd 1e23 b53c f565 efbc e204 b0bc
00000130: ec18 afbb f43d 993b ead3 2fbc c3a3 f13c
00000140: 3df2 e2bb f02d 5abc d1e5 bc3c 3350 8c3c
00000150: 2358 a0bc a57f 7a3b 5b77 2f3c 6c54 673c
00000160: 7d21 9dbb dd3e df3c 5aee 1bbd eef2 e6bc
00000170: 3d7d f03c b292 9bbc 80e2 78bc 9119 513d
00000180: b6bd 18bc 9562 f13c 10c8 b23c d5f7 97bc
00000190: a033 9bbc f2e5 ca3c c2ee b43c f745 af3b
000001a0: ce4b 1ebd 9ef9 09bd 2f21 893c 376c 87bc
000001b0: 9917 a63c a59b 13ba 31c2 46bc ee36 39bd
000001c0: f646 b6bb e0d0 863c f411 d2bc efcc eabc
000001d0: 3876 12bc 4209 423c efb5 1f3c 1e9a 86bc
000001e0: 8902 18bd 44ff c33b 673c 343d ba10 b0bc
000001f0: b260 0e3c dd03 07bd aa43 cfbc 6f13 a33b
00000200: 9038 d436 befd 3cbd d1b0 9bbc 4e11 3a3c
00000210: cb00 17bd 6d56 e5bc f6cf 3f3d d031 063c
00000220: f347 053d f5db 023d 6676 423d 799e 0b3b
00000230: a053 bd3c b400 ecbb 0190 56bd f527 b3bb
00000240: cfe0 483c c5b2 2d3d a989 65ba be66 10bd
00000250: c2f4 523c 94a5 1dbb d466 72bb 62e5 f63c
00000260: 938c 9ebc bf37 2e3b feef d23b 4cda fbbb
00000270: 950f dc3c 30df 04bc 4677 33bd 8ed9 a6bb
00000280: f282 a1bb 04f3 3cbc 1647 92bc 34b0 563c
00000290: b379 2fbb 5d12 b2bb d3d3 0cbd 6727 c5bc
000002a0: 9130 d43c c330 e1bb 8ef0 1a3d 921a 723d
000002b0: 88f6 213d d86a 503d 207a 083d 52f7 3a3d
000002c0: 2ccc fa3c a785 833d f360 ad3c 53d3 df3c
000002d0: abb5 3b3d 1e3c d43c de34 053d de1b 5c3d
000002e0: b0db 393d 35ec b33d 7830 3a3c 88bd 063d
000002f0: f1f1 3c3d 3b3d 17b8 1dd1 163d 7047 10bc
00000300: 4c6a f73c bd86 d0bc f483 2bbb e1bf 533b
00000310: 4615 e53c 0768 f2bb 8ce1 073c 5f65 b0bc
00000320: 839f cd3b b79d 9d3a 9c8e 99bb b3ab 083d
00000330: 7866 47bc cfb9 9c3c ce00 df3c 4ae9 41bc
00000340: 5944 8ebc ee34 823a c61c bcbc ce5d 4d3c
00000350: 56b8 e0bc a9ca 403d 5330 be3c 3273 dcbc
00000360: 6541 b2bc d40d e4bc 0733 9a3c c5b4 3a3d
00000370: b670 933c ca59 cc3a 1297 943c e334 ec3c
00000380: 1991 933c be6a 1f3d fe0d f9bb 242f f93c
00000390: 0b6b 8b39 8b99 313d f8f3 923a 2b8d 55bc
000003a0: d102 3e3d ec76 f93c a918 e73c b80e 513c
000003b0: 118b 593d be4e 5a3d 71b3 a13d de9b f83c
000003c0: 6ef6 803d a45c 213d e978 8e3c 6ce6 8c3d
000003d0: 882d 2b3d 43f1 f93c 11b6 0b3d 6f14 4b3d
000003e0: 4b4a c93c 40e4 563d 5ba0 7c3d 2dbb 363d
000003f0: 41c4 babc b710 37bc 740e 053b 2672 363b

cnn_lstm.res1.conv2.bias f4 [8]
0.0064303176 0.010757083 0.01551605 -0.0024931312 0.012686199 0.003682808 0.0061784987 -0.009664272
00000000: 6ab5 d23b 7a3e 303c 0837 7e3c cd63 23bb
00000010: c6d9 4f3c 445b 713b 0175 ca3b e556 1ebc

cnn_lstm.conv1.weight f4 [8, 8, 21]
-0.0013209285 0.0023928916 -0.02781939 -0.006715703 0.0026055402 -0.007853594 -0.017382018 0.020509759
-0.008069588 0.00022856757 0.006406267 0.0010313967 -0.038925216 0.01813239 0.020175409 0.026602292
0.008647609 0.010334992 0.002692648 -0.023535151 0.012731846 -0.0015689825 -0.022467686 -0.031884383
-0.017587813 0.022349404 -0.030439813 0.0059144497 -0.030863484 -0.0034577332 -0.009261611 -0.0067389607
0.0036090368 -0.01770299 -0.019544864 -0.03682357 -0.031948622 0.022754535 -0.0020313968 -0.0015577106
-0.024365088 0.029419664 -0.0009921647 -0.052226726 -0.00970833 0.014999318 -0.010520686 0.01099215
0.000912887 0.020996498 0.01712058 0.06598555 0.00033596618 -0.022938658 -0.024436953 -0.027364956
-0.009363189 -0.029177053 0.026345696 -0.0075579 0.002431717 -0.012298661 0.011889828 -0.0016474088
0.005105325 -0.00013971978 -0.004915492 -0.013353661 0.019879682 -0.040781014 -0.024997542 -0.0014912253
0.051810786 0.007499517 0.007375321 0.026812285 -0.017247483 0.027742483 0.00985023 -0.021410815
-0.016146228 -0.0203457 -0.042082973 -0.0056543048 0.015191974 0.021767136 -0.035775088 -0.022388745
0.00999248 -0.040481728 -0.01658467 -0.029764786 -0.007952437 0.00091432437 -0.029152637 0.014677502
-0.014925958 0.004209213 0.003146303 -0.0031950744 -0.04487313 0.0010187986 -0.010176445 -0.029437961
-0.03378419 -0.030216219 0.026317054 -0.004639013 -0.020909864 0.039323635 -0.0027271952 0.009116819
0.014511312 2.119192e-05 -0.023451142 -0.004451651 -0.0068526985 -0.028643718 0.03168705 -0.0014310816
-0.011668496 -0.015068485 -0.023946324 -0.03220506 -0.015728382 0.025622116 -0.012382009 -0.0084467465
-0.032569017 -0.017545387 -0.033084814 -0.0052377935 0.003760142 0.0064664953 0.008842063 -0.0074285967
0.020773 0.0041639693 -0.0021209137 -0.013058784 -0.006023552 -0.01223768 -0.0347979 -0.027530586
0.025775174 -0.029237755 -0.015581374 0.026111726 -0.008337251 -0.010875566 0.0033599972 0.011109881
-0.0076580127 0.009086518 0.013364198 -0.0023509087 0.019432379 0.013258536 -0.0027566913 -0.0026660631
-0.013365865 -0.007230606 -0.007973707 0.016550738 0.004451262 -0.0020436223 -0.003394248 -0.007246833
0.032258637 0.0059512146 0.024674654 -0.0011576544 -0.009153368 -0.010524415 -0.013190942 -0.021023653
-0.0059300293 -0.033307217 -0.015943265 -0.002092125 -0.031738527 -0.015085624 0.0035695587 -0.043231398
0.0049275635 0.020913694 -0.011721868 -0.024139488 0.020713918 0.02807335 -0.0068015773 -0.013191802
-0.023763752 0.008255362 0.005026793 0.006014316 -0.016736766 0.008502158 -0.010787562 -0.011291531
-0.024822658 -0.009451071 0.030682376 -0.008004791 -0.037545443 -0.0014111442 -0.009462016 -0.0046817795
-0.040635884 -0.0058187046 -0.009493955 -0.025118107 -0.02004987 -0.001006437 -0.02329257 -0.018325804
-0.012062827 0.0026431016 -0.023664098 -0.0074170353 -0.021110054 -0.008989129 -0.0030596857 -0.015374875
-0.009465909 0.008125592 -0.031564552 0.026656302 -0.0018144535 0.013183138 -0.0073450166 -0.031738207
-0.04081739 -0.0071398583 -0.026869668 -0.0075258124 -0.010673175 0.015495543 0.0349527 0.00029570435
-0.02842677 0.0020793884 0.00057640026 -0.015648685 -0.012776199 -0.017958026 -0.016668761 0.0035217267
-0.015784077 0.023111397 0.01583196 -0.016404426 0.011163211 0.0050723595 0.007787719 -0.016272493
00000000: 0123 adba 0fd2 1c3b 7de5 e3bc 660f dcbb
00000010: b6c1 2a3b 5cac 00bc bc64 8ebc 1504 a83c
00000020: 4e36 04bc a4ab 6f39 aaeb d13b ee2f 873a
00000030: 0c70 1fbd 618a 943c e646 a53c 0ded d93c
00000040: b3ae 0d3c 1954 293c 2377 303b cacc c0bc
00000050: 3c99 503c 51a6 cdba 270e b8bc 3399 02bd
00000060: 5114 90bc 1916 b73c ea5c f9bc 00ce c13b
00000070: 6bd5 fcbc 239b 62bb 03be 17bc 80d2 dcbb
00000080: 9785 6c3b dc05 91bc 8d1c a0bc 50d4 16bd
00000090: 8fdc 02bd b867 ba3c 2f21 05bb 182c ccba
000000a0: 4b99 c7bc 8201 f13c 860b 82ba b1eb 55bd
000000b0: b00f 1fbc b3bf 753c f55e 2cbc 6b18 343c
000000c0: cf4e 6f3a d900 ac3c 7540 8c3c 6f23 873d
000000d0: 9e24 b039 dae9 bbbc 0130 c8bc 792c e0bc
000000e0: 1068 19bc b704 efbc eed2 d73c 43a8 f7bb
000000f0: 715d 1f3b 5380 49bc 8ecd 423c deed d7ba
00000100: 924a a73b be81 12b9 2312 a1bb 50c9 5abc
00000110: b7da a23c fe09 27bd a5c7 ccbc 3875 c3ba
00000120: 8c37 543d 82be f53b adac f13b 70a5 db3c
00000130: 984a 8dbc 3444 e33c dc62 213c bc65 afbc
00000140: 1845 84bc 07ac a6bc 325f 2cbd bf47 b9bb
00000150: c2e7 783c fe50 b23c e688 12bd 9a68 b7bc
00000160: 80b7 233c 2bd0 25bd 93dc 87bc 48d5 f3bc
00000170: f04a 02bc 45af 6f3a 83d1 eebc e879 703c
00000180: 018c 74bc 70ed 893b 3432 4e3b 7464 51bb
00000190: e3cc 37bd 3589 853a 1bbb 26bc e127 f1bc
000001a0: 4a61 0abd 0188 f7bc dd96 d73c dd02 98bb
000001b0: 2a4b abbc d211 213d beba 32bb b65e 153c
000001c0: dbc0 6d3c 4dc5 b137 9c1c c0bc 28df 91bb
000001d0: 9a8c e0bb 3ba6 eabc 48ca 013d 2193 bbba
000001e0: 382d 3fbc cfe1 76bc 152b c4bc 74e9 03bd
000001f0: cfd8 80bc 79e5 d13c e9dd 4abc 3964 0abc
00000200: 1767 05bd 58bb 8fbc f183 07bd cca1 abbb
00000210: b76c 763b e5e4 d33b 4dde 103c 966b f3bb
00000220: 232c aa3c e871 883b 07ff 0abb 83f4 55bc
00000230: 3761 c5bb 8d80 48bc 3e88 0ebd d387 e1bc
00000240: 7526 d33c 0484 efbc 0549 7fbc 42e8 d53c
00000250: f798 08bc 6e2f 32bc 6633 5c3b 3806 363c
00000260: 11f0 fabb 9edf 143c 82f5 5a3c b411 1abb
00000270: a730 9f3c 553a 593c 9ba9 34bb 1eb9 2ebb
00000280: 80fc 5abc b8ee ecbb 27a4 02bc 6a95 873c
00000290: e4db 913b 4bee 05bb 0872 5ebb d776 edbb
000002a0: a221 043d 6802 c33b 8022 ca3c 70bc 97ba
000002b0: 02f8 15bc 996e 2cbc d21e 58bc cc39 acbc
000002c0: b150 c2bb 266d 08bd 739b 82bc 081c 09bb
000002d0: 4200 02bd b129 77bc 42ef 693b 6813 31bd
000002e0: 6677 a13b 3253 ab3c 140d 40bc 2dc0 c5bc
000002f0: 3cb0 a93c 15fa e53c c4df debb 6e22 58bc
00000300: 33ac c2bc 7f41 073c ccb7 a43b bd13 c53b
00000310: 8b1b 89bc a34c 0b3c 50be 30bc 1d00 39bc
00000320: e358 cbbc aad8 1abc 9b59 fb3c 8726 03bc
00000330: 40c9 19bd 24f6 b8ba 9206 1bbc 9d69 99bb
00000340: d071 26bd d5aa bebb 898c 1bbc 7dc4 cdbc
00000350: a03f a4bc 6cea 83ba 0fd0 bebc ff1f 96bc
00000360: 2aa3 45bc e337 2d3b 36db c1bc 9a0a f3bb
00000370: feee acbc 2447 13bc 0285 48bb e6e6 7bbc
00000380: e616 1bbc 3421 053c d549 01bd 515e da3c
00000390: f5d2 edba 17fe 573c 77ae f0bb ecff 01bd
000003a0: 2330 27bd 79f5 e9bb c71d dcbc 179b f6bb
000003b0: 8ade 2ebc 05e1 7d3c 902a 0f3d c408 9b39
000003c0: 42df e8bc 5946 083b 9119 173a ac31 80bc
000003d0: 4353 51bc b61c 93bc ed8c 88bc c5cc 663b
000003e0: 9c4d 81bc 1d54 bd3c 07b2 813c 9362 86bc
000003f0: e7e5 363c 0936 a63b 1f30 ff3b e44d 85bc

cnn_lstm.conv1.bias f4 [8]
0.009408753 0.0067903013 0.0064599905 -0.005691038 -0.008566569 0.0074173952 0.0014876369 -0.0009113468
00000000: 2c27 1a3c 2d81 de3b 54ae d33b e37b babb
00000010: cb5a 0cbc 9f0d f33b d0fc c23a 73e7 6eba

cnn_lstm.res2.conv1.weight f4 [8, 8, 21]
0.019463608 0.011765109 0.0028441465 0.042543374 -0.0057527903 0.018071497 0.07272801 0.059555613
0.027529698 0.023062192 0.0034551467 0.018386666 0.013487963 0.004322838 -0.0011272192 0.025451668
0.0141533455 0.0050599314 -0.010921823 0.038691785 0.023664232 0.0067426194 -0.037166655 0.03335035
0.0011318433 -0.030977862 0.01214604 0.010936726 -0.02905787 -0.013387632 -0.010728177 0.019629579
0.0012668989 -0.002814657 0.023459492 -0.014702629 0.040596657 0.009219608 0.042491578 0.0016748914
0.025870254 0.024101306 0.0022389658 -0.0016812772 0.010107889 0.043304317 0.01494495 0.07204254
0.040410157 0.04020869 0.01310682 0.0069758394 0.02468331 0.0341596 0.025306039 0.028361728
0.0033733207 0.0026603288 0.016767431 0.040695015 0.0148902945 0.032591965 0.03404184 0.04686855
0.022343002 0.018808052 0.04966177 0.023923572 0.026471332 0.004560619 0.01067039 0.017685462
0.026192587 -0.029316898 0.010565891 0.007269107 0.009682111 0.02969312 0.03562971 0.037417598
-0.003216066 0.020842075 0.041209612 0.014168863 0.010258395 -0.0044486322 0.014157077 0.021245962
0.014567772 0.0044984054 0.03172391 0.0189611 0.0274169 0.05733762 0.021883024 0.055808093
0.004113406 -0.004583756 0.0042097773 0.033746786 0.01712635 0.00869753 0.010361594 -0.00870442
0.02023781 -0.009801518 -0.02079616 -0.016892148 0.0477959 -0.017502468 -0.012328712 0.004135732
0.018792933 -0.024791617 -0.0012746288 0.02063702 0.04316536 0.024540441 0.011979133 0.029197015
0.019018916 -0.0036654724 0.038959444 0.02877832 0.017228961 0.0041246237 -0.0229417 -0.02534621
-0.022796169 0.012891237 -0.0042175488 -0.024049135 0.021070099 0.01302595 0.008601428 -0.006859538
0.025342274 -0.007552719 -0.005637734 0.00062454946 -0.01530287 0.020988896 -0.058969405 -0.03011387
-0.0072648097 0.02852083 0.015882004 -0.02848072 0.01421702 -0.013480608 0.00925181 -0.0038836391
0.012542894 0.02525789 -0.0029669586 -0.011211953 -0.024216693 0.01926305 0.007946242 -0.011742747
-0.013894331 -0.005663294 0.008819075 -0.02751398 -0.01130687 -0.028600024 -0.041568067 -0.026002558
0.06646755 0.025729544 0.07111571 -0.0071718516 0.03274254 -0.015156232 0.012315857 0.0321269
-0.014450732 0.016190784 0.047517847 0.0125726955 0.019746965 -0.019112233 0.024805758 0.016016673
0.00548545 0.009910487 0.07172943 0.0065299505 0.0014107135 -0.040178165 0.016337806 -0.0025108145
-0.026515102 -0.024070034 0.009825306 0.0192034 -0.0382931 -0.04477382 -0.022188516 0.012663657
0.0058715856 -0.019680018 0.0026642117 -0.043637868 0.029035375 -0.016462145 -0.013250972 0.0058323527
-0.029535271 -0.0041944813 -0.009370647 0.0014353174 -0.01427222 -0.032259412 -0.013481681 -0.02890561
-0.0017981885 -0.011611852 0.025555303 -0.008505627 -0.023553537 -0.009233186 -0.018754538 -0.019597793
-0.022107136 -0.03869385 -0.018292584 0.031202018 0.0072076493 0.011849283 0.017329639 -0.024526665
-0.005127511 0.033635072 0.027349995 0.023265751 0.012396714 -0.018935522 0.0056669763 -0.022068102
-0.010314052 0.049375698 0.008202914 -0.013013662 0.011394054 -0.004637267 0.0059532197 0.0041491357
0.004692922 0.017306821 0.025283944 0.015108374 0.022416059 0.009053399 0.012106441 0.0056037293
00000000: 2572 9f3c 72c2 403c dc64 3a3b f641 2e3d
00000010: e781 bcbb ad0a 943c 6cf2 943d 96f0 733d
00000020: f685 e13c ecec bc3c be6f 623b a29f 963c
00000030: 9efc 5c3c 98a6 8d3b 33bf 93ba 0480 d03c
00000040: 6fe3 673c c8cd a53b 72f1 32bc 477b 1e3d
00000050: 7edb c13c 31f1 dc3b 103c 18bd 609a 083d
00000060: 5c5a 943a 49c5 fdbc 2f00 473c f42f 333c
00000070: c50a eebc cc57 5bbc 3cc5 2fbc 36ce a03c
00000080: 130e a63a 1c76 38bb 1f2e c03c 4ce3 70bc
00000090: ae48 263d d70d 173c a60b 2e3d 0888 db3a
000000a0: dbed d33c 1a70 c53c 9dbb 123b 4d5e dcba
000000b0: 8f9b 253c de5f 313d aadb 743c 0a8b 933d
000000c0: 1f85 253d deb1 243d fdbd 563c 9595 e43b
000000d0: a734 ca3c f0ea 0b3d 9c4e cf3c db56 e83c
000000e0: ee12 5d3b e958 2e3b da5b 893c d1af 263d
000000f0: 6cf6 733c 277f 053d 756f 0b3d 3df9 3f3d
00000100: ac08 b73c 5813 9a3c 246a 4b3d 5efb c33c
00000110: 68da d83c 3f71 953b dcd2 2e3c 1ae1 903c
00000120: d691 d63c fe29 f0bc 8f1c 2d3c b031 ee3b
00000130: b8a1 1e3c fc3e f33c 75f0 113d 3243 193d
00000140: a2c4 52bb 00bd aa3c 69cb 283d 8524 683c
00000150: d412 283c d5c5 91bb 16f3 673c 030c ae3c
00000160: aaad 6e3c 5c67 933b eef0 013d 4f54 9b3c
00000170: 6899 e03c dada 6a3d 0744 b33c 0797 643d
00000180: c0c9 863b 5533 96bb 2cf2 893b 123a 0a3d
00000190: 8f4c 8c3c 1680 0e3c adc3 293c fc9c 0ebc
000001a0: c4c9 a53c 8c96 20bc b55c aabc 6761 8abc
000001b0: a2c5 433d 5661 8fbc 5efe 49bc 0985 873b
000001c0: a3f3 993c ca17 cbbc 7211 a7ba f80e a93c
000001d0: 29ce 303d 0909 c93c 2044 443c 942e ef3c
000001e0: 8fcd 9b3c 6c38 70bb f093 1f3d 83c0 eb3c
000001f0: c023 8d3c da27 873b 3bf0 bbbc dba2 cfbc
00000200: 08bf babc c435 533c 5d33 8abb b102 c5bc
00000210: 339b ac3c cb6a 553c 01ed 0c3c fac5 e0bb
00000220: 9a9a cf3c cd7c f7bb bebc b8bb ceb8 233a
00000230: e4b8 7abc e8f0 ab3c e789 71bd 5db1 f6bc
00000240: a40d eebb 84a4 e93c fa1a 823c 6650 e9bc
00000250: 81ee 683c c5dd 5cbc e794 173c a784 7ebb
00000260: b680 4d3c a2e9 ce3c 4e71 42bb 57b2 37bc
00000270: 1662 c6bc 8bcd 9d3c f430 023c a764 40bc
00000280: 0ca5 63bc 2793 b9bb e27d 103c 0065 e1bc
00000290: 7340 39bc 994a eabc 4743 2abd 5103 d5bc
000002a0: 2420 883d c4c6 d23c 1da5 913d da01 ebbb
000002b0: 0b1d 063d d851 78bc 73c8 493c 7f97 033d
000002c0: c3c2 6cbc 89a2 843c 13a2 423d b5fd 4d3c
000002d0: 63c4 a13c 4291 9cbc 7235 cb3c 6635 833c
000002e0: 4abf b33b 985f 223c e1e6 923d 32f9 d53b
000002f0: b1e7 b83a dc91 24bd ddd6 853c 7a8c 24bb
00000300: 3336 d9bc 852e c5bc 52fa 203c 7350 9d3c
00000310: 3ad9 1cbd c164 37bd b1c4 b5bc 3a7b 4f3c
00000320: 6e66 c03b fd37 a1bc 0e9a 2e3b 9fbd 32bd
00000330: 98db ed3c 9fdb 86bc 9b1a 59bc 521d bf3b
00000340: f4f3 f1bc dc71 89bb 5887 19bc 4321 bc3a
00000350: 08d6 69bc 7222 04bd 45e2 5cbc 75cb ecbc
00000360: 32b1 ebba a33f 3ebc 5b59 d13c 2f5b 0bbc
00000370: 59f3 c0bc ca46 17bc 1ea3 99bc 8d8b a0bc
00000380: 061a b5bc 717d 1ebd 54da 95bc 609b ff3c
00000390: 252e ec3b 7f23 423c e3f6 8d3c 25ec c8bc
000003a0: ae04 a8bb eec4 093d 190d e03c d197 be3c
000003b0: 961b 4b3c ab1e 9bbc 0bb2 b93b 2ac8 b4bc
000003c0: 45fc 28bc 2c3e 4a3d 8465 063c 4137 55bc
000003d0: 20ae 3a3c 37f4 97bb 3a13 c33b 79f5 873b
000003e0: 15c7 993b 09c7 8d3c 4620 cf3c 1d89 773c
000003f0: e2a1 b73c b554 143c 185a 463c 7d9f b73b

cnn_lstm.res2.conv1.bias f4 [8]
-0.008573703 0.018572021 -0.0077571487 -0.012322149 0.009522989 0.0017989241 -0.0027198035 0.011706174
00000000: b778 0cbc 5a24 983c ae2f febb d7e2 49bc
00000010: 5006 1c3c e0c9 eb3a bb3e 32bb 41cb 3f3c

cnn_lstm.res2.conv2.weight f4 [8, 8, 21]
-0.008706549 0.010576305 0.008442235 -0.04552284 -0.0045321705 -0.038005617 -0.03594954 -0.026680298
-0.04175905 -0.037847437 -0.019795248 -0.011578362 -0.017524414 -0.026169565 -0.023891829 -0.019825635
-0.033287834 -0.02286676 -0.023088349 -0.042565346 -0.023918327 -0.023666821 -0.02580525 -0.011820778
-0.018612571 -0.0113593275 -0.008001043 -0.025704233 -0.023275146 -0.015497456 -0.0002292404 -0.005686931
-0.032325987 -0.054757737 -0.0146956965 -0.029757757 -0.016971562 -0.011869857 -0.01858899 -0.025587386
0.028954804 -0.021354023 -0.012998939 -0.030957585 -0.010676054 -0.0020844568 -0.014257877 -0.029128522
0.0029266523 0.017542338 0.0128429225 -0.004853258 -0.010417162 0.0031446912 -0.00066052924 0.009097142
0.0055795633 -0.020094177 -0.014524099 -0.0032069625 0.0005509732 -0.019573329 -0.025419366 0.005087514
0.003783541 -0.023531966 0.022043824 0.000163858 0.0026933537 0.026418652 -0.0035188063 0.028821439
-0.004287093 -0.05464427 0.018980434 0.027669732 0.0075703445 -0.0049363826 -0.013985934 -0.0040941327
0.011978019 -0.0060340343 0.024776904 0.034302905 -0.01778285 -0.0019215653 -0.0029109924 0.01036496
-0.031592138 0.03541741 -0.03751745 0.008167864 -0.032275297 -0.046876706 0.0125476895 -0.032373413
-0.031146426 -0.0008108854 -0.032186348 -0.029905042 0.016423408 -0.029024636 0.011249372 -0.04006385
-0.00021130758 0.023994466 0.020484935 0.04701332 -0.0033173596 -0.044804152 -0.02774729 0.0146956695
0.01910968 0.036549594 -0.034872945 -0.026611233 0.0035683396 -0.018086575 -0.02159798 -0.04011857
-0.015322477 0.012195595 0.013737709 0.027245201 -0.022372797 0.00050091767 -0.008175493 -0.015348727
0.023032457 -0.017199667 0.0032313108 5.6956746e-05 -0.032404196 0.020107213 -0.026322214 0.0116694365
-0.00587368 -0.009465604 0.013797308 0.0034630198 0.0098128095 0.009887436 0.023969078 0.0013092158
0.019503474 0.0063005793 0.01713045 0.0005135438 -0.043798152 -0.024578664 0.0038238019 -0.003980578
0.022795733 -0.0076920534 -0.019656632 -0.008789699 -0.016251933 -0.007172738 -0.03144297 0.0065702624
-0.03278179 -0.046208266 -0.022946041 -0.041075267 0.007725712 -0.051571127 -0.02466334 -0.060048252
0.016966065 -0.010729256 0.018088873 0.037722763 -0.01759926 0.02341253 0.0132987 -0.03578092
0.043088067 0.01867392 0.0028252946 -0.005669601 -0.0010708789 0.027450938 0.016944343 0.0037003274
-0.0030905642 -0.032375794 -0.004699061 0.02202945 0.009053797 0.02877297 -0.0043664775 0.03127991
0.0017049385 -0.03673676 -0.030391429 0.018791985 0.026132572 0.021089977 0.025119135 0.0040374054
-0.0057010655 -0.038472343 0.0011633658 -0.0094669275 -0.016347177 0.014861271 -0.011174249 -0.014785705
0.015869051 0.04511664 0.010114149 -0.049557265 0.007158699 0.02467997 -0.042185683 0.041000873
-0.004396719 0.0031280017 0.02076577 -0.026445143 0.017508274 -0.025168898 0.027434122 0.034964677
0.0007475747 0.00790883 -0.0035678337 -0.005636486 -0.0006855234 -0.022702042 0.0019959267 -0.011906414
-0.039472297 -0.013803926 -0.0024047296 -0.019692421 -0.029217457 -0.025140522 0.009534601 0.010294213
-0.016697446 -0.0051131104 0.0026705337 0.04189902 -0.0058117835 -0.0006693643 -0.0056135263 0.0060162926
-0.024134899 0.03500823 0.0030748066 0.0013366946 -0.018198822 -0.022369156 0.022982432 0.024187371
00000000: eaa5 0ebc 3d48 2d3c 4d51 0a3c 2876 3abd
00000010: 9a82 94bb c7ab 1bbd d33f 13bd a490 dabc
00000020: 8a0b 2bbd ea05 1bbd a529 a2bc 2cb3 3dbc
00000030: 5c8f 8fbc 8e61 d6bc ccb8 c3bc 5f69 a2bc
00000040: d358 08bd 1253 bbbc c723 bdbc 0059 2ebd
00000050: 5ef0 c3bc ece0 c1bc 8865 d3bc f0ab 41bc
00000060: 6479 98bc 791c 3abc cf16 03bc af91 d2bc
00000070: 85ab bebc 0be9 7dbc 4060 70b9 6f59 babb
00000080: 4168 04bd a649 60bd 38c6 70bc 8ac6 f3bc
00000090: f207 8bbc ca79 42bc f047 98bc a39c d1bc
000000a0: a032 ed3c a2ee aebc 80f9 54bc c39a fdbc
000000b0: 9eea 2ebc 629b 08bb df99 69bc f09e eebc
000000c0: 14cd 3f3b f3b4 8f3c 1f6b 523c 1408 9fbb
000000d0: bfac 2abc 2a17 4e3b 5e27 2dba 2e0c 153c
000000e0: c5d4 b63b 8b9c a4bc 7df6 6dbc e72b 52bb
000000f0: 2f6f 103a 3f58 a0bc 463c d0bc 29b5 a63b
00000100: 49f5 773b 1cc6 c0bc 4095 b43c 4cd1 2b39
00000110: fa82 303b ee6b d83c c69b 66bb f01a ec3c
00000120: be7a 8cbb acd2 5fbd db7c 9b3c a2ab e23c
00000130: a710 f83b 61c1 a1bb 4225 65bc 1328 86bb
00000140: 743f 443c 26b9 c5bb eff8 ca3c 3481 0c3d
00000150: 57ad 91bc 08dd fbba 59c6 3ebb cbd1 293c
00000160: c266 01bd d911 113d e6ab 19bd 81d2 053c
00000170: 1a33 04bd ca01 40bd d394 4d3c fc99 04bd
00000180: ca26 ffbc 9991 54ba d5d5 03bd 6bfb f4bc
00000190: 628a 863c 13c5 edbc 494f 383c fe19 24bd
000001a0: 7292 5db9 0b90 c43c 06d0 a73c 0a91 403d
000001b0: 0f68 59bb 8f84 37bd 494e e3bc 1bc6 703c
000001c0: e78b 9c3c 07b5 153d efd6 0ebd cdff d9bc
000001d0: ceda 693b 4c2a 94bc 3fee b0bc 5f53 24bd
000001e0: 200b 7bbc 08d0 473c 2114 613c 5431 df3c
000001f0: 2847 b7bc 0450 033a 81f2 05bc 3a79 7bbc
00000200: 90ae bc3c 51e6 8cbc 66c4 533b d7e4 6e38
00000210: 43ba 04bd e2b7 a43c afa1 d7bc 2a31 3f3c
00000220: 0078 c0bb 9f15 1bbc 1b0e 623c d5f3 623b
00000230: e8c5 203c eafe 213c cd5a c43c fe99 ab3a
00000240: c0c5 9f3c 1775 ce3b 2855 8c3c 579f 063a
00000250: b165 33bd 3259 c9bc c098 7a3b 826f 82bb
00000260: 1ebe ba3c 9f0d fcbb f206 a1bc ab02 10bc
00000270: c622 85bc 4a09 ebbb 58ca 00bd 5b4b d73b
00000280: 3346 06bd e144 3dbd 56f9 bbbc 8a3e 28bd
00000290: f827 fd3b 3f3c 53bd c60a cabc 28f5 75bd
000002a0: 6bfc 8a3c c3c9 2fbc 1e2f 943c 2f83 1a3d
000002b0: 532c 90bc a2cb bf3c cae2 593c 048f 12bd
000002c0: 1d7d 303d 0cfa 983c 9428 393b 0fc8 b9bb
000002d0: bc5c 8cba cae0 e03c ddce 8a3c 3181 723b
000002e0: 108b 4abb 7b9c 04bd 95fa 99bb 1b77 b43c
000002f0: 6156 143c 4bb5 eb3c ab14 8fbb 5d1f 003d
00000300: 3e78 df3a 4979 16bd 72f7 f8bc a6f1 993c
00000310: fa13 d63c e3c4 ac3c a5c6 cd3c 364c 843b
00000320: 01d0 babb 2d95 1dbd 147c 983a 2c1b 1bbc
00000330: 84ea 85bc b07c 733c 3314 37bc be3f 72bc
00000340: d0ff 813c 3acc 383d d1b5 253c 8ffc 4abd
00000350: 8593 ea3b a62d ca3c e5ca 2cbd 88f0 273d
00000360: 5a12 90bb 29ff 4c3b fa1c aa3c 7ca3 d8bc
00000370: 836d 8f3c 012f cebc 86bd e03c 1f37 0f3d
00000380: e4f8 433a 0a94 013c 51d2 69bb 46b2 b8bb
00000390: b2b4 33ba a2f9 b9bc 18ce 023b 1f13 43bc
000003a0: b4ad 21bd dd29 62bc ab98 1dbb 0052 a1bc
000003b0: 7359 efbc 7ff3 cdbc 0437 1c3c 0fa9 283c
000003c0: 15c9 88bc e18b a7bb 1f04 2f3b 4f9e 2b3d
000003d0: c670 bebb 4778 2fba acf1 b7bb 5224 c53b
000003e0: 8db6 c5bc ca64 0f3d b282 493b 0734 af3a
000003f0: b215 95bc 853f b7bc a745 bc3c 9824 c63c

cnn_lstm.res2.conv2.bias f4 [8]
-0.0117917275 0.0027048965 -0.0016209824 -0.0024496866 0.0059276694 0.010104775 0.014282359 -0.007100037
00000000: 1732 41bc a244 313b 2577 d4ba ec8a 20bb
00000010: e53c c23b 808e 253c 8e00 6a3c 6da7 e8bb

cnn_lstm.conv2.weight f4 [16, 8, 21]
0.03540644 -0.006409665 -0.024573823 -0.014981271 0.045128174 0.032244075 0.038989127 0.021072024
-0.009221462 0.0041070306 -0.014130335 0.0072712586 -0.000706768 -0.0090140095 -0.00043734952 -0.014812188
0.025453288 0.013345374 0.0037181312 0.017290331 -0.007142142 0.010151752 -0.017638227 0.0032122768
-0.018364517 -0.02190588 0.007914572 -0.053207472 0.021287728 -0.011562996 -0.029758306 -0.0040126937
-0.005348502 -0.0012831829 -0.0021450818 -0.0051403977 -0.00585837 -0.0426823 0.00754675 0.012493935
0.047941145 -0.006868202 -0.028306514 -0.0028553624 -0.023365974 0.017435921 -0.009016843 0.042266026
-0.007661541 0.0022900598 -0.0068838038 -0.032561008 -0.019550059 -0.013641839 0.05376555 0.0058813943
0.019861788 0.004772132 -0.032978423 -0.0058166212 0.026997445 0.022354806 0.016050212 -0.0054312497
0.0018156124 0.00022694221 0.020625658 -0.0034424989 -0.019115115 0.012892197 0.025426792 0.005118071
-0.012072632 -0.028128048 -0.0078114397 -0.013789432 0.01704649 0.0029368983 0.0040877084 0.020301973
-0.0047689867 -0.0006412515 0.01716513 0.013864419 0.00013840591 0.022862207 0.0037981996 0.03245537
0.00057963695 0.03852999 -0.0037984557 -0.01549478 -0.0056410683 0.037010025 0.014745624 -0.021011699
-0.016297283 -0.003745622 0.009642765 0.014447309 0.0041526794 -0.025091995 0.0059090797 0.04274987
0.008808143 -0.03809759 0.036595676 0.006081725 -0.023285393 -0.01987256 0.0028957096 0.00077607663
-0.063570715 -0.016086638 -0.03110561 -0.04771119 -0.027353866 -0.006140886 -0.01593468 0.00038999104
0.001975164 -0.014312077 -0.00615906 0.0199 0.00012011722 0.029826058 -0.003906417 -0.0009333342
0.014192171 -0.008299412 0.01111524 0.016282812 0.03445581 -0.014662122 -0.0040091723 0.027831258
0.02004715 0.04166215 -0.023801036 -0.019248715 -0.041504923 0.03286616 0.032514423 -0.036986507
0.019484341 0.030740388 -0.010552228 -0.014454369 0.03405336 0.040829826 0.03250735 -0.0028178014
0.0020814748 0.028740644 0.021747546 0.0025781784 0.015055089 0.023812748 0.018065346 0.012942366
0.036972005 0.032708768 0.02199051 0.02297539 0.02277267 -0.0022755724 0.056628954 0.0029190262
-0.046913084 -0.008925072 -0.025178598 -0.015250677 0.019615017 -0.017380191 -0.04668734 -0.007844921
0.007418567 -0.030422285 -0.024660682 -0.003855225 -0.008930273 -0.014177179 -0.008297506 0.0052075884
-0.027652262 -0.048780013 0.020360507 -0.0014834077 0.030019624 -0.03050737 -0.024418283 0.012179155
0.019487012 -0.034012105 0.034236312 0.022472378 0.017667465 0.00025252142 -0.011847751 0.021602597
-0.012792344 0.017835155 -0.009999518 -0.011371074 -0.03539944 0.024742099 -0.013521435 0.011051637
0.03943297 -0.005027309 -0.0036314575 0.018507589 0.03400352 -0.0066085113 -0.006632984 0.01802099
0.016720852 0.044332843 -0.005225904 0.00058425794 0.0037584037 0.001342619 0.027175242 0.030411212
-0.056929152 -0.007209493 0.01956868 -0.030728152 0.045883548 0.017177353 -0.006451858 0.027728042
0.011290455 -0.0063263937 0.021885926 -0.012906073 0.033967894 -0.025222788 -0.028668048 0.008047916
-0.009344116 0.03697152 -0.01003402 -0.01937046 -0.011032756 -0.006117188 -0.01686085 0.032075446
0.00015357576 0.00077472994 0.025860911 -0.008125654 -0.013389308 0.04530307 0.0032701655 -0.02129231
00000000: 5806 113d 2b08 d2bb 0b4f c9bc 0174 75bc
00000010: 52d8 383d 5d12 043d 10b3 1f3d 3d9f ac3c
00000020: 9d15 17bc 4594 863b ec82 67bc bd43 ee3b
00000030: 6646 39ba 7faf 13bc 0f4c e5b9 d2ae 72bc
00000040: 6a83 d03c 8ea6 5a3c e4ab 733b 74a4 8d3c
00000050: a108 eabb 8953 263c 0b7e 90bc 1085 523b
00000060: 2f71 96bc f673 b3bc 1fac 013c 14f0 59bd
00000070: 9a63 ae3c b872 3dbc b1c7 f3bc ea7c 83bb
00000080: 7d42 afbb 7930 a8ba 8094 0cbb c870 a8bb
00000090: 92f7 bfbb a3d3 2ebd ba4a f73b 5db3 4c3c
000000a0: ef5d 443d a70e e1bb 10e3 e7bc 0821 3bbb
000000b0: 006a bfbc c7d5 8e3c 61bb 13bc 241f 2d3d
000000c0: aa0d fbbb d414 163b 8891 e1bb b15e 05bd
000000d0: 7227 a0bc 0582 5fbc 4439 5c3d b6b8 c03b
000000e0: 30b5 a23c 8b5f 9c3b 6214 07bd 5b99 bebb
000000f0: bf29 dd3c 6d21 b73c bc7b 833c a0f8 b1bb
00000100: d8f9 ed3a 56f7 6d39 24f7 a83c 8c9b 61bb
00000110: 4d97 9cbc cb39 533c d94b d03c 7eb5 a73b
00000120: 4acc 45bc cb6c e6bc 1bf7 ffbb 12ed 61bc
00000130: 15a5 8b3c fa78 403b 2ff2 853b 5350 a63c
00000140: 2945 9cbb a919 28ba e39d 8c3c 9727 633c
00000150: 0e21 1139 8649 bb3c 37eb 783b ecef 043d
00000160: c7f2 173a 9fd1 1d3d 83ef 78bb d1dd 7dbc
00000170: b6d8 b8bb d397 173d a197 713c ba20 acbc
00000180: e181 85bc 1c79 75bb b0fc 1d3c 68b4 6c3c
00000190: 3313 883b ba8d cdbc f4a0 c13b 7d1a 2f3d
000001a0: 0850 103c 380c 1cbd 59e5 153d 3549 c73b
000001b0: 02c1 bebc c7cb a2bc f2c5 3d3b 9f71 4b3a
000001c0: 5d31 82bd 20c8 83bc 31d1 febc cf6c 43bd
000001d0: 3715 e0bc 7c39 c9bb 7289 82bc b677 cc39
000001e0: c171 013b 347d 6abc f1d1 c9bb 5305 a33c
000001f0: 71e7 fb38 c755 f43c 6701 80bb ffaa 74ba
00000200: 4886 683c 42fa 07bc b21c 363c 8863 853c
00000210: 8921 0d3d 6639 70bc 605f 83bb 61fe e33c
00000220: ec39 a43c eea5 2a3d 64fa c2bc 7baf 9dbc
00000230: 1101 2abd ab9e 063d d82d 053d 2a7f 17bd
00000240: a09d 9f3c 44d3 fb3c 41e3 2cbc 05d2 6cbc
00000250: 897b 0b3d 2d3d 273d 6d26 053d ddaa 38bb
00000260: 5a69 083b 8071 eb3c e927 b23c a8f6 283b
00000270: 9fa9 763c f412 c33c c7fd 933c 380c 543c
00000280: f56f 173d a1f9 053d 7125 b43c e336 bc3c
00000290: c08d ba3c c521 15bb c3f3 673d 224d 3f3b
000002a0: ef27 40bd 773a 12bc 5943 cebc fadd 79bc
000002b0: acaf a03c e760 8ebc 393b 3fbd fc87 00bc
000002c0: 7317 f33b 2838 f9bc 3305 cabc f1a7 7cbb
000002d0: 4850 12bc 6647 68bc 43f2 07bc 6ba4 aa3b
000002e0: ff86 e2bc 8dcd 47bd 14cb a63c e76e c2ba
000002f0: b7eb f53c 98ea f9bc da08 c8bc 148b 473c
00000300: 3aa3 9f3c 4750 0bbd 603b 0c3d fe17 b83c
00000310: 5cbb 903c da64 8439 121d 42bc eef7 b03c
00000320: fb96 51bc 081b 923c 05d5 23bc be4d 3abc
00000330: 01ff 10bd f1af ca3c 0289 5dbc ed11 353c
00000340: 7784 213d 20bc a4bb bffd 6dbb 3a9d 973c
00000350: 4647 0b3d 368c d8bb 8159 d9bb c1a0 933c
00000360: 2bfa 883c 5b96 353d 0f3e abbb e328 193a
00000370: 8d4f 763b d1fa af3a 9d9e de3c ef20 f93c
00000380: 8b2e 69bd 9c3d ecbb 7f4e a03c 9bb9 fbbc
00000390: 63f0 3b3d 85b7 8c3c 1c6a d3bb eb25 e33c
000003a0: 9afb 383c a34d cfbb 1d4a b33c fe73 53bc
000003b0: eb21 0b3d 05a0 cebc 41d9 eabc 68db 033c
000003c0: 1018 19bc 736f 173d bb65 24bc cdae 9ebc
000003d0: bcc2 34bc b172 c8bb c41f 8abc 8b61 033d
000003e0: 2e09 2139 3f17 4b3a 43da d33c 7721 05bc
000003f0: d45e 5bbc b68f 393d 4650 563b 366d aebc

cnn_lstm.conv2.bias f4 [16]
-0.0002599799 0.00047110906 0.0015127538 0.001529976 -0.0014478783 0.0013992707 0.001673929 -0.005370906
0.00324048 0.000440393 0.00084417645 -0.0029928975 0.007864904 -0.0008705203 0.0010354077 0.0013360858
00000000: e94d 88b9 30ff f639 9847 c63a 7a89 c83a
00000010: bcc6 bdba bc67 b73a bd67 db3a 6dfe afbb
00000020: 3c5e 543b 8ce4 e639 b94b 5d3a 7d24 44bb
00000030: ccdb 003c a133 64ba 84b6 873a 9a1f af3a

cnn_lstm.lstm1.weight_ih_l0 f4 [32, 16]
-0.31390014 0.040469013 0.18759647 0.0912674 -0.21461013 0.12998192 -0.2451781 -0.1778122
-0.08229721 0.23044695 0.037164047 0.09299101 -0.21094495 -0.2922477 -0.04325068 -0.059164442
0.11680096 0.35084793 -0.04973732 -0.15803167 -0.1984674 0.021580076 0.20864764 -0.026199866
-0.2764682 0.02324974 -0.26067677 -0.12968893 0.037726276 0.108044885 0.30512524 -0.3232977
-0.31517568 0.04383225 -0.03249709 -0.19038741 0.23892084 -0.2586671 0.25485295 -0.08104992
0.2677534 0.17642112 0.12496259 -0.06711448 -0.13128597 0.24987002 0.23090601 0.316308
-0.16867556 0.079967834 -0.1776951 -0.058836594 -0.20459439 0.16032523 -0.18457328 0.24118736
-0.19461581 0.13536282 -0.18326272 -0.33270007 -0.19158976 -0.31283012 0.2673085 -0.066263065
-0.28751194 0.036920052 -0.2468482 -0.2658533 -0.23109598 0.24597542 0.16372947 -0.057143483
0.00029692703 0.20581724 0.025302216 0.14860547 -0.124566965 0.04976982 -0.049885586 0.2811677
-0.0505425 0.21226202 -0.34285676 0.19216856 -0.19734249 0.17020693 -0.12642606 0.3188657
-0.2848607 -0.21553452 -0.021672023 0.12995097 -0.33567783 0.19407207 0.061551187 -0.038908448
0.09244884 -0.15766604 -0.2879739 -0.0096663805 0.26054716 -0.32852218 -0.19838448 -0.2691994
0.26923195 -0.23869647 0.054899383 0.043159444 -0.2820614 -0.062312845 0.003334571 -0.0517641
0.13000877 0.19738875 0.020538831 0.3703769 0.24238722 -0.07292549 -0.080195636 0.3162646
0.034109272 0.038580958 0.05495719 -0.24178751 0.22198564 0.3064175 -0.027449084 0.24275832
-0.22256133 0.20837952 -0.05484083 -0.1510729 0.25707647 0.33397484 0.25081292 0.12120044
-0.14808151 0.12907372 -0.021967389 -0.009532173 -0.281578 0.08921564 -0.27299413 -0.24662785
-0.025135612 -0.2638947 -0.27462435 -0.034389544 -0.28173652 -0.029289698 0.32603517 0.1860706
0.07231931 -0.18117057 -0.09473883 0.14223628 0.14628711 0.11590591 0.24478203 0.2229581
-0.2063705 0.1678357 0.15414767 0.2983473 0.18890995 -0.25339332 0.18517663 0.24703728
0.3446592 -0.058785025 -0.23305355 0.17865983 0.18710539 -0.32641554 0.24459057 -0.07719494
-0.0588038 0.19663447 0.120368116 -0.16403101 0.0683702 0.2162904 0.081752285 -0.16378343
-0.16853267 -0.22800796 0.24579981 0.27732086 0.07790071 0.060171805 0.0062445286 0.07619999
-0.3157123 -0.24857147 0.15555824 0.19851127 -0.031267244 0.35006803 -0.24644797 0.24980113
-0.07791694 0.11885863 -0.34402716 0.027817868 0.25087485 0.15136535 0.051295556 0.34766018
0.1798688 0.25479558 0.15465829 -0.091619216 0.30375937 0.28810102 -0.10778103 -0.10731578
-0.0631958 -0.2839551 -0.30056334 -0.29187524 0.30633008 0.28910542 -0.3415732 0.2160486
-0.28145352 0.2905243 0.14550117 0.0937384 0.31459126 0.16007638 -0.02063552 -0.16284172
-0.15398625 -0.15110794 -0.30454922 -0.009460387 0.3303828 -0.21094732 0.22717632 -0.20235658
-0.07663309 0.34477708 0.07319206 0.35152635 0.103710115 0.23636046 0.26160827 -0.034440055
0.13819718 0.2229197 -0.30753523 -0.19486822 0.08993905 0.33326393 0.22384338 0.058622427
00000000: 85b7 a0be d6c2 253d 4a19 403e 67ea ba3d
00000010: c2c2 5bbe fb19 053e f80f 7bbe 6714 36be
00000020: 718b a8bd 49fa 6b3e 5439 183d 1272 be3d
00000030: f401 58be 7ea1 95be a027 31bd 6a56 72bd
00000040: 5735 ef3d 57a2 b33e 5cb9 4bbd 0ed3 21be
00000050: 0a3b 4bbe b3c8 b03c baa7 553e 1aa1 d6bc
00000060: 3d8d 8dbe 3d76 be3c 6d77 85be 2dcd 04be
00000070: de86 1a3d a346 dd3d 6039 9c3e 4787 a5be
00000080: b55e a1be 7289 333d ab1b 05bd ebf4 42be
00000090: aaa7 743e 0470 84be 167c 823e 80fd a5bd
000000a0: f916 893e bda7 343e 63ec ff3d 5173 89bd
000000b0: d46f 06be eddd 7f3e a072 6c3e 1ff3 a13e
000000c0: 49b9 2cbe 2dc6 a33d b4f5 35be a4fe 70bd
000000d0: 3181 51be 4c2c 243e c700 3dbe d2f9 763e
000000e0: 5e49 47be 8d9c 0a3e 39a9 3bbe aa57 aabe
000000f0: 1b30 44be 452b a0be a9dc 883e eeb4 87bd
00000100: c434 93be 7b39 173d c6c5 7cbe ec1d 88be
00000110: 6da4 6cbe fbe0 7b3e b3a8 273e 490f 6abd
00000120: dfac 9b39 c1c1 523e 9846 cf3c 082c 183e
00000130: f71c ffbd 70db 4b3d d454 4cbd 36f5 8f3e
00000140: a705 4fbd 375b 593e ec8a afbe d6c7 443e
00000150: 2614 4abe ba4a 2e3e d575 01be 5d42 a33e
00000160: 43d9 91be 15b5 5cbe 8789 b1bc de11 053e
00000170: f7dd abbe d4ba 463e 191d 7c3d 775e 1fbd
00000180: d155 bd3d 3573 21be 5171 93be bd5f 1ebc
00000190: 7066 853e 0f34 a8be 4d25 4bbe 81d4 89be
000001a0: c5d8 893e d96c 74be 2dde 603d f5c7 303d
000001b0: 5a6a 90be c13b 7fbd d188 5a3b 9806 54bd
000001c0: 0521 053e 4720 4a3e 0d41 a83c 0ba2 bd3e
000001d0: 5b34 783e f659 95bd 9c3d a4bd 6fed a13e
000001e0: 2ab6 0b3d 1107 1e3d ca1a 613d 2597 77be
000001f0: 3450 633e c1e2 9c3e e7dc e0bc a395 783e
00000200: 1ee7 63be 7161 553e c7a0 60bd dbb2 1abe
00000210: 879f 833e c0fe aa3e 8d6a 803e f037 f83d
00000220: aea2 17be e72b 043e f4f4 b3bc d52c 1cbc
00000230: fe2a 90be b1b6 b63d e3c5 8bbe 038c 7cbe
00000240: 33e9 cdbc 351d 87be 909b 8cbe 0ddc 0cbd
00000250: c53f 90be f3f0 efbc 15ee a63e 4b89 3e3e
00000260: 251c 943d c784 39be 6f06 c2bd 63a6 113e
00000270: 4acc 153e 1460 ed3d 24a8 7a3e 214f 643e
00000280: ca52 53be 1fdd 2b3e e3d8 1d3e fac0 983e
00000290: 9c71 413e c5bc 81be f19e 3d3e 57f7 7c3e
000002a0: 2c77 b03e 91c8 70bd 97a5 6ebe 9af2 363e
000002b0: 8e98 3f3e f01f a7be f375 7a3e 6118 9ebd
000002c0: 41dc 70bd 8c5a 493e 8f83 f63d bff7 27be
000002d0: ad05 8c3d 3b7b 5d3e be6d a73d d8b6 27be
000002e0: d493 2cbe eb7a 69be f2b2 7b3e 00fd 8d3e
000002f0: 688a 9f3d b676 763d e79e cc3b be0e 9c3d
00000300: 0ba5 a1be 8589 7ebe a94a 1f3e 8a46 4b3e
00000310: 1512 00bd 1e3c b33e db5c 7cbe decb 7f3e
00000320: eb92 9fbd 276c f33d 5424 b0be 4ce2 e33c
00000330: ab72 803e 85ff 1a3e 4a1b 523d 8400 b23e
00000340: 872f 383e 9174 823e be5e 1e3e dba2 bbbd
00000350: 5986 9b3e fa81 933e 4dbc dcbd 60c8 dbbd
00000360: cd6c 81bd 9062 91be 70e3 99be ac70 95be
00000370: 4cd7 9c3e a005 943e afe2 aebe d83b 5d3e
00000380: ad1a 90be 9abf 943e 42fe 143e ebf9 bf3d
00000390: 1b12 a13e 10eb 233e d20b a9bc fbbf 26be
000003a0: 92ae 1dbe 0abc 1abe e0ed 9bbe bdff 1abc
000003b0: ef27 a93e 9302 58be e9a0 683e 9036 4fbe
000003c0: cff1 9cbd 9f86 b03e b8e5 953d 43fb b33e
000003d0: f865 d43d 7a08 723e 85f1 853e 0411 0dbd
000003e0: 9083 0d3e 1045 643e 4275 9dbe 898b 47be
000003f0: f731 b83d 92a1 aa3e 3337 653e 121e 703d
