results/kinematic_model/model_kinematic_fold_2.pth (torch, 74495 bytes, 48 tensors)

cnn_lstm.res1.conv1.weight f4 [8, 8, 21]
00000000: 08f3 673c b051 af3a d16f 33bc 73fc f1ba
00000010: 7686 01bc 0e0a 463c 5867 de3b 1e9f 533c
00000020: c000 883b 2bfc 533c 86c6 2339 e47b fa3c
00000030: b798 5dbc 0690 39bc 4d19 7abb 6a56 c13c
00000040: cd34 f93c bf3b 3fbd 0979 433b 8e24 f4bb
00000050: 18a1 e23b 8909 ffbc bfd9 243c f6b6 35bc
00000060: 4d26 133d 50e8 2bbb 2b14 babb d84e 913b
00000070: 07ca 0ebc 5f66 51bc 7412 2abc e95e 1e3c
00000080: 050b 0f3b cf9f e0ba e695 d1bc 6728 52bc
00000090: e519 863c 5145 4bbc 3eec 77bc 7767 7cbc
000000a0: 8f14 fbbc 2236 faba f3c9 5abd 8033 20bb
000000b0: 34e0 99bb 586b 03bd 3817 f5bc 5238 17bc
000000c0: 418f 9bbc 6224 5bbc 8588 983c 5612 00bc
000000d0: c416 0aba 4f19 723b 30f4 f3bc f927 86bc
000000e0: 532a dfbc 9b2a 61bb 6f31 6bbc 3186 8bbc
000000f0: 3b7c a0bb c14b 363b fe66 97bc 220c 373b
00000100: 5cf9 613b c2e4 80bc cb58 483c 0fe9 18bc
00000110: d243 c1bc 7b62 fdbc 8f26 d73c 28bd 923c
00000120: fe7b 44bc 25b9 f2ba 634e 2fbc 6450 2c3c
00000130: 42fd c53c 20f1 89bc e52e 09bd 5736 fb3b
00000140: 5ab9 1cbc b806 873c 6e2e 243d c4a8 cd3c
00000150: daae 3f3d 41ac 5fbc 600a c53c dfe8 20bd
00000160: 7b31 eb3c 1006 393c d9bb 8a3c f754 d23c
00000170: adc2 103c 7905 c6bb 144c b93b 12e2 983c
00000180: e1a0 a13c c6f4 57bc 58ea 953c 9dd1 ca3c
00000190: 7d20 81bb ff36 3fbb 1838 673b 74dd ff3c
000001a0: cd8e 5d3c 5f0a 07bc 70e9 d03c 7079 a53c
000001b0: 89bd 08bd 26d0 913c 8e16 633c 4ef1 2c3d
000001c0: 328e 34bc 9f61 e73b b660 91bc dc28 683a
000001d0: d90f c5bc 5dbe 163c 64da 97bd 84d5 333b
000001e0: afc4 da3b 4ac7 aa3b 4bfa 2b3c e70f d33b
000001f0: fbe9 e9bc 6b60 73bb 5001 bcbc 23e8 6abb
00000200: fc10 95bd f91c 1dbd c576 64bd d3e7 06bd
00000210: 2813 2cbd 8d44 2bbd 6277 29bd 146b 32bd
00000220: 96a4 e8bc 63a7 b8bc c6d0 fc3a 6433 2ebd
00000230: 203c 9fbb 4983 3fbb bce8 b1bc b0ae 72bb
00000240: 96d7 5ebd c3d2 bb3c 1b87 69bb 4ec5 8abb
00000250: df0e be3c e625 da3a 80a1 923a f599 3f3c
00000260: ae13 7bbc c097 65bc 0255 d23c 3c63 89bc
00000270: c6a4 14bc 6ef3 5c3b 3165 3ebb b826 afbc
00000280: b600 15bd 20da 0bbd 0fad a5bc 0df0 15bd
00000290: ac53 eb3c 09d8 bc3c f83d 80bb bfc0 8fbc
000002a0: d404 bfbc 9b89 b4bb 708d e03a f8e0 573c
000002b0: fe9c 03bd bac6 073b 8e1f 503d 3048 283c
000002c0: fe7c 88bb 4f4e 913c 20b9 debc bbd1 e43a
000002d0: adc4 e13a d811 833c 3c47 a1bb 9ba0 c2bc
000002e0: 8565 de3c 41f6 6bbc 7013 bfbc 6ed9 b8bc
000002f0: 6a96 c7bc 5b7c a0ba fb35 153d 8a45 ef3b
00000300: a8cf bc3c d2ef 963c 4091 79bc bf27 b33c
00000310: 8948 8a3b 1cc0 cbbc 83ca 1abc 7c9c d63c
00000320: 335f b03b 218c 17ba d5fa a3bc b26f c1ba
00000330: 3809 2b3b 254c 6fbc 1646 113d 6961 773c
00000340: 3a9e 153d d26f ba3b 576c 38bc cc0d 5d3c
00000350: 962d 8b3c 3e65 c33c 2e54 7bbc ab67 c63b
00000360: 62f2 b33c f9b2 4fbc d505 813b e54e 963c
00000370: 643a 533d 0a4a 4b3d c042 143d f826 533c
00000380: 9a07 81bc b900 253d 8415 a03c 4536 223c
00000390: 9297 f73c 7806 103d 4197 f23c 5596 463d
000003a0: fb05 b83d be19 573c a6b1 6c3d 6ddd 933c
000003b0: 0db9 453d a760 f73c d848 543d 2b3f b63c
000003c0: 8bb9 653d 3d4c 5c3d 7a7b 503d c3fd 323d
000003d0: 5644 183d b614 d03c 80dd 883c e594 f23c
000003e0: c463 9e3c dd7c 493d cb2b 2e3d 3589 fd3c
000003f0: 0685 b4bb 2fd5 023c 293e 623d 36e3 85bb
0.014157064 0.0013375785 -0.010951952 -0.0018462077 -0.007905593 0.012087358 0.006787222 0.012916354
0.00415048 0.0129385395 0.00015618847 0.030576654 -0.01352518 -0.011325842 -0.0038162053 0.023600776
0.030420685 -0.046687838 0.0029826781 -0.0074506467 0.0069161765 -0.031132476 0.01006168 -0.011090985
0.0359252 -0.0026230998 -0.0056786737 0.0044344477 -0.008715159 -0.012780755 -0.010380376 0.009666183
0.0021826637 -0.001713747 -0.025584172 -0.0128270155 0.01636977 -0.012406663 -0.015132008 -0.015405527
-0.030649452 -0.0019089619 -0.05341525 -0.002444476 -0.0046959165 -0.032084793 -0.029918298 -0.009229736
-0.018989207 -0.013375374 0.018619785 -0.007816872 -0.00052676746 0.0036941355 -0.029779524 -0.016376482
-0.027241861 -0.003435767 -0.014355048 -0.01703176 -0.004897622 0.002781615 -0.018481728 0.0027930816
0.0034480905 -0.01573408 0.012228201 -0.009332909 -0.02359191 -0.030930748 0.026263503 0.017912462
-0.011992453 -0.0018518312 -0.010699841 0.0105172135 0.024168614 -0.01683861 -0.033491988 0.00766639
-0.009565676 0.016482696 0.04008334 0.025104888 0.04679761 -0.013651908 0.024052799 -0.039284583
0.028710118 0.011292949 0.016935276 0.02567528 0.008835477 -0.006043133 0.005654821 0.018662486
0.019730033 -0.013180917 0.01830022 0.024758155 -0.0039406405 -0.0029177067 0.0035281237 0.031233527
0.013522816 -0.008242219 0.025501937 0.020199507 -0.03338388 0.017799448 0.013860358 0.042222314
-0.01102023 0.007061198 -0.01774631 0.0008856186 -0.024055408 0.00920066 -0.074147016 0.0027440498
0.0066762785 0.0052117454 0.010496686 0.0064411047 -0.028553953 -0.0037136327 -0.022949845 -0.003584393
-0.0727863 -0.03835771 -0.05577733 -0.03293593 -0.042010456 -0.041813422 -0.041373618 -0.04355915
-0.028398793 -0.022540754 0.0019288294 -0.04252948 -0.0048594624 -0.002922254 -0.021717422 -0.0037030391
-0.054404818 0.022927647 -0.0035633508 -0.0042349463 0.02320045 0.0016643375 0.0011187047 0.011694421
-0.015324516 -0.014013231 0.0256753 -0.016770951 -0.009072488 0.0033714431 -0.0029052014 -0.021380767
-0.03637763 -0.034143567 -0.020224122 -0.036605883 0.028726421 0.023052232 -0.0039136373 -0.017547963
-0.023317732 -0.005509568 0.0017131995 0.013176195 -0.03213214 0.0020717815 0.050811343 0.010271117
-0.004165291 0.017737536 -0.027187884 0.0017457524 0.0017224752 0.01599972 -0.004921822 -0.023758223
0.027148018 -0.014401973 -0.023324698 -0.022564616 -0.024363715 -0.0012244092 0.036428433 0.007301991
0.023048237 0.018424902 -0.015232384 0.021869538 0.0042200726 -0.024871878 -0.009447697 0.026197664
0.0053824424 -0.00057810737 -0.020017067 -0.0014758019 0.0026098024 -0.014605557 0.03546723 0.015098908
0.03652785 0.0056895996 -0.011256299 0.013492059 0.01698951 0.023851987 -0.015339894 0.0060548387
0.021966163 -0.012676948 0.003937463 0.018348167 0.051569358 0.049631156 0.03619647 0.012887709
-0.015750695 0.040283892 0.01954151 0.009900634 0.030223642 0.03516242 0.02961314 0.04848321
0.08985516 0.013128696 0.057786606 0.01804992 0.04827218 0.030197455 0.05182728 0.022246918
0.05608515 0.053783644 0.050899006 0.043699037 0.037174545 0.0254005 0.016707182 0.029612014
0.019334681 0.049191345 0.042522233 0.030949214 -0.0055090217 0.007985397 0.05523506 -0.0040859235

cnn_lstm.res1.conv1.bias f4 [8]
00000000: 4a94 e1bc 27aa 8d3c bd80 fdbb 0a0d febb
00000010: 40f0 33bc ede9 0abc 67e2 6b3b d245 05bc
-0.02753653 0.017293049 -0.007736294 -0.007753019 -0.010982573 -0.008478624 0.00359931 -0.008134322

cnn_lstm.res1.conv2.weight f4 [8, 8, 21]
00000000: a9ec c23b 754e 463d 5b1a cdbc 0118 19bd
00000010: 6f77 4dbc fbee 093d afd8 fbbb eab4 d33b
00000020: f983 31bc 4b9f 4f3c cd35 873b 5b0c 633c
00000030: 4eb6 753c f2d0 8a3b 2bc0 1abd a652 1f3d
00000040: 52cb 7d3c 8c31 adbc 0c4b 4a3c 5c79 1e3c
00000050: 21db 7bbc 13b9 40bd e4ec a2bc fd33 1abd
00000060: a3f2 11bd 2f5d 47bd dba5 fdbc 5a03 15bd
00000070: fb31 84bd 3af8 ccbc ea24 94bd 71e4 6cbc
00000080: 9362 4ebd ca9e 08bd b57a 29bd 8859 abbc
00000090: 4e20 59bd e502 6cbd 1c71 bfbc 75be 95bd
000000a0: ef0d 3abd b0fc 1bbd 9c0a 16bd 21a2 1bbc
000000b0: 6f7d 6dbd ce84 39bd 5c0d 51bc c84a bd3c
000000c0: b874 c5bc 5afe c8bc 233a 323c 3a28 24bd
000000d0: 3ec6 3fbc 0a38 523b 7ea9 50bb 27a6 703c
000000e0: 5aa7 9d3c 0a99 b9bc 6c9e e139 d0e1 63bc
000000f0: f48f b93c c6da 07bd cb7f b6bc ff1b a03c
00000100: cc07 8f3c 3105 9f3c 3bc5 f4bb af88 a93b
00000110: d2b8 1d3b 71f9 91bc 7489 373c 56c8 323c
00000120: 3e8b 213d 2f12 023c debb 46bc 2144 9d3c
00000130: bc1e c4ba 79da 6b3c 9927 343c c31c fd3c
00000140: d7bb 9cbc 4e50 cabc 6da1 72bc b983 c63b
00000150: f9c3 b9bc 65a7 f43c 70ab a83c 4ffb dcbc
00000160: e0c1 143d a80f c73a b340 da3c c39a 8ebb
00000170: 9269 31bb 5809 35bd b834 cfbc 4a74 bbbc
00000180: 7ccb 0fbc 9011 93bc b199 a3bc 7912 38bc
00000190: a3b2 10bc 9fc8 c4bc 567d dbba 3012 fe3b
000001a0: ceb7 f4bc d83d 723c 7901 133b 7df5 87bc
000001b0: 1840 1bbd 9ac4 a93b 776e 0e3d 6128 82bc
000001c0: 46fb b43c 2aae 893b 475f aa3b ed1f 59bb
000001d0: f818 83bc 8ca2 313c 5456 9839 c416 f338
000001e0: 4a1a e23c 2722 743c 062e 9aba 880e b8bb
000001f0: caec 75bd 2675 373c 3542 d03c 2966 b73c
00000200: 643a 923c be06 423d 202f 0f3d 63b1 683c
00000210: 9c4b 753b 1752 fabb 4928 feb9 2fc2 833c
00000220: 7363 f0bc 53ab a23c 5ede 5a3d 85b8 cc3b
00000230: e42d 8e3c dbf9 97bc 86a8 debc f615 9fbc
00000240: 597b 56ba 9e5f be3c 3f33 9dbb 4c49 99b9
00000250: 8e02 30bc 653d c93c 3ff3 11bd e074 193c
00000260: 6de2 dc3b c399 1ebc e618 66bc f360 143d
00000270: 83e2 a03a 23fb 6a3b db21 083d a3c3 99bc
00000280: 25cb e83b 1f7a f33c ecf1 b53b 1aea f63b
00000290: 64db fdbb e823 edbb a54f 8dba ed2d 00bd
000002a0: 6e3d a0bc 8cdb 403c b098 0f3d f1b3 67bc
000002b0: 4d90 b1bb 2426 2eba ffd8 3e3c 5ccb 79bc
000002c0: f49b 8dbb a1a0 8b3c a2c1 683c e48b 543c
000002d0: 44a6 c63c 08e4 093c 6740 2f3c f55f 81bc
000002e0: 7a1a 7d3a 50e8 ff3b 5309 8a3c d4da 043d
000002f0: d3cd 86bc af52 6d3c bf2d d53c f915 013d
00000300: 4332 ad3c b881 353b e85a 053b e2bc 0ebc
00000310: d44c 993c a783 863d 388f 93bc a71c 003d
00000320: 238c 4c3c bc84 933c cfe1 033d d2a5 4c3c
00000330: 62eb 05bc e12f e23c c810 2e3d 7bf2 cb3b
00000340: defd 713c bcba 4a3d b906 9fbb 354c d1bb
00000350: a8be 1fbc 0003 f4bc 5eb4 263d e696 1b3d
00000360: 9969 873a ed0d cebc 5213 eb3b d1e0 97bc
00000370: 2b8b a03b d606 ca3c ed9c ed3c ce76 f0bc
00000380: 7cce e8bb aa5a cfbb 71b0 a23b 2f10 37bb
00000390: 20b0 89bc 3dc6 e93b c7cd 833c 454e d7bc
000003a0: fbae a5bc aa33 20bc 81c8 e43b 6b1b 0ebb
000003b0: a6ef 063c 5dd9 4bbc 2f81 413b 0da7 cf3c
000003c0: 8acc 36bc 5795 13bc 6206 463c d9f0 a83c
000003d0: 3908 a1bc 84d5 623c 142f 2abc 5bf8 973c
000003e0: 6343 183d 171a dd38 9cf6 b7bb 8678 133d
000003f0: 5e98 f83c 99d6 20bd 6c27 96bb 3d09 10bd
0.0059486222 0.048414666 -0.025036981 -0.037376408 -0.012540682 0.033675175 -0.007685743 0.0064607756
-0.010834687 0.012672256 0.0041262866 0.013857926 0.014997078 0.004236334 -0.037780922 0.03889718
0.01549037 -0.02114179 0.012346994 0.009672489 -0.015372069 -0.0470515 -0.019888349 -0.037647236
-0.035631787 -0.04867285 -0.030962875 -0.03638015 -0.064548455 -0.025020707 -0.07233603 -0.014458762
-0.050386976 -0.033354558 -0.04137679 -0.020916715 -0.053009324 -0.057619948 -0.023369364 -0.073117174
-0.045423444 -0.03808278 -0.03663121 -0.009499104 -0.05798095 -0.045292668 -0.012759533 0.023106948
-0.024103507 -0.024535347 0.010878119 -0.040077426 -0.011704979 0.003207686 -0.0031839306 0.014688051
0.019244839 -0.022655983 0.00043033378 -0.013908818 0.02265165 -0.033167623 -0.022277733 0.0195446
0.017459773 0.019411655 -0.0074698008 0.0051737647 0.002406646 -0.017819138 0.011202205 0.010912022
0.039439432 0.007938906 -0.012129752 0.019197525 -0.0014962773 0.01439535 0.010995769 0.030897504
-0.019132538 -0.024696495 -0.014808995 0.006058183 -0.022676455 0.029864976 0.02058956 -0.026975302
0.036317706 0.0015187161 0.02664218 -0.004351945 -0.0027070981 -0.044198364 -0.025293693 -0.0228826
-0.008776542 -0.01795271 -0.019970747 -0.011234873 -0.008831653 -0.024021445 -0.0016745727 0.007753633
-0.029872801 0.0147852525 0.0022431298 -0.01659655 -0.03790292 0.0051809074 0.034773316 -0.015888395
0.022092473 0.00420167 0.005199346 -0.0033130602 -0.016003117 0.010841977 0.0002905602 0.000115913834
0.027600426 0.014900721 -0.0011762984 -0.0056169666 -0.060040273 0.011197364 0.025422195 0.022387581
0.017850108 0.04736971 0.03495705 0.014202449 0.00374291 -0.0076391804 -0.0004847667 0.016083805
-0.029344296 0.019857084 0.053434722 0.0062475824 0.017355867 -0.018551758 -0.027179968 -0.019419651
-0.00081818324 0.023238953 -0.004797369 -0.00029237045 -0.010742797 0.024565408 -0.03563237 0.009366244
0.0067408592 -0.009680214 -0.014044022 0.03622527 0.0012274537 0.0035855256 0.033235412 -0.018770045
0.007104295 0.029721318 0.005552521 0.0075352313 -0.0077471007 -0.0072369464 -0.0010781182 -0.0312938
-0.019560542 0.011771094 0.035057724 -0.0141420225 -0.0054188133 -0.00066432566 0.011648416 -0.015246239
-0.0043215696 0.017044367 0.014206322 0.012972806 0.024249204 0.008416183 0.010696507 -0.015792826
0.00096551294 0.007809676 0.01685015 0.032435253 -0.016455567 0.014485045 0.02602279 0.031515095
0.02114213 0.0027695727 0.0020348374 -0.008712025 0.018713392 0.065680794 -0.018012628 0.031277325
0.012484583 0.018007629 0.03219777 0.0124907065 -0.008173795 0.027610721 0.042496473 0.0062239743
0.014769999 0.04949449 -0.0048530963 -0.0063872584 -0.009750046 -0.029786587 0.040699355 0.037985705
0.0010331153 -0.025153125 0.007173934 -0.018539818 0.0048994026 0.024661463 0.029005492 -0.029353525
-0.007104693 -0.0063279467 0.004964881 -0.002793323 -0.016807616 0.0071342275 0.016089333 -0.026282439
-0.020225039 -0.009777943 0.0069819097 -0.0021683823 0.008235848 -0.01244196 0.0029526462 0.02534821
-0.011157164 -0.009007773 0.012086483 0.020622658 -0.019657241 0.013844851 -0.010387201 0.018551042
0.03717364 0.00010542961 -0.005614115 0.036003612 0.030346092 -0.039267156 -0.004582336 -0.03516506

cnn_lstm.res1.conv2.bias f4 [8]
00000000: 0b7c 9e3b 87b2 b3bc a4c3 83bb 3648 1b3c
00000010: 760a bd3c b5b4 c93b 4e95 c23b f410 51bc
0.0048365644 -0.021935714 -0.004021125 0.009477666 0.023076277 0.006155575 0.0059382087 -0.01276039

cnn_lstm.conv1.weight f4 [8, 8, 21]
00000000: c80d 10bd dea0 c43c c49f 003c f7d8 6d3c
00000010: a500 a33c 7788 30bd 5bfa 47bc 189d 1e3c
00000020: 2db5 05bc 32ac 6d3c 6b91 9e3a 1352 b73b
00000030: 3939 afbc dbc2 c1b9 4a0d 72bc 0c87 a93c
00000040: 9e5d 3cbb 19c2 d43c 786e 833c eafe 443c
00000050: 60a0 07bc 0518 273c 5d58 37bd c2bf 2fbc
00000060: 1c4d 963c 61b7 babb 2100 c33c 68a4 073d
00000070: 9862 033c 31d4 c7bb 1ea4 96bc 08e5 073d
00000080: dab9 7dbb 1472 e7bb 2774 293c d6a3 da3b
00000090: 4b5b 0039 a121 68bc c889 c0bb a137 17bb
000000a0: 8022 d2bc ee85 4fbc 8a75 d5bb 195e 8f3c
000000b0: c21f 3c3c 5438 75bb 9ca0 403c 3d4f c13c
000000c0: a65f 1c3d 8acf a13c 2bbe 033d 87b9 113d
000000d0: 5871 213d d02c cdbc c808 e43c 12cb 2f3c
000000e0: c1d8 9a3c ca33 4a3d fc16 a53b 3032 673c
000000f0: 3c3c 6f3c 2e79 123d 370b e13b 4d9e 30bb
00000100: 44c4 a53b bb13 203c a481 d4bc b216 553b
00000110: 37ab ad3c 18a9 11bd ec30 3d3a 8aaa 34bd
00000120: c156 c7bc 7b93 d5bb 4b72 18ba a90e 32bd
00000130: f2e8 9d3c b170 2dbc 0b4e 103d 9d0f c2bc
00000140: f956 54bc 8fd1 5cba ec72 0dbd eaaf 47bd
00000150: a0e6 6a3c 545a 113c 3ae6 acbc 1203 8b3c
00000160: aa0d 7ebb 8935 1b3c 0d69 bb3c 0ef9 953c
00000170: 5f93 623c c842 9cbb a40c 5cbc 3680 c33b
00000180: d900 403d ac21 fd3c 0175 8dbb b157 1d3c
00000190: 8615 6e3c 3170 a4bb 378e 35bb 26f3 6a3d
000001a0: 8e74 e4ba b918 063d 6c20 85bb c5e4 003c
000001b0: 7339 0dbc e2da 313c 85f3 e13a 51d5 a13c
000001c0: ee3b 5f3c dd36 2ebc 9e50 53bb d179 cabc
000001d0: 2d14 45bc 926d 773b bd6a edbc 938f 02bd
000001e0: a68b 55bb c146 c3bb b3ad 1abc 36d5 66bc
000001f0: a9ac cb3b 5006 67bb b620 05bc 1bc1 c13c
00000200: 6ef6 12ba 3d5c e6bc 1653 5f3c 6487 143d
00000210: a1a6 fe3b 7410 793b 2059 74bc 3645 c9bc
00000220: e1c1 443b d6bc 773c 3ca6 b73c fdc0 66bc
00000230: 7d90 fb3b 8b94 9fbc a8d3 9c3b 628e e2bc
00000240: 894f 7d3c 22ac e4b9 a25b 5f3d 186d b1bc
00000250: f795 4fbc 48ed 423c 542a 35bc 5ab8 193d
00000260: 9b5f a03c ad20 cabb a2df 533c 40c6 533d
00000270: e340 5c3a 61e7 d1bb 7771 ce3c 20b0 dd3b
00000280: f3fa 07bd 2bea 003c 95eb 7cbb d5e3 b4bb
00000290: 8ef4 e9ba 6f1a fdba 6d51 023d ad7a ea3c
000002a0: 74e6 76bc 2d50 ecbc 7cd0 5e3c 53ab 82bc
000002b0: dd65 553b 0081 10bc 035c 13bd 7938 1cbd
000002c0: bffd e43c bd4b 43bb 7bd6 9d3c 8750 1c3d
000002d0: f9b8 073c 142a 503b 4570 6ebd a602 933c
000002e0: 14cb e43b 18c3 82ba 4539 c9ba c2b9 f93c
000002f0: bcda d03c 3700 ecbc ce8b 063c 69a4 8d3b
00000300: 1247 99bc e468 763c a857 4f3c e4ce b93c
00000310: e99c 85bc 30f0 b2ba 60f2 263c 3a7b 86bc
00000320: aa18 cf3c 95ba 5dbc f9fb 423c 441f 4239
00000330: a716 45bb bfd8 97bc 45fb 0fbc 9617 d5bc
00000340: 75ff ccbc fa1e 8cbc b658 8f3c cf7d fc3b
00000350: 4797 653b b099 4ebd 4655 a13c a514 fabc
00000360: f7e2 1cbc 1c95 90bb e2bf 4e3c 0e45 8fbc
00000370: cbea 47ba 47a1 e3bc 0225 dcbb 0db9 683b
00000380: a7ff febb d732 c3ba 82d6 ccbc 22d6 17bd
00000390: 9fb4 0ebc 93b5 b8bc 4c80 87bb 980f 08bd
000003a0: 5853 65bb 1292 86bc fe8a b2bb 0198 eabb
000003b0: 653d 48bc 5ba0 c53c 8d46 00bc acbb 33bb
000003c0: 4bab 9fbb 158d 44bd 59d5 193c a19a 8fbc
000003d0: 7b71 39bc 255b 4a3c 4bec 34bc 324d 25bd
000003e0: 940c 60bb 383b 92bb d2e4 283c 9d0f 0e3d
000003f0: 801b c73a 1311 ce3a c4fb b8bb 8a89 05bd
-0.035169393 0.024002489 0.007850591 0.0145170605 0.019897768 -0.043098893 -0.0122056855 0.009681009
-0.008160871 0.014506387 0.0012097781 0.005594501 -0.02138959 -0.00036957007 -0.014773676 0.020694278
-0.0028742324 0.02597146 0.016043887 0.012023667 -0.0082779825 0.010198598 -0.044762004 -0.010726871
0.018347315 -0.00569813 0.023803772 0.033115774 0.008019112 -0.0060982932 -0.018388804 0.033177406
-0.0038715512 -0.0070631597 0.010342634 0.006672363 0.0001224104 -0.014168174 -0.0058758 -0.002307393
-0.025651217 -0.012666209 -0.006514256 0.017500924 0.011482181 -0.0037417607 0.011757042 0.023597354
0.038177155 0.019752283 0.03216378 0.035577323 0.039414734 -0.025045782 0.027836218 0.010729568
0.018902184 0.049365796 0.0050381403 0.014111087 0.014601763 0.035760097 0.006867792 -0.0026949823
0.005058797 0.009770329 -0.025940724 0.0032514748 0.021199806 -0.03556165 0.0007217068 -0.04410795
-0.02433336 -0.006517825 -0.0005815371 -0.043471012 0.019276116 -0.01058595 0.035230678 -0.023689086
-0.012960189 -0.00084235606 -0.034533426 -0.04875175 0.014337212 0.008871634 -0.021105874 0.016969237
-0.0038765469 0.009473213 0.02287724 0.018307235 0.013829081 -0.004768703 -0.013430748 0.0059662117
0.04687581 0.030899845 -0.0043169265 0.009603427 0.014531499 -0.005018257 -0.0027703175 0.05736079
-0.0017429756 0.03273842 -0.004062703 0.007867043 -0.008619654 0.010855408 0.0017238712 0.019755038
0.013625128 -0.010633198 -0.0032244097 -0.02471629 -0.012028736 0.0037754518 -0.02898156 -0.031875204
-0.0032584458 -0.0059593623 -0.009440827 -0.014088919 0.006215651 -0.0035251565 -0.008125475 0.02365165
-0.0005606179 -0.028120155 0.013630649 0.03626193 0.0077713286 0.0038004192 -0.014913827 -0.024569135
0.0030022787 0.015120706 0.022418134 -0.014084098 0.0076771365 -0.01948001 0.0047859736 -0.027655784
0.015460857 -0.00043615798 0.054530747 -0.021658465 -0.012670032 0.011897393 -0.011057455 0.037529327
0.019576838 -0.006168446 0.012931736 0.051702738 0.0008402003 -0.0064057563 0.025200589 0.0067653805
-0.03319831 0.00786833 -0.0038592566 -0.0055203238 -0.0017849372 -0.0019310246 0.031815935 0.02862295
-0.015069593 -0.028846825 0.013599511 -0.015950834 0.0032561936 -0.0088198185 -0.03597642 -0.038139794
0.027953027 -0.0029799782 0.019267311 0.038162734 0.008283847 0.0031763362 -0.058212537 0.017945599
0.0069822166 -0.0009976355 -0.0015352151 0.030484084 0.025494926 -0.028808696 0.008212043 0.0043225777
-0.018710647 0.015039656 0.012655176 0.022681661 -0.016310172 -0.0013651904 0.010189623 -0.01641618
0.025280315 -0.013533254 0.011900895 0.00018512929 -0.0030073316 -0.01853597 -0.008787935 -0.026012223
-0.025024155 -0.017104615 0.017498355 0.0077054272 0.0035032795 -0.050439537 0.019693982 -0.030527422
-0.009575597 -0.0044123065 0.012618991 -0.017488983 -0.00076262344 -0.027786864 -0.006718279 0.003551069
-0.007781941 -0.0014892471 -0.025004629 -0.037069447 -0.008710056 -0.022547519 -0.004135167 -0.033217996
-0.0034992304 -0.016427074 -0.005448698 -0.0071592336 -0.012221669 0.024124315 -0.007829321 -0.0027425094
-0.0048727146 -0.04798611 0.009389245 -0.017529787 -0.01131856 0.012350832 -0.011042665 -0.040356822
-0.0034187185 -0.004462626 0.010308461 0.03468286 0.0015190691 0.0015721641 -0.005645247 -0.03260187

cnn_lstm.conv1.bias f4 [8]
00000000: 2a9a 28bb 850e a03b bbed daba e6a7 97ba
00000010: 7f67 97bb 0010 293c a00e 4dba f064 3ebb
-0.0025726655 0.0048845434 -0.0016702929 -0.0011570423 -0.004620492 0.010318756 -0.00078223087 -0.0029051863

cnn_lstm.res2.conv1.weight f4 [8, 8, 21]
00000000: b95b 04bc 6923 febb 48be 753b 4eef bf3c
00000010: cb26 86bc 674b 56bc 5360 153b 1793 953c
00000020: f21e 903b 23bd 61bb 2140 9a3c d24d 8b3a
00000030: 2345 cf38 b942 0abd 0c95 013c 0d88 0eb9
00000040: 208a ad3c 0886 39bc 40ad ae3c 4d34 ae3c
00000050: f380 b4bb 5d68 fdba c575 bc3c 51fe 813c
00000060: 8284 603d 0ba7 e1bb 8578 a93c 9f76 d5bc
00000070: 05d6 a73b b497 c03a 7159 d03c 7c85 23bd
00000080: 2c98 fd3c 9ff3 ff3c c244 b43a 065c de3b
00000090: b8bf 473c 5e53 023d 8655 26bd bf8c 87bc
000000a0: dc10 353c dc24 2ebd 51ad a0bc 6a08 b53c
000000b0: 2b1d d7bc f2ca 98ba 6d8f 13b9 b887 8abc
000000c0: d99d cabc e41e c03b 724e 53bc 2315 4dbc
000000d0: 78e2 c9bc 2d39 743b 925c 93bc cbc0 55bc
000000e0: 79e5 91bc ddcb f23c 695a 2c3b ee72 cbbb
000000f0: 3ef1 853c 09c5 8c3c e429 ae3c e115 653c
00000100: 4fad 90bc ef70 b03b a2c4 883c 0b2c 9bbb
00000110: ff1f 5e3c 113e cdbc e547 413c 3a17 d43c
00000120: d681 95bc fa4c b13c ec8f 023d 3b4f 1ebc
00000130: af56 8bbb 365c d33b df0a cc3c 72e5 ac3a
00000140: 0ead 413c bf1f 813a 83d9 243d 7cbf f3bb
00000150: 4ff4 a8bc 8337 4c3c 7d64 d13c 0a2f 0cbd
00000160: 2a07 553b 7145 8d3c 32b3 a63b 4223 5eba
00000170: 5e72 c5bc a607 71bd a5c7 2cbc 1f9c de3a
00000180: 56a2 803c 2ab9 a9bc e30b 343c a181 b6bc
00000190: b2b9 8ebc 38c7 a8bc 9fa1 c3bc 74bf f13b
000001a0: cc4a 353b ceaa 473d 922b da3b c43c 84bc
000001b0: 620e 4b3d 248b ddbb 2546 a93b 03b9 a63c
000001c0: 55a0 92bc 3931 073d 79c3 103d e77d 103d
000001d0: 2cfb 04bc 012d 1a3d e9a9 dc3c c6b8 ee3c
000001e0: a03b e53c 6f27 143d de63 3c3d 1221 f33c
000001f0: 78c2 b13c e593 89bc a386 563d 49b4 71bb
00000200: 42e1 543c 89c5 733c 5195 f63c ccce d93c
00000210: a9c6 a83c ee20 ecbc 3df0 b5bb 697f d9bc
00000220: 0ae1 d83c 2fdc 13bb 73fb c43c 27bd cdbb
00000230: 0e1b 3bba 6d62 5f3b 4a9c 1b3d a366 d6bb
00000240: a909 be3b f575 be3c 6280 8a3a f6a8 253d
00000250: 2f10 f23c f369 18bd 09ff 46bb 3edf ba3c
00000260: 37eb a13c 41f2 dfbb 7c67 b83c 408c d9bb
00000270: ce10 f93c c9ff 803c cef9 e93b 13c6 b238
00000280: bb76 9cbb efa2 743c 862b 363c a406 913c
00000290: d113 62bc 298b 03bd 1219 97bc 9089 22bd
000002a0: 5140 61bc 1291 33bd db5e 15bd cd6c e0bc
000002b0: 16a0 adbb 2c0c c13c 9b9f 1cbd 382b 12bc
000002c0: 3d21 863b a7c6 43bc 485e bc3b a196 edbb
000002d0: c936 94bc 0644 3bbd 77ce b3bc 3734 e3bc
000002e0: a682 0abc e511 b13c 46f5 5d3c 4fe4 2bbc
000002f0: 04df 17bd 40ee df3b 332d ef3b 3f99 19bc
00000300: 32c5 1cbc 3637 613d 7021 4abd 69e9 193d
00000310: 0786 b13a f80f 603b e66c 84bb 0340 f4bc
00000320: 48ea 80bc c2c6 b1bc 48d1 bebc a91d 353c
00000330: ee3b 9a3c 1cc5 cebc 4f14 533c 7d1c b0bc
00000340: ee31 2a3c c529 a5bb c12f 09ba de6c 12bc
00000350: 0787 753c 9a26 adbc c87f 30bd 98de 0cbd
00000360: 370c b93c fd55 093d 3fb4 7a3c 031b b33c
00000370: 47f8 d9bc 3d7a e73c bdff b5bb d3fa 80bc
00000380: 776b 383c 33ca a0bc d94f 9dbc 4067 80bc
00000390: cafb 51bc 8fd0 f8bc dd2b dfbb da16 c6bb
000003a0: 4c0c 01bd 6b1a 3cbc 13b4 83bc 49d5 c53b
000003b0: a3b6 f7bc 2d19 383c 556d a23b 1437 c93c
000003c0: 7701 3e3c c7df 1d3b 8e49 f6bc 7e6d 733a
000003d0: ad78 2cbd dfeb 1abd 01d8 17bb 873d c7bc
000003e0: 8283 0e3c ee56 13bd fb2d adbc 5cf6 f33c
000003f0: 6453 303c db36 0bbd 0294 c3b9 bef3 07bd
-0.008078509 -0.007755686 0.003749745 0.023429539 -0.01637592 -0.013079501 0.002279301 0.018258614
0.00439822 -0.003444501 0.018829407 0.0010628051 9.883407e-05 -0.033755038 0.007909071 -0.00013592858
0.021184027 -0.011323459 0.021322846 0.021265173 -0.005508536 -0.0019333471 0.023005376 0.015868338
0.05481387 -0.006886368 0.020687351 -0.02605754 0.0051219487 0.0014693649 0.025433274 -0.039922222
0.03095635 0.031244097 0.0013753402 0.0067858724 0.012191705 0.031817786 -0.040608905 -0.016546605
0.011051383 -0.04251562 -0.019613894 0.022098739 -0.026259026 -0.0011657162 -0.00014072443 -0.016910419
-0.02473347 0.0058630574 -0.012897121 -0.012517246 -0.024644122 0.0037265525 -0.017988477 -0.013046454
-0.017809616 0.029638225 0.0026299006 -0.006208769 0.016350385 0.017183797 0.02126021 0.013982267
-0.017660765 0.0053845565 0.016695324 -0.004735475 0.013557433 -0.02505401 0.011796926 0.025889982
-0.018250387 0.02164315 0.031875536 -0.009662445 -0.004252277 0.0064502014 0.024907527 0.0013190939
0.011821045 0.000985138 0.040246498 -0.007438598 -0.020624308 0.012464407 0.025560612 -0.034224547
0.003250549 0.017245026 0.0050872797 -0.0008473882 -0.024102386 -0.058845185 -0.010545646 0.0016983784
0.015702408 -0.020718176 0.010989162 -0.022278609 -0.01742253 -0.020602807 -0.023880778 0.0073775593
0.002766299 0.048746876 0.006658026 -0.016142257 0.049574263 -0.0067609716 0.0051658326 0.020351892
-0.017898718 0.033005927 0.035342667 0.03527632 -0.008116525 0.037640575 0.026936488 0.029140841
0.027982533 0.03617042 0.04599368 0.029678855 0.021699175 -0.016794154 0.052374493 -0.003688114
0.012993159 0.014878639 0.030100496 0.026587866 0.020602541 -0.028824296 -0.0055523203 -0.026550012
0.026474494 -0.002256166 0.024045682 -0.006278652 -0.00071375153 0.0034085766 0.037990846 -0.006542997
0.0057994914 0.023249606 0.0010566826 0.040444337 0.029548733 -0.037210416 -0.0030364415 0.022811528
0.01976548 -0.006834299 0.022510283 -0.0066390336 0.03040352 0.015746968 0.0071403747 8.5245956e-05
-0.004774896 0.0149314245 0.011118775 0.017703362 -0.01379867 -0.032115135 -0.018444572 -0.03968197
-0.013748244 -0.04383952 -0.036467414 -0.02739563 -0.0052986247 0.023565374 -0.03823815 -0.008921437
0.004093318 -0.011949218 0.005748544 -0.0072506224 -0.01809253 -0.04571917 -0.021949036 -0.027734859
-0.008454001 0.021614978 0.013547247 -0.010491445 -0.03707792 0.0068338215 0.0072990893 -0.009374916
-0.009568499 0.054984294 -0.049348295 0.037576113 0.0013543972 0.0034189206 -0.004041302 -0.02981568
-0.015736714 -0.02170122 -0.023293152 0.011054435 0.018827405 -0.025240473 0.01288326 -0.02149796
0.010387881 -0.0050403797 -0.0005233251 -0.008937089 0.014985806 -0.02113657 -0.04309061 -0.03439197
0.022588832 0.03352927 0.015301763 0.021863466 -0.026607646 0.02825653 -0.005554168 -0.015744602
0.01125609 -0.019627666 -0.019203113 -0.015674233 -0.012816379 -0.030372886 -0.006810649 -0.0060452046
-0.031505868 -0.011480908 -0.016077077 0.0060373885 -0.030238455 0.011236471 0.004956881 0.024562396
0.011597029 0.002408968 -0.03006437 0.000928603 -0.042107273 -0.0378226 -0.002316952 -0.02432133
0.008698346 -0.035971574 -0.02114009 0.02978056 0.010762069 -0.03398786 -0.00037303573 -0.033191435

cnn_lstm.res2.conv1.bias f4 [8]
00000000: 1f1a df3b 62a2 b7bb 3fe9 0ebc 8a56 7eb9
00000010: 834c 85bb eecb a03c 363e e9bb 3153 8e3c
0.006808534 -0.0056040743 -0.008722602 -0.00024255566 -0.004067959 0.019628491 -0.007118012 0.017373653

cnn_lstm.res2.conv2.weight f4 [8, 8, 21]
00000000: 1ffd a4bc 0601 c43b bf2f 523c 154a c1bc
00000010: 43e7 693c b6e7 04bb 3789 35bc d591 febc
00000020: f75d 083c ee4c cfbc 401d 4c3d b073 99bc
00000030: 31c4 e3bc 447d a4bb 757f dd3b 8447 c7bc
00000040: eebf 913c b395 b439 ef20 29bc 83d2 ac3b
00000050: 8b44 de3c 627f c4bc 2653 ba3c 06ad f6bc
00000060: f73c 0ebc c91b f53b aaf4 e03c a55f b03b
00000070: a531 7fba 6760 73bc 2ec4 d83c 42db 893c
00000080: 2c78 f73b 77c7 28ba b8ea e2bb 0c1c 1dbd
00000090: 849b 3abd dc46 99bc 4c6d 29bc ecf4 6d3b
000000a0: b77c debb 8e50 203d aad9 82bb 297e 88bb
000000b0: c5f3 49bc 876c e9b9 d8c2 683b 49fd f8bc
000000c0: 91f3 c7bc c0f0 7b3b 1cba 8a3c e970 d1bb
000000d0: 0532 033c 2ecf 3c3d 14bb 51bc bff4 ef3c
000000e0: 5394 1c3c 7c50 3e3c d119 0d3c 298c d93c
000000f0: d422 15bd 8cb5 7dbc 1ba1 9b3c 0f85 bbbc
00000100: dbfd c8bb 63ca 83bd ed63 02bd a75b 6f3c
00000110: 640e eaba 494b 2cba 4b3d bc3b 6c07 823b
00000120: 65c5 c8bc efd7 7bbb 6113 9a3c acda a03b
00000130: f973 25bc 3222 b0bc 551f f13c cae0 843c
00000140: 061b 95bc fdb0 c03c ddd3 12bc 4ad9 b3bc
00000150: 2987 c8bb eb7c cd3b f96b 79bb 9902 32bd
00000160: 6b00 9f3c 4cd5 98bc f1f1 493c 8435 f8bc
00000170: 3b4b b4ba 4804 9bbc 1086 d0bc e2ee 5dbc
00000180: db15 94bc 1b43 753c 6b83 fd3c b127 e5bc
00000190: 82e3 b43c 9b71 33bc 3d5f 1e3c b9e4 fb3c
000001a0: c78b 3f3c db3a babc 88e8 e9bc 839c a8bc
000001b0: 0a30 d1bc 0414 b9ba c011 6dbc ae03 4dbc
000001c0: 5c2b 84bc 9dc9 d13b 9bb7 42ba 224e e33c
000001d0: 3f31 08bd c5d8 b53c 613d 303c aa0e 3abc
000001e0: 5ff6 873c 2989 5bbc f9f9 a43b c2a2 763b
000001f0: 6766 003c d2b2 a9bc e97c 363c e73a 593b
00000200: 1d94 16bc c17c 023d 369e d0bc 2c37 00bd
00000210: e6df 593c f001 a93c 9811 2a3c 9491 203c
00000220: 6138 1c3d 6567 65b9 c32d a6ba 1d1b d1bc
00000230: 6594 0c3c 1add 6a3c 0e3f b0ba 3dc4 813c
00000240: 6647 ccbc e7bc 7cbb 12c0 483d c161 803c
00000250: b853 423c 2571 28ba 8334 b3bc fc7c 88bc
00000260: b423 8d3c 4a65 713c c347 69bc 7f43 353c
00000270: 8ed8 78bc be10 32bc 9186 913c 83f5 9ebb
00000280: b475 b7ba 0273 51bb e3de c9bc 551a d1ba
00000290: c60d 8cbc 583e 14bd c6e5 d1bc b624 983c
000002a0: df5e 29bd 8d61 e2bc 593b bb3c 361b cf3b
000002b0: a5c9 52bc b8b8 79bd 192c 563b 705b ae3b
000002c0: 4d7c 9cbb 625a b2bb 7603 d1bc 9a54 eabb
000002d0: 39a0 96bb 66a2 faba 1683 383d e09b b23b
000002e0: 3747 b3bc 03e0 3d3b ba3c b8bc 5eeb e83a
000002f0: 4a4b eb3b 872a 653c 2684 823c 81e3 3abc
00000300: 5f0c bdb9 6d17 bfbc 304d 09bc 3477 e03b
00000310: 6a6a 98bc 6d0e d2bc dd7b 55bc 9a77 8fbc
00000320: 091e b2bb 278b 953c 637e 2e3d 51ef bd3c
00000330: b5e1 b33b 14f3 e23b cb92 18bc 70f7 c73b
00000340: ab02 223c b5cd d53c 232d ffbc 66bc a63b
00000350: 055f c7bc cd8a 93bc 9707 bd3b 2934 c2bc
00000360: 9461 9dbc 95ea 163d 9daf 363b 840e 09bd
00000370: 676b edbb c778 da3c c565 773c c6d9 86bc
00000380: ee60 d73b f890 64bc 949a 213a 6b8e 81bc
00000390: a8b4 213c b8dc 7c3b ad31 003c 0a83 91bc
000003a0: 2199 c5bc 6894 b63b ae3c 1b3d 0b3e 973c
000003b0: c2e9 efbc ec36 993c 8678 543c d929 9dbc
000003c0: 3d58 94ba 61d3 e73b 27c9 2cbb 8329 c1bc
000003d0: 72d9 b7bc 672b 413b 653e c6bc ae93 163b
000003e0: c60f 0dbc 092f 0e3b c0eb 87bc d0f5 933c
000003f0: 877f c13b 19cd eabb a1f8 9b3b a6cf 38bd
-0.020140229 0.0059815673 0.012828766 -0.023594895 0.0142763285 -0.0020279712 -0.011080078 -0.031075398
0.008323184 -0.025305238 0.049832582 -0.018731922 -0.027803512 -0.0050198156 0.006759579 -0.024326093
0.017791715 0.0003444381 -0.010322793 0.0052741184 0.027132293 -0.023986522 0.022744726 -0.0301118
-0.008681527 0.007480119 0.027460415 0.0053824955 -0.00097348756 -0.014854527 0.026460733 0.016828183
0.0075521674 -0.0006438414 -0.0069249533 -0.038356826 -0.045558468 -0.018710546 -0.010341 0.0036309315
-0.0067897695 0.039139323 -0.0039932327 -0.00416543 -0.012326186 -0.00044522082 0.0035516527 -0.030394213
-0.024408134 0.0038443059 0.016934447 -0.006391634 0.008007531 0.04609602 -0.012800951 0.029291509
0.009556848 0.011615869 0.008612112 0.026556091 -0.036410168 -0.015485179 0.01899772 -0.022890596
-0.0061337776 -0.064350866 -0.031833578 0.014609254 -0.0017857072 -0.00065724977 0.0057446114 0.00396817
-0.024508188 -0.0038428267 0.018808069 0.00490888 -0.010098451 -0.02150068 0.029433886 0.016220469
-0.018201362 0.023521895 -0.008961645 -0.021954197 -0.006119628 0.006270995 -0.0038058741 -0.04345951
0.019409379 -0.018656395 0.01232575 -0.030298956 -0.0013755331 -0.01892294 -0.025454551 -0.013545724
-0.018076828 0.0149696125 0.030946454 -0.027973028 0.02208114 -0.010952379 0.009666261 0.030748712
0.01169104 -0.022733143 -0.028553262 -0.020582443 -0.025535602 -0.0014120345 -0.014469564 -0.012513084
-0.016133957 0.006402208 -0.0007427872 0.027747218 -0.03325009 0.02219809 0.010756821 -0.011356035
0.016596971 -0.013399401 0.005034682 0.0037633632 0.007836915 -0.020715151 0.011138179 0.003314668
-0.009190586 0.031857256 -0.025466066 -0.031302616 0.01329801 0.020630807 0.010380171 0.0098003335
0.038139705 -0.0002187766 -0.0012678433 -0.025525624 0.008580302 0.014334941 -0.0013446526 0.015840644
-0.02493639 -0.0038564743 0.049011298 0.015671613 0.01186078 -0.0006425551 -0.021875625 -0.01666116
0.017228939 0.014733622 -0.014238301 0.011063456 -0.015188349 -0.010868249 0.017764362 -0.0048510446
-0.001399687 -0.003195942 -0.024642413 -0.0015953282 -0.017096411 -0.036192268 -0.02562226 0.018572193
-0.04135024 -0.027634406 0.022855448 0.0063203825 -0.012865459 -0.060967177 0.0032680093 0.005320959
-0.00477556 -0.0054429034 -0.025514346 -0.0071511986 -0.0045967367 -0.0019121885 0.04504689 0.0054507107
-0.021884544 0.0028972633 -0.022489894 0.001777034 0.007180606 0.01398719 0.015932154 -0.01140678
-0.00036058106 -0.0233266 -0.008380219 0.0068501476 -0.01860543 -0.025641644 -0.01303002 -0.017513085
-0.0054357094 0.01825483 0.042601 0.023185404 0.005489553 0.00692595 -0.009312342 0.006102495
0.009888331 0.026099065 -0.031149453 0.005088377 -0.024337301 -0.018010521 0.005768727 -0.023706513
-0.019211568 0.03684481 0.002787567 -0.03346111 -0.0072454694 0.02666892 0.015099947 -0.016461264
0.006572834 -0.013950579 0.00061646965 -0.01581498 0.009869732 0.0038583707 0.007824344 -0.01776268
-0.02412087 0.0055718906 0.037899666 0.018462202 -0.02928627 0.018702947 0.012968188 -0.019184994
-0.0011317801 0.007074759 -0.0026365013 -0.023579365 -0.022442553 0.0029475333 -0.024199674 0.0022976208
-0.008609718 0.0021695516 -0.016591907 0.018061548 0.005905095 -0.007165563 0.0047598635 -0.045119904

cnn_lstm.res2.conv2.bias f4 [8]
00000000: 4808 b5ba b2d6 393c 391b d13a 9fa7 bab7
00000010: b9d8 413c cc73 19bb 3798 2e3c 02ac 493c
-0.0013811672 0.011342691 0.0015953548 -2.2250983e-05 0.011831456 -0.0023414968 0.010656408 0.012309076

cnn_lstm.conv2.weight f4 [16, 8, 21]
00000000: 4869 fb3b fc53 8ebc b9db a1bc 5b8d 28bc
00000010: aab2 413b 14e4 95bb af6c b5bb e125 65bc
00000020: eba9 7cbd 0b70 013c 7162 89bc d8bf b5bc
00000030: 3d42 023d be01 3fbc 48c7 7839 2e02 80bc
00000040: 0151 4fbc df69 32bd 154d 0dbd b4f7 4a3c
00000050: 1626 4abd e752 573c 302a 063c 9d22 6fbc
00000060: 990d 82bb b2dc e5bc 250b 27bc 5f53 dabb
00000070: 4d49 173c debf 0ebd 2978 bfbc a9ff 093d
00000080: dadd a6bb 7972 85bc fb8d f2ba 3061 adbc
00000090: f00a bbbc 19e3 5ebc e2b5 f5bc 8119 863c
000000a0: a5c2 4dbc aff0 b63c b72f e93b 6da4 ecbc
000000b0: 0d08 503d 05d2 31bc 6886 a93c 3cba 1d3a
000000c0: 574d 423c 4416 7a3b b16f 5a3c a4c6 21bd
000000d0: 68c5 6d3b 0fb4 b93c 4e5d 8cbc 605f 3abc
000000e0: 867e 993b c735 13bd e0a9 96bc 38c7 db3c
000000f0: cf88 0cbc 759a 78bc af94 343c 8ad4 49bc
00000100: fdcb 4bbc 1b0c b7bc 38b4 0bbd 21b1 adba
00000110: 549e 243d b491 8fbc 8c57 b03a 8acd 68bc
00000120: d416 b6bb 3436 ca3c df7f 54bc a5b1 963c
00000130: 2332 1d3d e7d3 d23c 1cad 7abc 0103 66bb
00000140: 5b4e fabb eec6 85bd 5330 c3bc f505 afbc
00000150: b409 dc3a 8290 33bc 9492 e0bc b329 e63c
00000160: 03dd 54bc 8b29 b5bc d1c9 ebbc e363 13bd
00000170: bff1 d13c ea97 4aba 57c0 10bb 2476 143c
00000180: 29fd 92bc b306 b3bc 05cc 2abd 6b62 91bb
00000190: 2cd9 5d3c a753 85bc 8465 d9bc 741a 82bd
000001a0: 83c1 dfbc 1930 0bbc 3667 b83c a78a 4a3c
000001b0: 1059 213c ff6a be3c df7a d63b c59a 903c
000001c0: cefb a33c c9b7 b0bb a912 13bd 3ff8 83bc
000001d0: 2682 8a3c 8268 8dbb 966b c13c f044 79bc
000001e0: ab55 ce3c 681d 2dbc 4972 b63c ba2e 393d
000001f0: 1875 ce3c 219e 1dbc 42e1 4c3c 7bba 1d3d
00000200: 6f91 24bc 8a8d 3e3d 79ee 6a3c 2336 473c
00000210: 6314 a13a 4d78 a53c 41c0 053d 5938 e23b
00000220: 084a 08bd d651 3d3c e4df 15bb 650d 593b
00000230: e95a 113c 5bfe 0abb 1351 793b 8d38 40bc
00000240: c1c9 ddbb 51d7 49bb 43f9 ddbc 377e 11bd
00000250: 9b99 84bc 4965 093d c95d 7abc 3545 143b
00000260: ed0e 413c 0452 0cbc 2d6a 353c 91a5 653c
00000270: 15f2 b2b8 48e0 833a b65d 22bd 76c8 95bc
00000280: 853c 59bc 5755 d2bb 3fa2 68bc b8e2 89ba
00000290: 2e41 93bc 0869 1bbd 8801 833c 3949 88bb
000002a0: d4fe 53ba c101 12bc 00b7 013c c085 8b3b
000002b0: 4c7b 87bd c019 b4bc 5184 963c 9d74 ce3c
000002c0: 8f9f c6bc 0966 f93c 0c89 55bb c522 a1bb
000002d0: f673 eb3b 1f08 5bba d2f7 fcba a140 f7bc
000002e0: 7f4b c03c 7cc7 ecba 9676 f137 d45f 24bb
000002f0: 83e8 4d3c 1361 aa3c 1838 a1bc 898a afba
00000300: a02f ea3c 176c 763c 1160 bebc 555e 7c3b
00000310: 595b 36bc 0746 f8bc 8ebb bcbb 9a1e a7bc
00000320: 70c1 343d 67cf 9e3b 635b b63c 2d8b 71bc
00000330: 46bb 123c c8f4 30bc cbd7 82bc f77d c83b
00000340: 2789 6cbb b023 5f3c 2e3c f5bc c4b1 6bbc
00000350: a76a 4abc 7424 3abd b2e6 583c 6ac2 cd3b
00000360: 89b4 4abc e1f1 eebc 7c72 4fbc 82bd 29bd
00000370: 6be3 67bc 32d6 8d3c c8f0 ef3c 5d8b 073c
00000380: e748 afbc 4f2f 07bd ac0a eebc 4f4c 48bd
00000390: 91e4 b83b 905f 883c b182 fa3c 9e8a dc3c
000003a0: 013e 1b3a bd2a 993b a4e4 bfbb fe8f b1bb
000003b0: b96a e8bc 0462 cbbc d1e5 8f3c 7d18 67bc
000003c0: 609d 0fbc 9f25 86bb cb42 40bd c42f 653b
000003d0: aa21 84bb a9cd f4bb 55c7 ac3b ed6d 88bc
000003e0: d4d9 233b 71c6 24bc 4cfa c3bc 0916 46bd
000003f0: 2d25 95bc c0f5 573b 8907 103c 9941 ae3b
0.0076724626 -0.017374031 -0.019758092 -0.010287608 0.0029555955 -0.004574308 -0.0055366377 -0.013986082
-0.061685484 0.007900248 -0.016770573 -0.022186205 0.03180145 -0.01165813 0.00023725361 -0.01562604
-0.01265359 -0.043557998 -0.03449734 0.012388159 -0.049352728 0.013142324 0.008188769 -0.014595655
-0.003968906 -0.028059337 -0.010195528 -0.0066627706 0.009233785 -0.034850948 -0.023372727 0.033691082
-0.0050923647 -0.016289936 -0.0018505448 -0.021164507 -0.022832364 -0.013603949 -0.029993955 0.016369583
-0.012558614 0.022331564 0.0071162838 -0.028886998 0.050788928 -0.010853295 0.020693973 0.0006016826
0.01185926 0.0038160244 0.013332293 -0.03949608 0.0036280993 0.022668866 -0.017134335 -0.011375278
0.004684272 -0.035939958 -0.01839155 0.026828393 -0.00857754 -0.015173544 0.011021777 -0.01231874
-0.012438771 -0.02234464 -0.034107417 -0.0013251641 0.040190056 -0.017525531 0.0013453825 -0.014209161
-0.0055569205 0.02468405 -0.01296994 0.018395254 0.038377892 0.025735809 -0.015300062 -0.0035097005
-0.007638735 -0.065320835 -0.023826754 -0.021365145 0.001678756 -0.010959746 -0.027413644 0.028096056
-0.012992146 -0.022114536 -0.028782757 -0.03598393 0.025627969 -0.00077283254 -0.00220873 0.00906137
-0.017942982 -0.02185378 -0.041698474 -0.004436781 0.013540547 -0.01627524 -0.026537664 -0.06352702
-0.027313953 -0.008495354 0.022510152 0.012362159 0.009847894 0.02324438 0.006545409 0.017651925
0.02001753 -0.0053930026 -0.035906468 -0.016109584 0.016907763 -0.004315437 0.023610871 -0.01521419
0.025187334 -0.010566093 0.022271292 0.045210578 0.025202319 -0.00962022 0.0125048775 0.03850792
-0.01004444 0.0465217 0.014339083 0.012158903 0.0012289401 0.020198965 0.03265405 0.00690369
-0.033273727 0.011555156 -0.0022869045 0.0033119556 0.008871772 -0.0021208737 0.0038042709 -0.011732233
-0.0067684357 -0.0030798505 -0.027096396 -0.03552076 -0.016186526 0.03354386 -0.015281149 0.0022624258
0.011783344 -0.008564476 0.011072678 0.014016525 -8.532793e-05 0.0010061348 -0.03964015 -0.018284064
-0.013259058 -0.0064188647 -0.014198839 -0.0010519838 -0.017975416 -0.037941962 0.015991941 -0.0041591194
-0.00080869836 -0.008911551 0.007917166 0.0042578876 -0.06615314 -0.021984935 0.01837364 0.02520209
-0.024246005 0.030444162 -0.0032582907 -0.004917475 0.0071854545 -0.0008355397 -0.001929993 -0.030182185
0.0234735 -0.0018064822 2.878466e-05 -0.0025081532 0.012567642 0.020798242 -0.019680068 -0.0013392727
0.028587162 0.015040419 -0.023239167 0.0038508375 -0.011130177 -0.03030683 -0.005759663 -0.020400334
0.04412979 0.0048465016 0.022260373 -0.014742655 0.008955782 -0.010800548 -0.015972039 0.006118532
-0.0036092491 0.013619348 -0.029935922 -0.014385644 -0.012354529 -0.04544492 0.013238596 0.0062792795
-0.0123721445 -0.029168071 -0.012661573 -0.041440494 -0.014153342 0.01731405 0.029289618 0.008272973
-0.021397067 -0.0330041 -0.029057823 -0.0489009 0.0056424816 0.01664713 0.030579897 0.026921567
0.000592202 0.0046742843 -0.0058561135 -0.0054187765 -0.028371202 -0.02482701 0.01756564 -0.01410496
-0.0087655485 -0.0040938403 -0.0469387 0.0034971097 -0.0040323334 -0.0074708057 0.0052727857 -0.01665398
0.0025001662 -0.010057078 -0.023923062 -0.048360858 -0.018206203 0.0032952875 0.008790859 0.0053178784

cnn_lstm.conv2.bias f4 [16]
00000000: 700e 5238 3ece 3eb9 3397 96bb 5f25 27ba
00000010: f65f 9abb 9a7b 9c3b 62c7 d43a 002b 2e3b
00000020: 1c92 a03b 298b e1bb 117a 293c 76d2 db3a
00000030: 268d db39 3367 413b 43e9 11bc 61f2 003b
5.0081348e-05 -0.00018196643 -0.004595661 -0.0006376113 -0.0047111465 0.0047754766 0.0016233737 0.0026575923
0.00490023 -0.0068830443 0.010344044 0.0016771096 0.000418761 0.0029510974 -0.008905712 0.001967572

cnn_lstm.lstm1.weight_ih_l0 f4 [32, 16]
00000000: ed4d 053e f6f5 9c3e 826c 1c3e 88d2 823c
00000010: ee42 8d3e 7b2b 9cbe d785 f7bc a568 853e
00000020: 03c1 49be 0281 eb3d 808f 0a3e 3d30 213d
00000030: e05b 6dbd c4a9 64be ece6 bc3d 02fe 103e
00000040: c840 aabd 43a4 d5bd db3e a93e df67 27bd
00000050: cd3d a1be ec59 8a3e 5702 edbd 1919 24be
00000060: 2a60 ce3c 66c7 df3c 27bc af3e 3aa0 debd
00000070: 5ae5 80be 09cd 98be becd 533e 7847 453e
00000080: cfe2 be3c 0e4b 50be 8615 743d 8de2 81be
00000090: e7a6 53be bb14 13bd 9ad8 9f3c 5292 a1be
000000a0: de73 ba3e 9120 75be d39c 913e 1de5 90bd
000000b0: 8a7b 2abe 2603 273e d8cf 89bb dbe4 2abe
000000c0: 7f49 10bc 5a16 cd3d 199e 6fbe 96cf 973e
000000d0: 3758 47be 83ae a93e e759 973e c829 d8bd
000000e0: c835 0fbe 908f a0bd 4433 84be 9dae aabe
000000f0: 85b6 2a3e c07c af3e 9953 67bd 0d82 99be
00000100: 61ce b63e f0d3 06be 95e3 933e 8e8f fdbd
00000110: 327d 8e3d 14bb 783e 570a 8a3e 6f3e 64bd
00000120: f5a0 a63e 5ae0 7d3e 09bd 25be 4af5 bebd
00000130: 9c2d ab3e cd89 a7bd 0ef1 913e cc2b a2be
00000140: f0b8 933e d919 6ebe fa79 53be 0d90 d6bd
00000150: 1e5b 3dbe 5716 1dbe 2db3 a53e bdf7 9a3e
00000160: 308a b73e e423 a3bd 2934 7e3e d151 a9be
00000170: e400 0a3e 3bae 8e3e 3d93 1ebe 5040 a8be
00000180: b7ac e9ba 241f 8abd b204 c43d b0a4 9dbd
00000190: af87 44be e1b9 c63c 97f9 a93e 34de d83d
000001a0: 69c9 a23e 397f ea3d 7bdb abbe 8068 623e
000001b0: a176 ef3d 57e0 643e 65b8 52be 9deb 50be
000001c0: da89 42be d40c 823c 8c5c 8f3d 3bce 033e
000001d0: 0a12 8a3e 7ed5 1fbe a518 cbbd ffa3 37bb
000001e0: a139 9f3d de20 903e 699d a3bd 9113 8fbd
000001f0: d6d2 4ebe 2ba6 15be 9767 58be f319 a5be
00000200: 4440 b13e ba4a 913e 0e18 2ebe 8335 ce3d
00000210: feec 1abe 331a 1f3e e980 073e c673 73bc
00000220: 7226 a2be fdb4 153d 249f 553d 4fca 913e
00000230: fa8e 5f3d 5b7d 78be 4914 b2bd 1839 e3bd
00000240: 0356 25be f825 df3d ed0c 54bc 4139 b53d
00000250: 2c43 62be 2301 f0bd 2545 b33e c253 9b3d
00000260: e435 ac3e 5a82 2c3e ccca 833d ce97 ad3c
00000270: 9c2e 7c3e 928d eabd bb13 c23d f559 a5be
00000280: 3d24 abbe 8ab0 863d 17ea 28be 3b1b fe3c
00000290: dcd8 913d 557c 9a3e a0f1 2b3e 9c61 b0be
000002a0: 1aac 653e 0aed 9cbe 46ba 12be 61e8 43bd
000002b0: 45fc 4e3e 127e 323e 424f 30be 4417 b7bd
000002c0: 597b 81bd 55c9 c63d b59b 043d 1f8f 4bbe
000002d0: 0254 99be 26a5 1f3d 7ffc 93be e86a bdbc
000002e0: b7af f2bc 0ab9 1cbe a1de 03bd bd2a 5bbe
000002f0: 32c3 2d3e dd53 543e db61 0dbe 1a67 923e
00000300: fc28 a1be 0554 8abe 45b2 a83d f2c9 4fbe
00000310: a52e 463e 81b7 2e3e dc04 593c 75a5 ffbd
00000320: d316 e8bd 06d6 983e 4056 3c3e 3aa7 983e
00000330: 08e3 5bbe 10fc 053e 35e7 7abe 03d5 793d
00000340: 8cc5 9ebd 3798 3a3e 9a21 543e 3068 10be
00000350: e979 ec3c fb64 9bbe 339e 7e3d dcd1 87be
00000360: 447b a53e 34c9 77be 1da5 a03e 6e99 263e
00000370: 62f3 a63e 3f76 18bd a62f 753d 1e2c 51be
00000380: a2a9 1dbe 76b2 07be afb3 463e da7e 85bd
00000390: 65bc 3d3c 8c20 67be a7ab 473e 1f87 d43d
000003a0: 7cd3 853e 2715 7ebe 849f 523c 9045 a6be
000003b0: 0f44 193e 6533 ab3e 3c25 be39 339f d93d
000003c0: 1d75 42be f251 1a3e 28c0 39be e951 b93e
000003d0: 8fb7 9ebd 8410 a93d 8278 27be 2609 883d
000003e0: c9df 883c 0fc7 15bd 369c 103e b7e2 6d3e
000003f0: c8cd 8c3e 2c5f 79be 2607 193d e1e0 55be
0.13018008 0.30656403 0.15275767 0.01596953 0.27590126 -0.30501923 -0.030215187 0.260564
-0.19702534 0.11499216 0.13531303 0.039352644 -0.057948947 -0.22330385 0.09223732 0.14159396
-0.08313137 -0.10431721 0.33055767 -0.040870544 -0.31492463 0.2702173 -0.11572712 -0.16025199
0.025192339 0.02731676 0.34323236 -0.108704045 -0.2517498 -0.2984393 0.20683953 0.19265544
0.02330151 -0.20341131 0.05959084 -0.25368157 -0.20669137 -0.035908442 0.019512463 -0.31556946
0.36416525 -0.23938204 0.2843996 -0.0707495 -0.16648689 0.16309795 -0.004205685 -0.16688864
-0.008806585 0.10014029 -0.23400153 0.29650563 -0.19467245 0.33140954 0.29560778 -0.10554844
-0.1398536 -0.078398824 -0.25820363 -0.33336344 0.16671188 0.34274864 -0.05647621 -0.29982033
0.3570433 -0.13166785 0.2888457 -0.123808965 0.06957473 0.24290115 0.26961014 -0.055723604
0.32544675 0.24792615 -0.16185392 -0.09324129 0.33433235 -0.0818058 0.28504223 -0.3167404
0.28852034 -0.23252048 -0.20651999 -0.10476694 -0.1849179 -0.15340553 0.32363263 0.30267134
0.35847616 -0.0796583 0.24824585 -0.33070233 0.13476902 0.27867302 -0.15485854 -0.32861567
-0.0017827962 -0.06744221 0.09571208 -0.07697427 -0.19192384 0.024258556 0.33198234 0.10589257
0.3179429 0.11450047 -0.33565888 0.22110176 0.116925485 0.22351204 -0.20578153 -0.2040238
-0.18997899 0.015875258 0.07000074 0.1287164 0.26966888 -0.15608785 -0.0991681 -0.0028021333
0.07774664 0.28150076 -0.07989008 -0.06986154 -0.20197615 -0.1461417 -0.21133266 -0.3224636
0.34619343 0.28377324 -0.17001364 0.100688 -0.15129468 0.15537338 0.13232769 -0.0148591455
-0.31669956 0.036549557 0.05215372 0.28474662 0.054579712 -0.2426657 -0.08695275 -0.11094874
-0.16146092 0.10895914 -0.012942535 0.08848811 -0.22095937 -0.11718967 0.3501369 0.07584335
0.33634865 0.168466 0.06435165 0.02119055 0.24627155 -0.11452784 0.094764195 -0.32295194
-0.33426085 0.06576641 -0.16495548 0.031018844 0.07121441 0.30172983 0.16791391 -0.3444947
0.22428933 -0.30649596 -0.1432887 -0.047829036 0.2021342 0.17430905 -0.17217734 -0.089399844
-0.06322355 0.0970637 0.032375056 -0.19878815 -0.29946905 0.038975857 -0.28903577 -0.023122266
-0.029624803 -0.15304962 -0.032194737 -0.21403022 0.16968992 0.20735116 -0.1380686 0.28594285
-0.3147658 -0.27017227 0.08237127 -0.2029188 0.19353731 0.17062189 0.0132457875 -0.1248273
-0.113324784 0.29850787 0.18392277 0.29815084 -0.21473324 0.13084435 -0.24502261 0.06099416
-0.07752523 0.18222128 0.20715943 -0.14102244 0.028866725 -0.3035048 0.06216259 -0.26527297
0.32320607 -0.24197847 0.3137597 0.16269466 0.3260756 -0.037222143 0.059859894 -0.20426986
-0.15396741 -0.13251671 0.19404481 -0.06518336 0.011580561 -0.2257101 0.19499074 0.10377335
0.26137912 -0.24812756 0.012855414 -0.32474947 0.14967369 0.33437648 0.00036267366 0.10626068
-0.18989988 0.15070322 -0.18139708 0.36195305 -0.07749855 0.08255103 -0.16354564 0.0664237
0.016708272 -0.03656679 0.1412209 0.23231016 0.2750075 -0.24352711 0.037360333 -0.20886566
