results/kinematic_model/model_kinematic_fold_4.pth (torch, 74495 bytes, 48 tensors)

cnn_lstm.res1.conv1.weight f4 [8, 8, 21]
00000000: 2db6 d6bc bc84 16bd d63b 02bd 8519 ddbb
00000010: 9a02 17bd accc d5bc 104d fe3b 5cf6 403b
00000020: 1f52 9dbb 5761 183c 507b 8e3c 54b2 11bd
00000030: 7de6 2c3d a4e1 1dbc 16bb b63c 4897 dcbc
00000040: 6603 ec3c 4740 72ba 0f39 263c 54e0 79b8
00000050: 8f09 cdbc 600c 903c 05d4 a9bc 86f0 43ba
00000060: 4b66 cbbc 2c98 073b 5127 c43c 570e 14bd
00000070: c0b7 373d 5454 d6bb d508 01bd e6ab 293d
00000080: 6364 3d3c 27e2 39bc a818 fb3c 738e d33b
00000090: ba38 883c 4a57 4c3b 42aa 983b 7c75 a13c
000000a0: 7256 a53a 3785 dc3c f3a9 15bd 8e26 9fbc
000000b0: c940 05bc 5771 21bc b347 47bd 31aa 2c3c
000000c0: a9f7 cb3c e346 af3b 257f 073d bec0 8f3c
000000d0: 8b14 5f3c 371c b3ba ca8f dc3c 0f55 43bc
000000e0: 8162 0fbd 6f05 bdbc bbd8 503c 9ba3 723d
000000f0: be17 37bd 8aee 88bc 09ed e73c f9d0 dfbb
00000100: 05b8 323c 366a a43c 6754 223c 035f 2fbb
00000110: 6e36 ebbc 6a1f 863d 0b2d f0bc 4fe9 3bbc
00000120: 473d 003d 568c 803b bb5e 6a3c 07fd 343c
00000130: 48d1 933c d717 4ebc 9309 5dbc 0331 28bc
00000140: 1f97 3c3b 4cb5 663c 843d 16ba 8c24 6c3c
00000150: a7da 37ba 1ef2 6bbc b822 2d3a f5d0 eabc
00000160: 7311 6a3c f308 d3bb 4b02 6cbc 07a4 20bc
00000170: 06b0 993c 4230 93bc f609 963c c414 a33c
00000180: e701 91bc f19f 743d 1547 963c 88b6 5a3c
00000190: 624c 64bb 2238 2b3b 7b1f f9bc 273c e13a
000001a0: f9aa b93c d18c f5bc b644 e1bc caec 92bb
000001b0: 5015 d0ba a32a 74bc 0e8e 8f3c 6b0b 183c
000001c0: 06bd 1338 77e5 63bd 7e9f 203c ae63 2f3b
000001d0: 2b3c 67bc 6dc6 cfbc 0584 d23b 41c7 b9ba
000001e0: 6d09 93bc e8c4 6fbd ebf5 02bc a003 13bd
000001f0: 934a 283c 4394 c53c 943b 52bc 6ffe b63c
00000200: 4f60 14bd d5e8 13bc bf44 a53b 4dbb 77bd
00000210: 7e93 82bc db44 2ebd 7a3b 1abd 1b6a 22bd
00000220: 23c7 d63c f33d 45bd b315 453c b7fc 393c
00000230: da30 3bbd 88d3 84bc 2ded 27bc b0bf 933c
00000240: 5bd2 9c3c 762b 713b 9500 8abc 63d8 bd3b
00000250: 13f2 1ebd 9793 d7bc b60e 2ebd 20ed c0bb
00000260: 6d6f e9bb 65a7 edb9 ea55 e73c 15d2 603d
00000270: b220 83bc 1dfb a83c ccb1 d93c 33f1 2d3b
00000280: ab19 353b 40a9 02bd 00bf a2bb f272 92bc
00000290: 22c7 8bbc 4eda f9bb 2f1b 01bc acf5 4dbc
000002a0: 460e 43bb e71d 1fbd b6c4 a0bb 4eef 803a
000002b0: 3069 3f3c 1b92 67ba e819 123b b7ef 11bc
000002c0: e80a 90bb 681d 78bc 2988 46bb 8458 8a3c
000002d0: 4998 dc3b 09b5 abbb a724 fcbb fd15 cb3b
000002e0: 9d7e b43c 3299 b73b 2ffb bb3c 69ff f63c
000002f0: af9e f3bb d4e7 a03c ae86 bc3c 286e 013c
00000300: 5ce8 9bbc b252 abbb 4731 003b 04cd 40bc
00000310: 2cad 9dba 7ee3 d23c a701 403c 7c22 9ebc
00000320: 95e6 42bc 439e c13c 9917 47bb 60e7 a8bc
00000330: 9388 e03c 8738 17bc 3fac cb3c afe6 a6bc
00000340: d183 a43c 5199 633c 8c26 8cbd 3b64 21bd
00000350: 898e f239 9a6e 8e3c d758 653c 14e4 bf3b
00000360: 6e07 ae3c 441e ea3c 8f11 0a3c 5314 6f3c
00000370: 71d9 44bd d1e4 283c 122d b73c 950f 373d
00000380: e2b5 953b 56b0 533c 461c c5bc 5f40 353c
00000390: 8b52 023c 6074 09bc d460 ca3b c2b2 1dbd
000003a0: c094 f03b e572 6b3b b13d 1c3c b51a 113c
000003b0: 3a6f 16bc 26d3 6e39 b646 53bb 614e 2b3c
000003c0: e2b4 62bc fc33 a3bc abf5 323c 06ac 413c
000003d0: 630c 0abc 8628 23bd cd8a 5a3c 90eb ddbc
000003e0: 4ac3 e63b b215 3c3a 9f1c e23b 08a6 b73b
000003f0: f9db dc3b 4d1c f1bb f47b b1ba 05ae ec3c
-0.026209915 -0.03674768 -0.031795345 -0.006747427 -0.036867715 -0.026098572 0.0077606514 0.0029443717
-0.0048010494 0.009300551 0.017392784 -0.035570458 0.042212 -0.009636316 0.022306006 -0.026927605
0.028810214 -0.00092411455 0.01014544 -5.9575148e-05 -0.025028972 0.017584026 -0.020730982 -0.00074745005
-0.02482905 0.0020690067 0.023944529 -0.036146488 0.044852972 -0.0065408144 -0.031502564 0.0414237
0.011559579 -0.011345423 0.030651405 0.0064561903 0.016628612 0.0031179958 0.004658968 0.019709341
0.0012614264 0.02691899 -0.03653903 -0.019427564 -0.008133122 -0.0098536825 -0.048652362 0.010538624
0.024898367 0.0053490265 0.03308024 0.017547961 0.013615738 -0.0013665025 0.026924033 -0.011922135
-0.03500605 -0.02307388 0.012746985 0.059238058 -0.044700377 -0.016715307 0.02831127 -0.0068303314
0.0109081315 0.020070177 0.009907818 -0.0026759512 -0.028712478 0.065489605 -0.029318353 -0.011469199
0.03130844 0.0039229793 0.014304812 0.011046655 0.018044129 -0.012578926 -0.013491052 -0.010265592
0.0028776599 0.0140813105 -0.00057312124 0.01441301 -0.0007013478 -0.014400987 0.00066046 -0.028664092
0.014286387 -0.006440276 -0.014404844 -0.009804732 0.018760692 -0.017967347 0.018315297 0.019907363
-0.017701102 0.059722845 0.018344441 0.013349183 -0.0034835567 0.0026125987 -0.030410519 0.0017184064
0.022664534 -0.029974373 -0.027498584 -0.004483794 -0.0015875492 -0.0149027435 0.017523792 0.009280066
3.5223573e-05 -0.055638757 0.009803651 0.0026762295 -0.014113466 -0.025363171 0.0064244294 -0.0014173762
-0.01794883 -0.058537394 -0.007993202 -0.03589213 0.010271686 0.024118548 -0.012831587 0.02233812
-0.03622466 -0.009027679 0.0050435956 -0.06048136 -0.01593947 -0.042546134 -0.037654378 -0.03965197
0.026218003 -0.048154783 0.012029099 0.011351756 -0.045700885 -0.016214147 -0.010249418 0.01803574
0.019143274 0.0036799586 -0.01684598 0.0057936176 -0.03880508 -0.026315494 -0.0424945 -0.0058876425
-0.0071238787 -0.0004532888 0.02823921 0.05488785 -0.016006801 0.020627553 0.026574038 0.002654147
0.0027633708 -0.03189969 -0.0049666166 -0.017877076 -0.017062727 -0.007624901 -0.007880016 -0.01257078
-0.0029763146 -0.038846876 -0.0049062623 0.0009836943 0.0116827935 -0.0008833722 0.0022293273 -0.00890725
-0.0043958314 -0.01514373 -0.003029356 0.01688791 0.006732021 -0.005240087 -0.007694799 0.0061976896
0.02203303 0.005602979 0.022946922 0.030151086 -0.007434688 0.019641794 0.023013439 0.007899798
-0.019031696 -0.005228364 0.0019560622 -0.0117676295 -0.0012029759 0.025743242 0.011719144 -0.019303553
-0.011895795 0.023635035 -0.0030379056 -0.02061814 0.027408874 -0.009229786 0.024862407 -0.02037367
0.020082386 0.013891534 -0.0684329 -0.039402228 0.00046264034 0.017386723 0.013998232 0.0058560465
0.021243777 0.028578885 0.008427038 0.014592248 -0.04805893 0.01030846 0.022360358 0.044692595
0.0045688013 0.01292046 -0.024061333 0.011062711 0.00795425 -0.008389562 0.0061760936 -0.038500555
0.007341951 0.0035926637 0.009536193 0.008856465 -0.009181792 0.00022776108 -0.0032238192 0.010455699
-0.013837071 -0.019922249 0.01092283 0.011820799 -0.008425805 -0.039833568 0.013338757 -0.027089864
0.0070423232 0.0007174864 0.0069003846 0.0056045093 0.00674009 -0.00735811 -0.0013540969 0.028891573

cnn_lstm.res1.conv1.bias f4 [8]
00000000: 4ee7 29bc ae0e b43b df77 2a3c 0d41 27bc
00000010: ada5 d4bb 2062 3e3b d18d ca3b d6e3 833c
-0.010370089 0.005494914 0.010404556 -0.01020838 -0.0064894767 0.0029050186 0.0061814566 0.016099852

cnn_lstm.res1.conv2.weight f4 [8, 8, 21]
00000000: cfd1 38bc c391 fabb 4023 d6ba b887 54bc
00000010: a341 a3bb 3f84 b2bc 6215 ac3c 99be 08bc
00000020: af24 fc3c 8a6f 3bbc c037 84bc 3fd2 99bc
00000030: e303 99bc 6685 c43c 0acc b53c 4c6a 15bc
00000040: cacf d0bc b5a5 c3bb 5012 a53b fa84 ff3c
00000050: da0d cb3c 723a 523c b7f1 03bc b473 79bb
00000060: 4040 1cbd c924 e4bc bebc 12bd add8 213d
00000070: 8f23 adba 5d1b 95bc 1687 0fbd 595b a03c
00000080: 1278 2cbc e1a2 86bb 8937 753b 1d57 5a3c
00000090: e37c c4bc 2a48 f0bb 788c 6f3c 0d7c 683c
000000a0: 7d70 6ebc ade0 bbbb d083 2c3c 2f18 74bc
000000b0: bf3e d7bc 1576 d6ba 25e2 f9bc 9be7 c7bb
000000c0: 4494 af3b de71 f63b 7978 7cbc 51df 23bd
000000d0: 05b7 d8bb d68a f438 bfaf 77bc 617b 98bc
000000e0: 66d2 a7bc 9227 7dbc 5e6a df3b d845 813c
000000f0: b4b4 2c3d b862 393b d629 c6bc 127c a3bc
00000100: 1cf2 bcbc d295 e0bc 603a 84bb c2c9 35bb
00000110: a1d7 44bc 5783 e73a 4264 093d 7372 173c
00000120: 625d a43a cbe0 0b3a 70dc 88bc b62d 68bc
00000130: 4c52 003c b19c 63bd cd2e f9bc 9adb 143c
00000140: 8313 c73c 1076 94bc 85e9 71bc cfd0 ae3c
00000150: 5315 8a3c 8f0a 0b3d 28e1 0e3d 1099 73b9
00000160: 9302 87bb b008 383c 3bd9 2ebd fb66 f1bc
00000170: b828 9ebc b7d9 583c 94e2 89bb ed51 d03c
00000180: 3e72 b0bc 58f5 7cbc 1ae2 09bd a6db 08bd
00000190: 18d4 fbba 98f5 4f3b 1786 1d3d 66c4 10bc
000001a0: d508 8fbc 4683 0b3c e15b 09bd 9998 24bd
000001b0: a566 44bd 4685 aa3b ab84 1abc db1f d5bc
000001c0: b5e6 b2bc 4da9 9fbc 99e1 babb 13ca 5abd
000001d0: 6890 0cbd b5f3 283d feaf 123d 9855 36bc
000001e0: 8a2d 2ebc adf3 a23c 3016 c7bc 25ac 27bc
000001f0: 9cbe 56bc bea0 64bc 8ed2 21bd 4909 393c
00000200: bfd5 dabb a9d9 c8bc 211f fc3c 50a0 04bd
00000210: 42e9 ab3b c648 a8bc 9101 9e3c 6dfd f0bc
00000220: b164 74bc 3917 afbc 3747 a7bc 2b45 92bc
00000230: be4b cc3b 9b4b 84ba b4bf a03b d9a8 ba3b
00000240: f342 8ebc 3405 c3bc c066 bcbc 1dd4 cabc
00000250: b3b1 493d 2342 813c 51bf 0e3c c8b0 ddb9
00000260: 753b ad3a 2cbe 24bc cbdd 0bbd 8969 563c
00000270: 20d4 dbb8 9ab1 86bc 0769 7c3c 19d5 5a3b
00000280: 6c43 f63c 41dd db3c c080 393d 4bed ad3c
00000290: fc19 ff3b af26 bebb 1f98 88b9 8e41 3fbc
000002a0: dcaa 443d 055d c2bb 6e73 8abc 8ead c93c
000002b0: 1439 3dbd 09bd dfbc eb5b 98bc e6f5 a1bc
000002c0: 1665 123b 93ad 3c3d 865c 59bd 858e b43a
000002d0: 4ed7 dcbc 3fb7 753c ea31 30bc 29f3 5fbb
000002e0: 2385 32bd c15f febc e974 a2bc 7154 c837
000002f0: 0792 0abc 57fd a43b 40a4 83bc 96ed 8dbc
00000300: c274 07bc 37a9 b4bc 224b 4fbc 3fd4 013d
00000310: e8d8 a9bb 8f3a 1a3c 1f5a b93a f4f4 8cbc
00000320: 8aab c0bc f953 6a3c a91f 9dbc 9044 ba3b
00000330: 40b2 85bb df5f e6bc cfb7 333b ddfc ac3c
00000340: d443 bd3b 8853 0a3b 4d3b 1e3d 32b2 a9bc
00000350: 487a 153d e8ec 5abc 5376 c7b8 925c 32bd
00000360: ce12 783c f799 49bd c1f2 33bc 7b66 1ebd
00000370: 1bd4 2fbc fb80 723c c987 54bc b1fe a7b9
00000380: b21c 91bc 05e2 46bc 92be acbc 508c c63b
00000390: 18c7 1abd 7bc9 9dbc d2ba 453c c605 5a3b
000003a0: af1a f1bc 2fb2 3cbb aa4e a23c 3938 8cbc
000003b0: 058a c9bc 4c35 cdb9 038a fc3c a6a4 ce3c
000003c0: c3c6 833c 7e85 0139 882d 0c3c f86f dabc
000003d0: 6f96 953c d882 99bc dfe4 dcbc 0480 d13b
000003e0: e2bc cc3b de92 fabc f0df a3bb 3e0e ecbc
000003f0: f717 2b3c 9980 403c f304 963c 73c0 23bd
-0.011280491 -0.0076467707 -0.001633741 -0.012971811 -0.0049821897 -0.021791575 0.02100629 -0.008346223
0.03077921 -0.011440167 -0.016139865 -0.018777011 -0.018678611 0.02398939 0.02219202 -0.009119581
-0.025489707 -0.0059706816 0.0050375834 0.031191338 0.024786878 0.012831317 -0.008053235 -0.003806335
-0.03814721 -0.027849572 -0.03582453 0.03951328 -0.001320945 -0.018201524 -0.035040937 0.019574808
-0.010526674 -0.004108772 0.0037417135 0.0133264335 -0.023985332 -0.0073328214 0.014620893 0.014189732
-0.0145531865 -0.0057335705 0.010529473 -0.014898344 -0.026275037 -0.0016362095 -0.030503342 -0.0061006076
0.005358251 0.0075208982 -0.015409582 -0.040007893 -0.0066136145 0.00011660687 -0.015117585 -0.01861352
-0.020486068 -0.015451329 0.0068181 0.015780374 0.04216452 0.00282876 -0.02418987 -0.019956622
-0.023064665 -0.02741519 -0.004035279 -0.0027738665 -0.012014301 0.0017663044 0.03354288 0.009243595
0.0012540037 0.0005335926 -0.016706675 -0.014171055 0.007832121 -0.055569354 -0.030417824 0.00908556
0.024301296 -0.018122703 -0.014765148 0.021339802 0.016855871 0.033945616 0.034882694 -0.00023231306
-0.00412018 0.01123254 -0.042687636 -0.02946805 -0.019306526 0.013235501 -0.0042079184 0.02542969
-0.02153885 -0.015439354 -0.033662893 -0.033412598 -0.0019212989 0.0031732079 0.038457956 -0.008835888
-0.017460266 0.008515185 -0.03353489 -0.04018459 -0.047949452 0.0052038757 -0.009431045 -0.026016166
-0.021838525 -0.019489909 -0.005703163 -0.05341537 -0.034317404 0.041248042 0.03581237 -0.011128806
-0.010630975 0.019891584 -0.024302572 -0.010233914 -0.013106968 -0.01395434 -0.03950744 0.011293718
-0.0066783126 -0.024517851 0.030776562 -0.03237945 0.0052463124 -0.020542514 0.019287856 -0.029417718
-0.014916585 -0.021373378 -0.0204197 -0.017855247 0.006234615 -0.0010093333 0.0049056653 0.0056963977
-0.017365908 -0.023806192 -0.022998214 -0.024759347 0.049241733 0.015778607 0.008712606 -0.00042284117
0.0013216572 -0.010055106 -0.034147065 0.013086685 -0.00010482245 -0.016442109 0.0154059 0.0033391176
0.030061446 0.0268389 0.0452888 0.021231314 0.00778508 -0.0058029513 -0.0002605328 -0.011673344
0.048014507 -0.005931499 -0.016900744 0.02461889 -0.046197012 -0.027311819 -0.018598517 -0.019770574
0.0022338084 0.04606397 -0.053066753 0.0013775384 -0.026958134 0.014997303 -0.010754088 -0.0034172034
-0.043584 -0.031051518 -0.019831138 2.3881179e-05 -0.008457667 0.0050350833 -0.016069531 -0.017325204
-0.008267583 -0.022053344 -0.01265219 0.031696554 -0.005183328 0.0094133755 0.0014141238 -0.017206647
-0.023519296 0.014302247 -0.019180136 0.005684443 -0.004080087 -0.028121887 0.002742279 0.021116668
0.005775908 0.0021106917 0.038630772 -0.020714853 0.03649357 -0.013362147 -9.511099e-05 -0.043545313
0.015141202 -0.049219098 -0.01098317 -0.03867195 -0.010731722 0.014801259 -0.012971827 -0.00032042482
-0.017713878 -0.012138848 -0.021086965 0.006059207 -0.037787527 -0.019261112 0.012068467 0.0033267601
-0.029431669 -0.002879273 0.0198129 -0.017116653 -0.024601946 -0.00039140356 0.030827528 0.025224995
0.016085988 0.00012352128 0.008555777 -0.026664719 0.018260209 -0.018739149 -0.026964603 0.0063934345
0.0062481025 -0.03058761 -0.0050010607 -0.028815385 0.010442725 0.01174941 0.018312907 -0.039978456

cnn_lstm.res1.conv2.bias f4 [8]
00000000: 31e1 213a 70fc da3b cccc 1cbc 774d 3d3b
00000010: 5679 eebb a0d4 8b3a 1df1 0cbb b63e 86bc
0.0006175219 0.006682925 -0.009570312 0.0028885284 -0.007277648 0.0010668226 -0.002150602 -0.016387325

cnn_lstm.conv1.weight f4 [8, 8, 21]
00000000: ccb0 42bc 4a7f fa3c 2405 eabc 2c40 21bb
00000010: 0c99 373c 5a74 05bd 90fc 4b3c e414 9e3b
00000020: 9e98 8d3c 0344 38bc 4519 9cbc 7286 813c
00000030: c68b 8dbd 54e3 15bd 0c32 1c3c 4b43 aabb
00000040: e2cb 733b 9991 83ba 5f2c c4bb 6431 10bc
00000050: 816f fa3b 29f5 cebb 1053 38bb 5aea 5ebb
00000060: 29c5 15bd e718 a83c b542 ae39 21d2 febc
00000070: 4d70 c03c b43f a3bc ad4f e13b 5c38 103d
00000080: b44b 163c 3423 d439 c49d 7b39 bb9c cd3c
00000090: ded2 50bc 8b61 263b de6f 02bb 0143 073c
000000a0: 68d9 0a3a 210a 39ba 0547 533c b007 c1bc
000000b0: e05c a9bc 48b1 9ebc 74af 473b c51f c9bc
000000c0: e780 1cbd 16c6 25bc 189d b3bb c619 cbbc
000000d0: 1d0f e0bc fdb7 26bb c67e 72bc a621 463c
000000e0: 97bd 003c 0390 16bc efa5 adbb dc22 35bc
000000f0: 004f 6fbb 51c0 efbc 1784 3bbd 1fb1 903a
00000100: 3d7a 983c acc5 89bb 8092 363d 1929 0fbd
00000110: 54fe c3bc 18de cfbb b5df c2ba 9527 66bc
00000120: 8a08 203b d17b 87bb c88e 093c b98e 72bc
00000130: 3efa 583c f4e4 3c3d 0ad9 fcbb ff1d 0fbc
00000140: 996e 473d 8f8b a13c 2fb6 1abd 3715 093b
00000150: e779 cabc 931f 6b3c 5030 63bc 85cb 583b
00000160: 9e8a 11bd 6a32 47bc f34a 30bd 9476 1dbd
00000170: c4a2 123b 8838 ecbb dd26 3abc f256 f3bc
00000180: ad79 c7bb 4a56 d7bc 0822 0abd fb61 6a3c
00000190: 6bf3 a63b a7b3 96bc 5ccf 9abc 49e2 68bc
000001a0: 2663 a3bc f8da 043b ee3a dabc 8866 8abc
000001b0: b72b eabb 70ba 00bc 1cf7 f33b 2f74 beba
000001c0: be7b 17bb ac6a c0ba 3893 49bd e982 34bc
000001d0: 8229 83bc deae f03c a637 17bd 60ca 03bd
000001e0: 743e a23b 70f1 af3c eaf7 15bd 28f3 4dbd
000001f0: 247a 56bd 5987 273c 1b7d e1bb c54b 3cbc
00000200: e252 7abc 97c3 143c 6345 6939 b891 6abc
00000210: 1005 4dbb 472b 86bb 514c d2bc 5ada 2e3c
00000220: b8d5 56bc 6a4a 90ba 3f2d 853c 040b 23bd
00000230: 89c8 f3bc 3067 debc 846b 03bb 1914 66bc
00000240: 7e25 01bc b5d2 d7bc edb5 1a3c 24c0 873c
00000250: ba1f 25bc 49e4 fa3a d54b ddbb d6ea 073d
00000260: 4ec1 1fbb d59d 4dbd 89ec 2d3a a5d6 a9bc
00000270: b6ce 5e3c 5fd8 25bd 87cc e53a dd4f c8bc
00000280: 1847 92bc 94ab bb3b 3df3 ccbb 916a 5cbc
00000290: 4e11 d3ba add1 b0bc 382a ec3c 7556 bf39
000002a0: 34fd 833b a474 b6bc f75f 7dbc bdea cfb9
000002b0: 2e3e f7bc c848 8fbc ebb5 fd3b c98d f9bc
000002c0: 8c61 6abb 0eb7 19bc 720c 383b 5137 c0bb
000002d0: d30f 833c 8d74 12bc dae0 363b 7efb 533b
000002e0: 70a3 d6bc f590 343c 930c f63b aea9 e7ba
000002f0: aa51 7f3c 799f 2bbc d1c3 3cbb 6828 92bb
00000300: 3f09 39bc c6a4 f8bb 67dd aabc 12b5 4dbd
00000310: fafe c73c 1265 a53c 267e 8a3c 2bbd 1c3c
00000320: 89fc 113c daca 493d e956 a13b cc56 a93c
00000330: b385 73bc 5ee9 a73c 7f80 ceba 3c93 a53c
00000340: af29 963c bfb1 c6bb 39d0 c1bc 460f ffba
00000350: b51d c83c 71fa a6bc f71f 80bc 2397 233c
00000360: 57d2 e53b 609f 3abc 4a19 0dbc ddff 97bc
00000370: 89bf a73c 8214 54bd 83fd 4dbd 8502 023c
00000380: 9863 58bc e100 9bb9 9bf2 37bc e5ba a7bc
00000390: 4b10 0bbd fbd9 83bc 1b87 68bb f9da 33bd
000003a0: 3390 edbc 2106 1bbd 6cb2 57bd 2ff7 c1ba
000003b0: ac3d 8d3c aaf3 433b db5c beba de8b 07bd
000003c0: 681f 4abc aaad 0dbd ec38 31bd 563c 89bb
000003d0: d8b2 ddbc 346e b8bc 2ba7 3abc 86ce a4bb
000003e0: c0ac 3dbc f1ae 633a b3db fbbb 08e7 97bc
000003f0: 6fb1 ffbc 1190 86bb b8c7 f1bb 2228 cfbc
-0.011882972 0.030578274 -0.028566904 -0.00246049 0.011205923 -0.032581665 0.012450352 0.0048242677
0.017284688 -0.011246684 -0.019055018 0.015811179 -0.06911425 -0.03659375 0.0095334165 -0.00519601
0.003720038 -0.0010037898 -0.0059867348 -0.008800838 0.007642687 -0.0063158465 -0.002812568 -0.0034014196
-0.03656498 0.020519687 0.00033237567 -0.031106057 0.02349105 -0.019927837 0.006875953 0.03521
0.0091733225 0.0004046202 0.00023995998 0.025099149 -0.012745587 0.002538773 -0.0019903104 0.008255721
0.0005296678 -0.0007058699 0.01289535 -0.023563236 -0.020674169 -0.019371644 0.0030469568 -0.024551282
-0.03820887 -0.010118028 -0.0054813735 -0.024792563 -0.027350957 -0.0025439255 -0.014800733 0.012092983
0.007857702 -0.0091896085 -0.005299322 -0.011055674 -0.0036515594 -0.029266508 -0.045780268 0.0011039114
0.018612975 -0.0042044725 0.044573307 -0.034951303 -0.023924984 -0.0063436143 -0.0014867695 -0.014047523
0.0024419152 -0.004134633 0.008395858 -0.014804536 0.013243256 0.046116784 -0.0077163028 -0.008735179
0.04868946 0.019719867 -0.0377714 0.0020917186 -0.02471633 0.01435079 -0.013866499 0.0033080291
-0.035532586 -0.012158016 -0.043040227 -0.038443163 0.0022374848 -0.0072088875 -0.011361805 -0.029704545
-0.006087503 -0.026286263 -0.03372386 0.014305587 0.0050949357 -0.018396212 -0.018897705 -0.014214107
-0.019944739 0.0020272117 -0.026639428 -0.016894594 -0.0071463245 -0.00785695 0.007445229 -0.0014530475
-0.0023114528 -0.0014680228 -0.049212664 -0.01101754 -0.016011003 0.029380258 -0.036918305 -0.03217542
0.0049512926 0.021477431 -0.036613382 -0.05028072 -0.052362576 0.0102251405 -0.006881369 -0.011492674
-0.01527855 0.009079835 0.0002224646 -0.014316969 -0.0031283535 -0.0040945145 -0.025671156 0.010672176
-0.013112478 -0.0011008505 0.016256927 -0.039805427 -0.029758709 -0.027148813 -0.0020053098 -0.014042878
-0.007882474 -0.02634559 0.009442789 0.016571112 -0.010078365 0.0019141521 -0.0067534246 0.03318294
-0.0024376693 -0.05019935 0.0006634673 -0.020732233 0.013599088 -0.04048955 0.0017532267 -0.024452144
-0.017856166 0.005727241 -0.006254582 -0.013453142 -0.001610318 -0.021584356 0.028828725 0.00036494774
0.004027987 -0.022272415 -0.015464774 -0.0003965701 -0.030181017 -0.01749076 0.0077426336 -0.030463116
-0.003576371 -0.009382023 0.002808359 -0.005865969 0.015998757 -0.008938921 0.0027905018 0.0032345946
-0.02620098 0.011020889 0.007508823 -0.001767447 0.015583435 -0.010475033 -0.002880324 -0.004460383
-0.011293708 -0.007588002 -0.020857526 -0.05022151 0.024413574 0.020189796 0.016905855 0.0095665855
0.008910307 0.04926572 0.0049236906 0.02067127 -0.014863419 0.02049702 -0.0015754848 0.020211808
0.018330423 -0.0060636695 -0.023658859 -0.0019459508 0.024428228 -0.020383092 -0.015640242 0.009984764
0.0070136 -0.011390537 -0.008611986 -0.018554622 0.020477073 -0.05177737 -0.050290596 0.007935171
-0.013207339 -0.0002956456 -0.011227275 -0.02047486 -0.033951085 -0.016095152 -0.003548092 -0.04391
-0.028999424 -0.03784764 -0.05266039 -0.0014798398 0.017241322 0.0029899874 -0.0014523523 -0.033092372
-0.012336589 -0.034589447 -0.043267176 -0.004188101 -0.027062818 -0.022513486 -0.011392395 -0.0050295023
-0.011576831 0.0008685431 -0.0076861023 -0.018542781 -0.031212537 -0.0041065295 -0.0073785447 -0.025287692

cnn_lstm.conv1.bias f4 [8]
00000000: 877c 343c b3fb 1bbb 7885 043b 5743 01ba
00000010: 760c 2c3c d460 e03b c35e db3b 147c 3f3b
0.011016018 -0.0023801147 0.0020221155 -0.0004930994 0.010501018 0.0068474803 0.006694646 0.0029218243

cnn_lstm.res2.conv1.weight f4 [8, 8, 21]
00000000: cfeb edba 5575 f3bc 1283 143c 018a e3bc
00000010: b60e c03c 7b56 fa3c 0b3e e5bb 0121 9a3c
00000020: 8724 75bc 4c6e 4dbc 63b5 323c 1d04 5b3c
00000030: b923 943c a0a4 dabc 53e8 ce3b 3f46 ee3c
00000040: 1739 bb3b 8538 2abc 0640 1a3a 1ceb 0bbc
00000050: 703f 4dbc 506a e93c 8e78 a33b aff9 69bc
00000060: e371 033b 7e0d 92bc 0e52 febc 4408 b33c
00000070: d6c6 d4bc cdad c73c e7e3 eb3b 57ef 003a
00000080: d67c 113b 156e 873b 32b7 9ebb 0784 99bc
00000090: d1bf 0a3c 1807 4bbc 6250 453d b3f5 123c
000000a0: acc2 9abc 75fa febb 4220 00bd 88d4 43bc
000000b0: a560 fabc 7e02 cdbc 0135 cfbc 96a4 c3bc
000000c0: 3ac5 0b3c ffcf 063b e7be c8bb bf6f 463c
000000d0: 4b4e 4b3c 3c18 2cbc b70b 60bc fb77 db3c
000000e0: 59ba 4bbb 2969 433c d16b 3ebb 6a24 b13c
000000f0: 36d3 a2b9 3bca 23bc 6b31 67bc 995a 41bc
00000100: 7fbf 36bb 70cc 3f3c 5244 82bd f228 21bd
00000110: e73f 26bc 1248 b9bc d3ba dd3b c306 e23c
00000120: 51f3 523c add1 03bd 92b1 8e3c 25cf 2ebc
00000130: 9d26 81bc f2f2 e9ba 5b31 173c 7e66 80bb
00000140: 9d69 d8bc 3d2e e1bc fb8e 4fbd d8ab 3fbd
00000150: be81 c83b 9ec6 833c 1aed 7abc faa0 2f3a
00000160: a97e 84ba bb6f 373c 8f37 8bbc 752c 503c
00000170: db6c a7bc b622 0abd 3dff 03bd 2d13 8f3a
00000180: 2ba8 733b ecc1 e8bc 69d9 24bd 6c0f 84bc
00000190: 19d9 c7bb 7835 abbc 106b c0bc d05f 84bc
000001a0: f8f9 833a 1417 c73b 70c2 a13c 9b92 71bb
000001b0: a6ee ceb8 a62d e9bc e480 66bb 1828 1b3c
000001c0: a740 843b bc84 ec3c 4db4 093c e3b7 ed3c
000001d0: 9aab dc3b 84ea 62bc 5020 d0bc 1d52 c33c
000001e0: 1b1b 4cbc 7866 83bc f409 cfbc 5d78 9e3c
000001f0: 65c1 69bc 09a9 a43c 5479 7dbc 3950 6b3b
00000200: e217 323c 9695 6cbc 0db4 f03c 05bd 29bd
00000210: 6b45 0cbc 5a32 41bc 33c9 053c c671 9bbb
00000220: 9f23 b93b 3047 e4bc 5317 cd3a 0623 013d
00000230: 6187 373b d919 1d3c 317c d9bb da3c c7bc
00000240: d3c4 17bd ef59 c1bc 1bc9 e1bc 473a b6bc
00000250: 1aff e63a be31 debb 04f7 843b d52b 283a
00000260: 73d0 cd3b 2676 47bc e66e 17bd 2bfa 0d3c
00000270: c531 72bc c4f4 48b9 9e5f fcbc 4004 4bbc
00000280: dd01 16bc f5e5 bbbc 272e 61bb 5aa9 aebb
00000290: 8751 52bd 1802 c53b 8a14 2ebc c6a9 a6bc
000002a0: 7ad5 673c a3ec 043d b778 793c 9c06 013c
000002b0: b39c 36bc e60b b0ba 74cc 1b3a 0d2c d43b
000002c0: 12e3 3dbd 5e33 973b 3cc0 64bc 3245 793c
000002d0: 9308 31ba 1125 1cbd 5438 4a3c 6521 f03c
000002e0: 3073 bbbc 1c08 a7ba 6a34 183d 5f58 ca3c
000002f0: 6ee7 383c 7f62 9cbc 299a 863c 87ec bcbc
00000300: 164e 333c 19e7 463d 5664 093a 6d85 593c
00000310: 123f 233b 6857 e13b d352 8b3c f80a 163d
00000320: e002 c83c 8458 5f3c 514b 473c 7b43 0c3d
00000330: 38b1 8a3c ee49 fc3c 206e cd38 9648 173c
00000340: 7176 913c d4c6 b83b f954 60bc 21d4 3dbd
00000350: ed19 f6bb b1c5 dcbc 4c8f a83c c4b4 2e3b
00000360: bbf8 623b 83ea d1bc f976 9b3b e7fd 1f3c
00000370: d39b 583c 146d 03bd 6c24 983c 4390 8abc
00000380: 9355 063d 67eb 00bd dd6f 57bc 0503 3bbd
00000390: 2cd5 cfbb 3523 15bd 1554 cbbb 3c70 31bd
000003a0: bc05 d0bc 1439 fa3b bdee 08bc 1c69 3ebc
000003b0: def7 c139 c60d 24bd 29aa 85bc d69e 4a3c
000003c0: 819a a33b bdef 92bc ab82 11bd 40b5 c83c
000003d0: 1d6c e13c 9c2f c83b 0042 333c b180 aebc
000003e0: 2dac 9e3c fcdf b3bb 3cca 9fbb 6851 49bd
000003f0: 08db b9bc 5ccb afbc 4e01 263b 2436 2c3b
-0.0018151941 -0.029719034 0.009064453 -0.027775766 0.023444515 0.030558815 -0.0069959215 0.018814566
-0.014962322 -0.012538504 0.010907504 0.01336768 0.01808344 -0.026689827 0.0063143163 0.02908623
0.0057135927 -0.010389452 0.0005884174 -0.008539941 -0.012527332 0.028493077 0.0049887365 -0.014280721
0.0020056895 -0.0178287 -0.031044986 0.021854527 -0.025973719 0.024374867 0.007198799 0.0004918477
0.0022199652 0.004132996 -0.004843616 -0.018739713 0.008468584 -0.012391828 0.048172362 0.008969712
-0.018891655 -0.0077813216 -0.031280763 -0.011952527 -0.030563662 -0.025025602 -0.025293829 -0.023882192
0.008530909 0.0020570753 -0.006126273 0.012111603 0.012408803 -0.010503825 -0.013674668 0.02679061
-0.0031086414 0.011926928 -0.0029055963 0.021623809 -0.00031056412 -0.009996946 -0.014110903 -0.011801385
-0.0027885137 0.011706457 -0.06360687 -0.03934569 -0.010147071 -0.022617374 0.006766656 0.027591115
0.012875394 -0.032182384 0.017418656 -0.010669504 -0.015765483 -0.0017848893 0.009228076 -0.003918468
-0.026417548 -0.027487868 -0.050673466 -0.046794742 0.006118982 0.016085919 -0.0153153185 0.00066997076
-0.0010108548 0.011196072 -0.016994266 0.012705912 -0.020437649 -0.03372451 -0.032225836 0.0010915749
0.0037179093 -0.028412782 -0.0402464 -0.016120635 -0.006098878 -0.02089952 -0.023488551 -0.016158968
0.0010069003 0.006075749 0.019746035 -0.0036861065 -9.867297e-05 -0.02846415 -0.003517204 0.009470008
0.0040360275 0.028871886 0.008404803 0.029018348 0.0067343237 -0.013849858 -0.025406033 0.023842866
-0.012457634 -0.016040072 -0.0252733 0.019344503 -0.0142673 0.020100133 -0.015470821 0.003590597
0.010869952 -0.014439961 0.02938273 -0.04144003 -0.008561472 -0.01179179 0.008165645 -0.0047437875
0.0056499983 -0.027865976 0.001564721 0.03152754 0.0028004276 0.009588682 -0.006637119 -0.024321008
-0.03705294 -0.023602454 -0.027561715 -0.022244586 0.0017623634 -0.006780832 0.004057767 0.0006415223
0.0062809526 -0.012174165 -0.036970995 0.008665602 -0.014782374 -0.00019164669 -0.030807313 -0.01239115
-0.009155718 -0.0229368 -0.0034359784 -0.005330247 -0.05134728 0.0060122125 -0.010625014 -0.020344626
0.014150018 0.032452237 0.015226535 0.007875111 -0.011145758 -0.001343128 0.00059432467 0.006474978
-0.04635913 0.0046142777 -0.013961848 0.015214251 -0.0006753292 -0.038121287 0.012342531 0.029312799
-0.022882074 -0.0012743506 0.03715936 0.024700342 0.011285646 -0.019089935 0.016430931 -0.023062004
0.01094391 0.048560236 0.00052410865 0.01327644 0.002490942 0.0068768747 0.017007267 0.036631554
0.024415433 0.013631944 0.012163953 0.034244042 0.016930208 0.030796971 9.795674e-05 0.009233614
0.017756673 0.0056389365 -0.013692134 -0.04634488 -0.007510415 -0.026949735 0.020576142 0.0026658038
0.0034633118 -0.02562452 0.0047444073 0.009765125 0.013220745 -0.032086447 0.018572055 -0.016914492
0.032796454 -0.031474497 -0.013149229 -0.045657177 -0.0063425507 -0.03641053 -0.0062050917 -0.043319926
-0.02539336 0.007636199 -0.008357701 -0.01162174 0.00036996504 -0.040052198 -0.01631649 0.012366971
0.0049927835 -0.017936582 -0.035525005 0.02450049 0.027517373 0.006109191 0.010941029 -0.0213016
0.01936921 -0.0054893475 -0.004876403 -0.0491499 -0.02268745 -0.021459274 0.0025330367 0.0026277388

cnn_lstm.res2.conv1.bias f4 [8]
00000000: 293c 0bbb 1e20 3e3c b9bb eebb 46b1 853b
00000010: 75de 143c 3ff0 353c 014c fc3b 4d46 8dbb
-0.0021245575 0.011604337 -0.007285562 0.0040799705 0.009086241 0.011104642 0.00769949 -0.004311359

cnn_lstm.res2.conv2.weight f4 [8, 8, 21]
00000000: 32e5 8f3c 244f d6bc 572d 54bc 303f 64bc
00000010: fd2a 65bc 20f6 103d ddd3 ecbc d054 2c3b
00000020: 5cbc 24bc 778b 2bbd bff7 92bb 66f3 e73c
00000030: e72c 19bc 7f34 4bbc f876 193c 224f b0bc
00000040: 8c55 48bb 3122 87bc 2b3c 0abc 1afb 5dbc
00000050: 6365 153d 5f3e 89bc 2e14 dcbc 77b7 8f3b
00000060: 46d4 143c 0f78 0abd a5bf 8a3b 3398 3abc
00000070: c2b8 0fbd 3a9b 3abc 4d57 a2bc 3bf1 97bc
00000080: a834 23bc 3651 db3c da47 57bd 2ca4 1aba
00000090: d6af bc3c edb1 df3c 0115 61bc d592 1ebc
000000a0: 380a d53a e461 903b 450f cdbc 0721 3fbc
000000b0: 24d1 363c 1d02 c6bb 3bb5 923c a939 913b
000000c0: 0bca 82bb 19fb 573a a536 3f3b 7f41 163c
000000d0: b3d6 2abd 2ef1 013c cd73 2ebd ff51 c43c
000000e0: 86c4 a2bb 8226 e0bc 212d 03bd 2f7e 333d
000000f0: 0d88 d9bc 84e3 213b 31b1 39bc 28c7 39bc
00000100: bb63 ea3c 0451 4bbc 9cab f73a e884 abbc
00000110: bada 4cbc 934f b039 1a8d 1d3b 6c7d 153c
00000120: c333 49bc add4 d3bc b18f a5bc 6efc 1ebd
00000130: 791a d0ba 0c98 383d 9095 2a3c a4bc 603b
00000140: 6339 83bc 5463 473b 559d bf3c 9525 3b3a
00000150: 0be4 9dbc 4aac 673c ad09 28bc dec3 cfbc
00000160: 6b93 80bb f3cc 29bd ca06 d4bb a246 bebc
00000170: 00e3 bbbc ba45 adbb 9ab5 7e3c c9ab 273d
00000180: 1c68 03bc 9110 2abc 4db2 553c c887 d6bc
00000190: 7d18 29bb 3733 f43c 2d79 ac3c 670f 3cbc
000001a0: cf3d 143c 51e5 12ba 1a3f 74bb 4ace 49bc
000001b0: 5bd8 2e3c 5228 76bb 5b9d b8bc 0a4a 17bd
000001c0: a06b 64bc 7526 3cbb 7b1c 7c3c f5d4 023b
000001d0: acbe d33a e25d 72bb 5cd6 9f3c f811 bb39
000001e0: f867 ad3c f3e9 31bc c3d5 6d3c 51b1 303d
000001f0: 89bc 3e3b aa7b c83b cb73 19bd 7806 80bc
00000200: f1a8 243c 8393 32bd 385c bdbc 3193 d5bc
00000210: 0b7a b1bc 3c65 9bbc c627 abbc e99d d63c
00000220: 408d 12bb ed58 9fbc ad4d 1dbd a0fe d5bc
00000230: 4155 1abd 7b47 a1bc 488f 763c ac9e 28bc
00000240: 99fd c6bc f7e0 51bc a9c2 4cbb 40a4 b93b
00000250: febf 17bd e960 483c 297f 13bb 7e07 23ba
00000260: 9d13 3dbd 7472 dbbc 4d36 d0bc 4430 28bd
00000270: 7049 13bd 8bac 85bc 3d00 cfbb 88a7 9abc
00000280: 0a82 313c b0e5 ae3c db20 dcbb 078b 9e3b
00000290: a5d5 043c 65e4 7abd 6e36 aeb9 0e1a d93b
000002a0: 68c1 b03b 5a05 fa3c ef51 b03c ee9f 2a3b
000002b0: 724c bfbc 13ec fb3b c7b0 733c 528f 643d
000002c0: 2983 f93b 864e 7f3c daae f33c 198d 87bb
000002d0: 983d 1a3d af1a 8bbb bfb5 263c d3b4 083d
000002e0: 1598 b93c 3a17 3cbb 6561 9e38 7cca 10bd
000002f0: fe51 adbb d8cd 943c 5c2e 88bb 425e 8b3c
00000300: 2c34 053d b32a 63bb 29c8 553d 935b 8d3c
00000310: fee8 5c3c a723 133b 333c eb3b edd8 5dba
00000320: 9c22 623c 82cf fe3b a301 803c 76eb ff3c
00000330: c3c9 743b 2d13 2a3c 8007 283d a1ea 16bb
00000340: 1378 db3c f4a9 af3c 68bf 9bba 0e4f b9bc
00000350: 6396 b4bb 99ec 1dbc 47f1 32bb 3df6 733c
00000360: 81db 573c fca8 f73b 4c37 b63c 4b3f ceba
00000370: 98ca d13c c0dc 3f3c 8479 d23c 1ab7 a4bc
00000380: 6536 4b3c 85ed 4abd 8f16 ef3b 0802 c1bb
00000390: 6a72 0cbd db75 0b3c bddd 7ebc d0d5 c6bc
000003a0: 8320 23b9 2b95 08bc 40a7 f7bc 6585 373b
000003b0: 3afb 783c 0efc 5839 55c4 0b3d 5688 b4bc
000003c0: 8b94 b9bc d524 d9ba eb53 afbc 7538 92bb
000003d0: 4501 0e3d 3797 14bc 8ad4 59bc ab10 b13c
000003e0: cba4 98bc 2ae1 3dba 215b 24bd 83b3 833c
000003f0: bd30 403d ca05 d7bb ad00 49ba 100d 1b3b
0.017565344 -0.026160784 -0.012950263 -0.013931081 -0.0139873 0.035390973 -0.028909618 0.002629567
-0.010054674 -0.04188105 -0.0044851 0.028314304 -0.009349084 -0.012402653 0.009366743 -0.021522108
-0.0030568568 -0.016495796 -0.008437197 -0.013548637 0.036473643 -0.016753374 -0.026865091 0.0043858844
0.009083813 -0.033805903 0.0042342716 -0.011388826 -0.03508831 -0.011389548 -0.019817019 -0.018547645
-0.009961285 0.026772123 -0.052558757 -0.00058990973 0.023033064 0.027306521 -0.013737918 -0.009678562
0.0016253656 0.0044062007 -0.025031695 -0.011665589 0.011158261 -0.0060427324 0.017908683 0.0044319225
-0.0039913706 0.00082390156 0.0029176858 0.009170889 -0.04170866 0.007931037 -0.042590905 0.02396488
-0.004967275 -0.027362112 -0.03202546 0.04382151 -0.026554132 0.002470226 -0.01133375 -0.011338986
0.028612008 -0.012409452 0.0018895748 -0.020937398 -0.01250332 0.00033628623 0.0024040402 0.009124141
-0.012280407 -0.025858248 -0.020210119 -0.038814954 -0.001587703 0.04506688 0.010411635 0.0034292126
-0.016018575 0.0030424194 0.023390451 0.0007139084 -0.019273778 0.014140198 -0.010256213 -0.025361951
-0.0039238236 -0.04145522 -0.006470536 -0.02322704 -0.02293539 -0.005287853 0.015546227 0.04093531
-0.008020427 -0.010379926 0.0130429985 -0.026187792 -0.002580195 0.029809577 0.021053875 -0.011478282
0.009047939 -0.0005603629 -0.0037269057 -0.01231725 0.0106717 -0.0037560654 -0.02253597 -0.036935844
-0.013941675 -0.0028709446 0.01538765 0.0019963358 0.0016154847 -0.0036982228 0.019511394 0.00035680807
0.02116774 -0.0108590005 0.014516297 0.043137852 0.0029104075 0.0061182575 -0.037463944 -0.015628085
0.010050044 -0.04359771 -0.023115262 -0.026071163 -0.02166464 -0.01896917 -0.020892989 0.026198344
-0.0022362024 -0.019451583 -0.038404156 -0.026122391 -0.03767896 -0.019687405 0.015048809 -0.010291737
-0.024290847 -0.012809983 -0.0031243956 0.005665332 -0.037048332 0.012230136 -0.0022506213 -0.0006219073
-0.046161283 -0.026787974 -0.025416518 -0.041061655 -0.035958707 -0.016317626 -0.006317167 -0.018878713
0.010834226 0.021349758 -0.006717784 0.0048383507 0.008107577 -0.06125297 -0.0003322842 0.0066254204
0.0053941496 0.03052013 0.021523444 0.0026035267 -0.023351882 0.0076880543 0.01487369 0.055800743
0.0076145125 0.015582686 0.029746462 -0.004136693 0.037656397 -0.0042451243 0.010175168 0.033375572
0.022655526 -0.0028700368 7.552168e-05 -0.035349354 -0.0052893152 0.01816456 -0.004155917 0.017012719
0.032520458 -0.0034662902 0.05219284 0.01725558 0.013483284 0.002245167 0.007178807 -0.00084628054
0.013802197 0.0077762017 0.01562578 0.031240206 0.0037351705 0.010380548 0.041022778 -0.0023028033
0.026790654 0.021443345 -0.0011882605 -0.022620704 -0.0055110916 -0.009638929 -0.0027304457 0.014890251
0.013174892 0.0075579863 0.022243164 -0.0015735416 0.0256093 0.011710346 0.025692709 -0.02010684
0.012403105 -0.049542923 0.0072963904 -0.0058901347 -0.0342888 0.008511986 -0.015555796 -0.024271876
-0.00015557003 -0.008336346 -0.030231118 0.0028003093 0.015196616 0.00020693263 0.034122784 -0.022037666
-0.022653839 -0.0016566763 -0.02140232 -0.0044622966 0.03466918 -0.009069256 -0.013295302 0.021614393
-0.018633267 -0.000724333 -0.04012597 0.016076809 0.04692148 -0.0065619694 -0.0007667642 0.002365891

cnn_lstm.res2.conv2.bias f4 [8]
00000000: 1149 1cbb b2f8 cabb 3593 073a 59b3 323c
00000010: 2716 393b a43b e03a 12dd b63b 89b6 58bb
-0.0023847262 -0.0061941976 0.0005171777 0.010907018 0.0028241964 0.0017107618 0.005580553 -0.0033067784

cnn_lstm.conv2.weight f4 [16, 8, 21]
00000000: 12a6 ce3b 15bf 4cbc dd39 66bc 6cf9 be3c
00000010: 532b d2bc 7bd0 d9bc 5f72 35bd 3c17 d7bb
00000020: 765c 3a3a 3789 d1bc 515c ad3c b93b 483c
00000030: 4dee 813c ca1a 433c a157 96bc 53a7 813c
00000040: 3617 8fbc a154 b53c d167 c2bc d61c a8bb
00000050: f3d5 de3b a11e cc3c 37c6 a6bb c221 0cbc
00000060: b288 9b38 2308 08bc 530b 78bc 983e 423b
00000070: 82f9 7ab9 0863 01bb ca34 173d f0d0 63bc
00000080: 79c1 243d e231 06bc e630 5a3d 4348 1fbb
00000090: 3f0e 98bc 81fe 973a 6b21 52bd 79a1 2c3c
000000a0: a1bc 5c3c 8e78 52bc 60d8 56bc ee3a 57b9
000000b0: bb43 ae3c db81 683c 12f6 f13c b09d c3bc
000000c0: 8616 303d 731a 333d 03be 273d 62a2 96bb
000000d0: f99b 083d e74a f43b 47d3 163d fa16 923b
000000e0: 8872 5abc 2468 f5bc 6859 2a3c aead 673c
000000f0: a7cd b03c ac8e 133a 9833 aaba bd44 8b3c
00000100: accc e73a a7d4 e03c d32d 4d3c ce0c 9abc
00000110: abe4 063d 4ab4 b8bc 09d1 083d 4372 b33c
00000120: cf90 883b 72c7 9d3c 07f9 09bd 9543 643b
00000130: 9083 b63a 2ee0 f23b d4b5 683d 27c3 d13b
00000140: 6c1b a23c d68e 9b3c 1469 c33c f1bf f9bb
00000150: 29ee 50bc e58a d1ba a50b dcbc b624 b1bb
00000160: 640a 62bb accf 463c 736f b63c b398 b33c
00000170: 25b4 2cbb 1c17 87bb f3ab 53bb 9085 9c3b
00000180: 9936 a63c f01a 123d f57c 0cb9 2eef 993c
00000190: 4268 e43c 3577 8aba 9d52 1d3d 1b9c dd3a
000001a0: e0ca 923c 4284 d33c 31fe 8ebb a852 df3c
000001b0: 1e0f dbbc b88b 043d 029d 08bb 6bb9 0bbd
000001c0: c1b4 153a 10c4 89bc 1b35 853b 3f72 f53c
000001d0: 91b9 b83c d92c 993c 7c81 9cbc bace 343d
000001e0: ad98 413c e746 a5bb df9f 253b 2d2f 6dbc
000001f0: 31f3 9bb9 de39 803c 7c96 ca3b 868b 313c
00000200: bdaf 523c 8b28 303c 48d4 28bc 056a 40bc
00000210: c2aa 2bbb 7e2b b43b b7b4 0539 e437 b23c
00000220: 6f06 66bc c376 6f3c adc9 0d3c 9340 02bd
00000230: 9ee8 ffbc 7e03 fc3b 151d 22bc 5349 053c
00000240: f311 083b ca76 9e3c ac72 8d3c c1b0 84bc
00000250: 50a1 9ebc 883c 243c 757f 40bc 3d21 003d
00000260: 9139 093c 9608 843c 8511 073c 5b2b 383d
00000270: 7cba 163c bb52 9bbc 5260 9e3c 0b64 853c
00000280: c680 a23c 8773 233d 3dfe 63bb 1c9f 983c
00000290: 19f8 813a 85f7 8f3b 0627 383d dcd7 ec3c
000002a0: bd1d 88bc db54 783c fb8d a33c 1667 da3a
000002b0: a8ec 573c e936 bf3c 5492 8aba 422e 0a3a
000002c0: ca30 eb3c 32f5 023d e1f5 243c 8c82 0cbb
000002d0: cf8d 38b9 93a3 37bc 62e0 e43c b370 963c
000002e0: 0933 00bd e1b9 26bc f148 133c cbd2 ae3c
000002f0: b89a ae3c 1582 e6bc 0658 62bb bdfb ec3c
00000300: bfd0 753c b4d3 123d 1141 79bb 0e73 3b3c
00000310: 94f3 7a3c b0ca 333b 2aad ac3c 31e2 9b3b
00000320: d2c1 913b e93a 573c 5b12 833c 0286 f13c
00000330: dfb1 96ba 5b17 333c 7ca1 01bc 13b5 07bb
00000340: 2e3d e53b 1140 a63c c180 c93b b007 cebc
00000350: 662e 4c3c 2704 14bc 7811 40bc 3c0f 27bd
00000360: 2685 18bd 608a ef3a a821 9fbb 9c65 c43b
00000370: a746 fdbc d8fc 16bc 612c ccbc 742e 18bd
00000380: defa 3c3d ef72 cd3c 914e e9bb f43c 71bc
00000390: 770c 7ebc 692b 91bc 878d 2c3b 88d4 933c
000003a0: 5e27 b5bb 3c58 b6bb d0b3 87bb 5401 82ba
000003b0: b949 00bc cd7c 08bd a9c8 06bd 06a3 3b3c
000003c0: 8bb5 7c3c 6aac 44bb 4c46 e1bc 1ac1 72bc
000003d0: c757 073c e55e 1d3d 1ec6 c9bc de79 993c
000003e0: 8767 a73c 8622 7cbc 8a21 263c 1c5e ec3c
000003f0: 5ec9 1c3c 45f0 073d d31f 8e3c f5aa e43c
0.006306418 -0.012496729 -0.014051882 0.023312293 -0.025655424 -0.026588669 -0.044298526 -0.006564049
0.00071091147 -0.025578124 0.021162184 0.01222127 0.015860701 0.0119082425 -0.018352332 0.015826857
-0.017467123 0.02213508 -0.023731144 -0.0051303906 0.006800407 0.024916949 -0.005089547 -0.00855297
7.4164374e-05 -0.008302721 -0.015139419 0.002963936 -0.00023934807 -0.0019742865 0.036915578 -0.013904795
0.040223572 -0.008190604 0.05326929 -0.0024304546 -0.01856148 0.0011596234 -0.0513014 0.010536545
0.013472707 -0.012846125 -0.013113111 -0.00020525951 0.02127253 0.014191116 0.02953628 -0.023878902
0.04299023 0.043726396 0.040952694 -0.0045969943 0.033351872 0.007455218 0.036822584 0.0044583054
-0.01333297 -0.029956885 0.010397293 0.01414053 0.021582438 0.0005628865 -0.0012985347 0.01700055
0.0017684898 0.02744515 0.012523132 -0.018804934 0.03293292 -0.022546906 0.033402476 0.02190507
0.004167653 0.019260142 -0.033684757 0.003483032 0.0013924707 0.007411978 0.05681403 0.006401438
0.019788466 0.018989008 0.023853816 -0.007621758 -0.012752094 -0.0015986828 -0.026861021 -0.0054059876
-0.0034491057 0.012134474 0.02226994 0.021923399 -0.0026352492 -0.004122628 -0.0032298535 0.004776664
0.020289706 0.03567022 -0.0001339799 0.018790808 0.027881745 -0.0010564091 0.038408864 0.0016907485
0.017919004 0.025819901 -0.004363798 0.027261093 -0.026740607 0.03235981 -0.0020845537 -0.034112375
0.00057108334 -0.016817123 0.0040651686 0.029961703 0.022549422 0.018698143 -0.019104712 0.044142462
0.011816186 -0.0050438526 0.0025272293 -0.01447658 -0.00029745096 0.015652593 0.00618249 0.010836488
0.012859282 0.010751854 -0.010304518 -0.011744027 -0.002619431 0.0054983487 0.0001275119 0.021755166
-0.01403962 0.014615717 0.00865404 -0.031799864 -0.03123885 0.007690846 -0.009894629 0.008135158
0.0020762652 0.019343752 0.017266594 -0.016197564 -0.01936403 0.010024197 -0.011749138 0.0312817
0.008375541 0.016117375 0.008243923 0.044963222 0.009199735 -0.018960347 0.019333038 0.016283056
0.019836795 0.039905097 -0.003478899 0.018630557 0.0009915858 0.0043935203 0.04495909 0.028911524
-0.016615743 0.01515695 0.019965163 0.0016662802 0.013178982 0.023341613 -0.0010572174 0.0005271175
0.028709788 0.031972118 0.010068388 -0.0021440117 -0.00017600435 -0.011208433 0.027939025 0.018364286
-0.03129867 -0.010176153 0.008989559 0.021340748 0.02131401 -0.0281382 -0.003453733 0.028928632
0.015003382 0.035846427 -0.0038033167 0.011441005 0.015316863 0.0027434044 0.021078665 0.0047571887
0.004448154 0.013136604 0.015999964 0.029482845 -0.0011497102 0.010930861 -0.007912036 -0.0020707294
0.0069958186 0.020294221 0.006149382 -0.02515015 0.012462234 -0.009034193 -0.011722915 -0.040786013
-0.037236355 0.0018275492 -0.004856307 0.005993558 -0.030917479 -0.009215556 -0.024923505 -0.037153676
0.046137683 0.025079219 -0.0071199615 -0.014724005 -0.015505902 -0.017720895 0.0026329474 0.018045679
-0.0055283746 -0.0055647176 -0.0041413084 -0.0009918609 -0.007830077 -0.033322144 -0.03290621 0.011452442
0.015424143 -0.0030009993 -0.02749934 -0.014816547 0.008260674 0.038420577 -0.024630602 0.018734869
0.020435108 -0.01538909 0.010139832 0.028853469 0.009569494 0.033188123 0.01734916 0.02791355

cnn_lstm.conv2.bias f4 [16]
00000000: 51ce b43a 1d14 5c3b 6c5f bc3b a4fa 94bb
00000010: 8684 b93a 7ceb 9538 1977 783a cafb fcba
00000020: 11a5 ad3b 50d1 673b 01f5 883b 8840 0b3c
00000030: 5654 11bc 7209 5839 b82f 0abc 2cfa 943b
0.0013794397 0.0033581324 0.00574868 -0.0045464803 0.0014153875 7.148736e-05 0.0009478196 -0.0019301113
0.0052992185 0.0035372563 0.0041795974 0.008499272 -0.008870205 0.00020602884 -0.008434229 0.0045464244

cnn_lstm.lstm1.weight_ih_l0 f4 [32, 16]
00000000: 253d 853d a4ea acbe f86d 85be 6499 023e
00000010: 2c2a 453e a5cf 02be 4e50 9abe d89f 42be
00000020: 682c 803e 38e1 77be 98b2 acbe ba55 65be
00000030: 250f 9b3d 95b2 873e 4bcf 4abd 981e 15be
00000040: 1ff9 693e 6da4 9bbb 6ea4 333e a1ab a8be
00000050: eddb ccbd 7b5c 3ebe c3bc 6c3c 99d4 a5be
00000060: f5e8 71be de08 463e 47cc b43d 5ed5 683e
00000070: d087 0c3e d147 95be 63da bc3d 334e 263e
00000080: de33 0a3e a0ff 59bd 9260 a9be 48a6 4e3d
00000090: 9a61 b13e 0bbc 363c 9b96 a1bd 3a90 223e
000000a0: ea65 3e3d 5339 9bbe cebb 90bd acb1 4fbe
000000b0: da66 47be 5900 ccbc ba41 db3d 7ade b23e
000000c0: 1aec b2be 05fd 56be a467 ac3e 1754 73bd
000000d0: e17b 8cbe f3da 3fbe 5ed5 343e 1663 8d3e
000000e0: 07fa b1be ae05 0c3e 68ff 953e 25a3 5d3e
000000f0: ac50 f73d 4a59 69bb 189f 743e b9da 1abb
00000100: cd7a 6bbe fe14 18be 7465 723d 6b00 013e
00000110: 918c 1bbe fdca b2be a0e9 963d 496d c13d
00000120: cb21 2d3d 03da 8c3e 8a2c 60be 8c05 aebd
00000130: 6599 873c 6403 5a3e f1bf 07be f036 1abe
00000140: 1e34 4dbe 5b1a a63e 317a 9abd d49c 993e
00000150: 2bcc 313e 08d3 41bd c0f1 ffbd fc92 b03e
00000160: c050 d13d 80cb 4b3e 9eee 7d3e 804a 973e
00000170: 0efc c8bc 476c 54be 4b11 ac3e b1af 773e
00000180: 99fb 86be 1edc 313e dd72 9bbd f70b e7bd
00000190: 661f 6ebe 8513 9d3e b4fa be3d de79 b1be
000001a0: 010e 65be 2453 7bbe c4f6 893d b5f9 60bd
000001b0: 0899 d53b aedc 033e 9b2f 16be 935d 44be
000001c0: 2420 44be 8771 8a3e af06 a63c 410d 843e
000001d0: bb87 abbe 2622 83be cc5d a03a c3ad 70be
000001e0: 0a0b 2bbe f4fa 203c e050 a2bd f432 3fbe
000001f0: 4086 883e b68a 3abe a06c f33d 2143 3e3e
00000200: 7eb3 033e e088 cfbd 87c2 763d 599f 133b
00000210: 74e2 783d df5a 83bc cd3a afbe c1a8 ae3e
00000220: 553a 89be bab3 78bd 02f8 7b3e 72e7 b93d
00000230: ed1d 963c 6e4d a1be b6c8 a13e f8d7 b2be
00000240: 30ca a63e 11e2 af3e f22f 65be 9aeb 66be
00000250: 2476 823d b475 80be 4654 00bd cca5 36bd
00000260: 1738 debd e33b 15be feb1 933e 74c0 cdbc
00000270: 3539 713e 5f5f 7d3e fd20 2c3d bbfe 52be
00000280: 371f a83e 5dfd a73e 0480 92be f5e9 39bd
00000290: 2393 c2bd 261c bebb f032 e93d a188 b5be
000002a0: 1f1d 3ebe e39b 8fbe 5a64 9c3e b381 9cbe
000002b0: d463 af3e 66d8 c2bc 850d 9c3e abb2 283d
000002c0: 12f1 db3c 84cd 733e 2fa8 5e3e cb04 813e
000002d0: 051f 60bc 7b0b 01be 033c 4d3e 04b8 9abe
000002e0: 187d 983e 16da 24be 2883 a23d c992 353e
000002f0: 3be7 77be 6905 d73c 9aad ff3d 1b63 87be
00000300: d9eb 523e bb53 6abe 91d9 30be 2605 18be
00000310: a969 95be 0a21 4abe 1420 873e 1723 833e
00000320: 9da6 ad3e 491a ad3e 60d2 693e ce95 f83c
00000330: 1df4 44be 083f 373d aed5 40be 26a1 fc3d
00000340: 76ab 78be 03b7 933e 5a5b cdbd eb27 d33c
00000350: 4321 b33d eac3 48be 49af 67be fbc6 603e
00000360: 9897 23be 5876 ac3e 02e9 55be 2f30 b83a
00000370: 58a7 8ebc eebe 443e 4177 a63e 9e2b 2a3e
00000380: d9be 8dbe 3ba6 4ebd f658 61bd 6fea 453e
00000390: 8aae 493e 77ca 413e dbf0 7ebe 2618 5abd
000003a0: 7d92 9c3e 37bd 25be ac54 f83d 300d 9cbe
000003b0: 348b 5fbe eb01 8abe 583c 0cbe d5d9 bc3c
000003c0: 2d91 4bbd 1f06 26be 3bda ad3d aa95 31be
000003d0: c840 a2be de97 9dbe dc12 43be 0a88 a23d
000003e0: 4274 10bc 3bec 293e f5fc 603e cf41 a7be
000003f0: f1a9 e43c 5147 a1be dc70 893d c0e4 7b3e
0.06505803 -0.33772767 -0.26060462 0.12753826 0.19254369 -0.12774523 -0.30139393 -0.19006288
0.2503388 -0.24207008 -0.33730006 -0.22395983 0.07571248 0.26503435 -0.049514096 -0.14562452
0.22848938 -0.0047498257 0.17543194 -0.32943442 -0.10002885 -0.18589966 0.014449301 -0.32388762
-0.23624022 0.1933932 0.08828025 0.22737643 0.13723683 -0.29156354 0.092213415 0.16240768
0.13496348 -0.0532223 -0.3308149 0.050451547 0.34644777 0.011153231 -0.07890054 0.1587533
0.04648391 -0.30317172 -0.07067071 -0.2028262 -0.19472829 -0.02490251 0.10705896 0.3493536
-0.34945756 -0.20994957 0.33672822 -0.059406366 -0.27438262 -0.18735866 0.17659518 0.2761466
-0.34761068 0.13674042 0.29296422 0.21644266 0.12075934 -0.00356062 0.23888814 -0.0023628904
-0.22996064 -0.14851758 0.059178784 0.12597816 -0.1519034 -0.34920493 0.07368779 0.094446726
0.042268556 0.2751008 -0.2189199 -0.08497152 0.016552636 0.21290356 -0.13256814 -0.1506002
-0.20039412 0.32441983 -0.075428374 0.30002463 0.1736304 -0.047320396 -0.12497282 0.3448714
0.1022048 0.19901848 0.24798056 0.29549026 -0.024534252 -0.2074443 0.33606943 0.24188115
-0.2636383 0.17369124 -0.07590268 -0.11281579 -0.23254165 0.30678955 0.093251616 -0.3466329
-0.22368623 -0.24543434 0.0673652 -0.05492564 0.006518487 0.12877151 -0.14666598 -0.1917632
-0.19152886 0.2703974 0.020266859 0.25791362 -0.33501992 -0.2561199 0.0012234985 -0.23503785
-0.1670343 0.009825457 -0.07925582 -0.18671781 0.26664925 -0.18216977 0.11885953 0.18580295
0.1286144 -0.10133529 0.06024411 0.0022525399 0.060762838 -0.016034542 -0.3422455 0.34113124
-0.26802316 -0.060718276 0.24606326 0.09077348 0.018324817 -0.31504387 0.31598443 -0.34930396
0.32576132 0.34352162 -0.22381571 -0.22550812 0.0637019 -0.250898 -0.03133037 -0.04459171
-0.10850542 -0.14573626 0.28846735 -0.025116183 0.23556979 0.24743412 0.042023648 -0.20604984
0.32836315 0.32810488 -0.28613293 -0.045389134 -0.0950072 -0.0058016954 0.11386669 -0.35455802
-0.18565796 -0.2804862 0.30545312 -0.30567703 0.3425585 -0.023784827 0.30479065 0.041186016
0.02684835 0.23808867 0.21743844 0.2519897 -0.013679271 -0.12602036 0.20042424 -0.30218518
0.2978294 -0.16098818 0.07935172 0.17731775 -0.24209301 0.026247697 0.12484284 -0.264428
0.20597781 -0.22883503 -0.17270495 -0.14845714 -0.29182175 -0.19739166 0.2639166 0.2561271
0.33916178 0.33809116 0.22834158 0.03034487 -0.19233747 0.044737846 -0.18831512 0.12335424
-0.24284157 0.28850564 -0.100271896 0.02577587 0.087465785 -0.19605985 -0.2262546 0.21950905
-0.15975797 0.3368404 -0.20889667 0.0014052446 -0.01741378 0.19213459 0.3251286 0.16618201
-0.27684668 -0.0504515 -0.05501648 0.1932771 0.19695488 0.1892489 -0.24896567 -0.053245686
0.30580512 -0.16185461 0.12125525 -0.3047881 -0.21830446 -0.26954588 -0.13694894 0.02305309
-0.049698997 -0.16213273 0.0848889 -0.17342249 -0.3169005 -0.30779928 -0.19050163 0.07936104
-0.0088167805 0.16594021 0.21971495 -0.32667395 0.027913066 -0.31499723 0.06710979 0.2459898
