results/kinematic_model/model_kinematic_fold_5.pth (torch, 74495 bytes, 48 tensors)

cnn_lstm.res1.conv1.weight f4 [8, 8, 21]
0.0030482535 0.040797416 0.0038248592 -0.004984135 0.02216257 0.019331535 0.027031848 -0.011937085
-0.03228293 0.002836364 0.0048900745 -0.053317305 -0.016175194 -0.014093784 -0.0010424303 -0.0017288898
0.03900636 0.038182717 -0.019579051 0.011831823 0.043598913 0.027518967 0.071219265 0.008624422
0.04268288 0.0059539964 0.032516625 0.038067006 0.023986174 0.036430247 0.032234274 0.033286452
0.019643089 0.018308867 -0.01645469 0.044557422 0.012129846 -0.0018870463 0.033623375 0.0021857054
-0.018552974 -0.020899283 -0.03570306 0.031570174 0.018549258 0.032551654 0.016794113 0.02575616
0.02146379 0.0038847586 0.045216735 0.004661431 -0.00994968 -0.024164064 -0.047999877 0.010019891
-0.023847386 0.0024504608 0.018784573 0.013086862 0.0020156794 0.00054774096 0.014645601 0.028304053
-0.012479239 0.02655522 0.012479009 0.03891613 0.028638119 0.016832022 0.025052724 0.012686625
0.026965238 -0.0037732166 0.012415199 0.03123549 0.01645328 0.008787276 0.0066724564 0.031423803
-0.0312965 -7.678513e-05 -0.0043576495 -0.041420676 0.0066027157 -0.014537209 0.029657612 -0.015984634
-0.010472855 -0.004719986 0.009611094 0.013018876 0.015175549 0.01714659 0.028762192 0.010733756
0.012442817 0.025346305 -0.011008445 -0.0005670623 -0.039004814 -0.015366001 0.009120716 -0.005175474
-0.039422538 -0.015758114 -0.01662013 -0.0065937736 -0.0057658944 -0.021207651 -0.0013285538 -0.0062979306
0.008948837 -0.015730282 -0.0015046146 -0.019573485 0.023234434 0.043928344 0.014453303 -0.003662054
-0.019998673 0.009509742 0.0024835027 -0.003635341 -0.006879251 0.0026952687 0.0019081358 -0.02622086
-0.0009541227 0.014083281 0.0303172 -0.006698725 0.0040529864 0.03731021 0.029904509 0.032843214
0.0023100616 0.0064434996 0.052218664 0.055240586 0.032426767 -0.015538088 -0.0018324343 0.0074884905
-0.024641456 -0.011152422 -0.0035375927 0.022692017 0.024718536 0.012056808 0.009382531 0.0049582114
0.011270336 0.0007908897 0.009447436 0.005221722 0.02214653 -0.0068237893 0.039660558 0.009172534
-0.0011873924 -0.02163461 0.0037521478 -0.0040231347 0.05139955 0.0037513054 0.031101316 -0.0039944574
-0.021351082 0.0031587437 0.014512847 0.023875656 0.0010189001 -0.050956126 0.022831265 0.012132671
-0.027869742 0.0029203778 0.002595124 0.0023930226 -0.009510761 -0.009628694 -0.02164042 -0.030894112
0.014863077 -0.017365133 0.050077785 0.018185379 -0.012893351 -0.048474185 -0.01603637 -0.00068366504
-0.029470729 -0.019699493 0.015158407 -0.0038227097 0.0042208172 -0.015382445 0.009388058 0.008116368
-0.013612692 0.0016851879 -0.042371802 -0.02988554 0.021156307 0.008232288 -0.026464256 -0.0044834563
-0.015425618 -0.014189703 -0.02191996 -0.032711573 -0.013219812 -0.030134374 -0.03428455 -0.0035085273
0.017661698 0.0055225673 -0.030213043 -0.013438186 -0.03680717 -0.022506839 0.021521537 -0.000983405
0.0008153087 -0.050152726 0.015037476 0.003502226 0.032700893 -0.0018994563 0.07128824 0.004698707
-0.014407717 0.014085969 0.010873935 -0.0012171293 0.023621662 0.035673715 0.0021684123 -0.012328345
-0.03534966 0.0010082973 -0.04818367 0.0132145705 0.01379634 0.028364811 -0.019432181 -0.01470046
-0.00094674376 0.00494138 -0.0036504862 0.00067759026 -0.0022310277 0.019752877 0.027968155 -0.013145777
00000000: 35c5 473b 311b 273d 7daa 7a3b f451 a3bb
00000010: 478e b53c 2b5d 9e3c e571 dd3c c393 43bc
00000020: 1b3b 04bd 4be2 393b eb3c a03b 3f63 5abd
00000030: d781 84bc 9de9 66bc 28a2 88ba ea9b e2ba
00000040: 22c5 1f3d 7b65 1c3d 3f64 a0bc 43da 413c
00000050: c694 323d 756f e13c 68db 913d 734d 0d3c
00000060: 3ed4 2e3d be19 c33b 2730 053d 26ec 1b3d
00000070: a77e c43c e237 153d 1608 043d 6057 083d
00000080: 8bea a03c 7afc 953c fccb 86bc d881 363d
00000090: 43bc 463c c456 f7ba aab8 093d 0d3e 0f3b
000000a0: 68fc 97bc f934 abbc 5f3d 12bd ba4f 013d
000000b0: 9df4 973c e254 053d cf93 893c 95fe d23c
000000c0: d5d4 af3c 6f97 7e3b 2f35 393d ebbe 983b
000000d0: fc03 23bc b7f3 c5bc 859b 44bd 782a 243c
000000e0: 985b c3bc e997 203b 1be2 993c 476a 563c
000000f0: 7d19 043b 4696 0f3a 1af4 6f3c e7dd e73c
00000100: b975 4cbc 558a d93c c274 4c3c 8566 1f3d
00000110: 7d9a ea3c 4fe3 893c 5f3b cd3c 90db 4f3c
00000120: 34e6 dc3c 1248 77bb 1e69 4b3c 92e1 ff3c
00000130: 07c9 863c 82f8 0f3c 9fa4 da3b 3fb6 003d
00000140: c230 00bd b407 a1b8 9dca 8ebb baa8 29bd
00000150: 985b d83b 792d 6ebc 85f4 f23c 35f2 82bc
00000160: 5696 2bbc 1daa 9abb da77 1d3c 204d 553c
00000170: dea2 783c 0177 8c3c b09e eb3c a3dc 2f3c
00000180: f5dc 4b3c 0ea3 cf3c c45c 34bc e8a6 14ba
00000190: 83c3 1fbd aec1 7bbc 0e6f 153c 0697 a9bb
000001a0: 8779 21bd 2917 81bc f026 88bc 9510 d8bb
000001b0: d4ef bcbb abbb adbc de22 aeba df5e cebb
000001c0: 259e 123c cbdc 80bc 7d36 c5ba 9358 a0bc
000001d0: 2456 be3c 35ee 333d 8ccd 6c3c 12ff 6fbb
000001e0: 42d4 a3bc c0ce 1b3c 43c2 223b e73e 6ebb
000001f0: 576b e1bb 1ba3 303b 6a1a fa3a 21cd d6bc
00000200: 171e 7aba 90bd 663c c75b f83c fa80 dbbb
00000210: eace 843b 97d2 183d 4dfa f43c 9b86 063d
00000220: 6764 173b fe23 d33b 3de3 553d f443 623d
00000230: eed1 043d 7793 7ebc 4b2e f0ba 0362 f53b
00000240: e1dc c9bc a6b8 36bc f5d6 67bb 9ce4 b93c
00000250: 877e ca3c eb89 453c 30b9 193c 7e78 a23b
00000260: 37a7 383c b653 4f3a 6bc9 1a3c fb1a ab3b
00000270: a46c b53c 189a dfbb 1c73 223d 6548 163c
00000280: 47a2 9bba 113b b1bc 98e6 753b 80d4 83bb
00000290: 5688 523d 76d8 753b 30c8 fe3c f0e3 82bb
000002a0: 77e8 aebc ed02 4f3b 4bc7 6d3c e196 c33c
000002b0: 9d8c 853a 5fb7 50bd a208 bb3c 1cc8 463c
000002c0: 164f e4bc cf63 3f3b f512 2a3b 42d4 1c3b
000002d0: 06d3 1bbc abc1 1dbc 4047 b1bc a615 fdbc
000002e0: 4384 733c 5341 8ebc 5d1e 4d3d 81f9 943c
000002f0: a23e 53bc de8c 46bd b55e 83bc fc37 33ba
00000300: 996c f1bc d560 a1bc f85a 783c 6d86 7abb
00000310: c84e 8a3b a706 7cbc 5fd0 193c 84fa 043c
00000320: c507 5fbc 86e1 dc3a 0e8e 2dbd 85d2 f4bc
00000330: fe4f ad3c b8e0 063c 91cb d8bc f5e9 92bb
00000340: bbbb 7cbc ee7b 68bc 7d91 b3bc 92fc 05bd
00000350: e997 58bc 5ddc f6bc f56d 0cbd 52ef 65bb
00000360: 44af 903c a7f6 b43b 5881 f7bc d62b 5cbc
00000370: 1dc3 16bd 4360 b8bc ef4d b03c 99e5 80ba
00000380: 71ba 553a f26c 4dbd bf5f 763c 9a85 653b
00000390: 5ff1 053d 2df7 f8ba 92ff 913d 9cf7 993b
000003a0: 580e 6cbc d6c8 663c 9728 323c 1588 9fba
000003b0: 3782 c13c 9a1e 123d ec1b 0e3b d4fc 49bc
000003c0: ceca 10bd d828 843a 3d5c 45bd ed81 583c
000003d0: 0b0a 623c 525d e83c 3d30 9fbc 33da 70bc
000003e0: e62e 78ba 4deb a13b ff3c 6fbb 50a0 313a
000003f0: 6f36 12bb c9d0 a13c 791d e53c 6361 57bc

cnn_lstm.res1.conv1.bias f4 [8]
0.013581426 -0.004123632 -0.015510165 -0.0047349315 -0.007527247 -0.0024921314 -0.004174683 -0.00914151
00000000: a184 5e3c 881f 87bb 591e 7ebc 7c27 9bbb
00000010: 20a7 f6bb 0753 23bb c7cb 88bb 46c6 15bc

cnn_lstm.res1.conv2.weight f4 [8, 8, 21]
-0.016443875 0.024001813 0.00077509036 0.013084597 0.0068572457 -0.03777159 -0.0073755905 0.0189619
-0.014620117 -0.006541119 -0.034396995 0.021872036 -0.0068755974 0.009918217 0.022699203 -0.039136305
-0.009055836 -0.0114176115 -0.006642437 0.006106914 -0.0052329195 0.0001885957 -0.014832792 -0.039710782
-0.005021452 -0.014743145 0.0054686577 0.0027724062 -0.016007569 -0.01189924 -0.028359387 0.015748674
0.018879823 0.0022428024 0.012390518 0.009720411 -0.0029634177 -0.025612859 0.00063103467 0.017453624
-0.023771003 -0.036842555 -0.04461797 7.511328e-05 0.015263292 -0.0035428444 -0.029026885 -0.03897835
-0.019857502 -0.019777782 -0.032177564 -0.0423952 0.001751631 -0.017552625 0.010362721 0.010248346
0.001824632 0.03985831 -0.012724384 0.0024997036 -0.030795569 0.0032637622 -0.00619382 -0.0024703452
0.014193618 -0.05709154 0.023860361 -0.0016177621 -0.01647766 -0.005686034 0.0135768065 -0.016293405
0.0049198796 0.015212302 -0.002896456 -0.056682676 -0.01338142 0.025702689 0.02245849 0.041460525
-0.014448725 0.015175254 -0.0017865835 0.023434278 -0.039744653 0.021252366 0.008618187 0.009974197
0.0014297393 0.005128348 0.026632031 -0.029198276 0.0034470991 0.024800684 0.008902739 -0.005007384
-0.004833394 -0.0073488527 -0.061664198 0.017111136 -0.033038016 -0.02327492 -0.010392315 0.007890486
0.0066448622 -0.020715011 0.015709594 0.019767575 -0.016768288 -0.026713228 -0.009092829 0.021671016
-0.015509938 -0.011853328 -0.007157222 0.014588531 0.019276517 -0.012986665 0.019179404 0.011434841
-0.023817813 -0.006865477 -0.028754685 0.0011775657 -0.0016046956 0.019965217 -0.024242295 0.0074679037
-0.045140155 -0.017033547 -0.016440624 -0.007104553 -0.0076287263 -0.007905898 -0.013062921 -0.047530446
-0.046851825 -0.039308894 -0.026680928 0.02124511 -0.03257826 0.026588285 0.0017103544 -0.036597956
0.001915925 -0.019360557 -0.0018832001 -0.014267468 -0.032056082 0.0030412467 0.027612668 0.004969565
-0.02675758 -0.009625561 0.01306743 -0.009537099 -0.0022367428 0.055259716 -0.02563217 0.0018961682
0.009596867 0.00833588 -0.03607236 0.012014746 0.019866921 0.0065810513 -0.008787933 0.017047008
-0.010399863 0.0046991734 0.033890262 0.018729037 0.003221305 0.07734386 0.0030438262 0.02675644
0.030964304 -0.008242283 -0.0018225504 -0.018662017 -0.01669406 0.037453547 0.0124779465 -0.014501709
0.019563189 -0.0085262265 0.02426534 0.017832438 -0.0075196237 0.02061991 -0.008056402 0.02236877
-0.017763246 -0.016304059 0.004825321 -0.015541154 -0.015528394 -0.008031409 0.004419741 0.010776564
0.006535274 0.01952836 -0.039551247 -0.023762465 -0.019854272 -0.01337751 -0.020874696 -0.030436983
-0.0014092387 -0.019134803 -0.0016456039 -0.010453239 -0.011994244 0.006498607 -0.016711257 -0.020480672
-0.025426308 0.011705097 0.022683594 -0.02700303 -0.022020895 -0.014678541 -0.013640008 0.0110841775
0.0362474 -0.0045084464 0.007919106 -0.004849401 -0.062312316 0.009330663 0.0054389173 -0.02957091
-0.025189975 -0.015788684 0.0062963516 -0.021437084 0.0085506 -0.002659014 0.008761875 -0.007294054
0.019658774 0.064157136 -0.006353394 0.024307862 0.004113596 -0.010804011 -0.016863804 0.004637609
-0.008536984 -0.003011897 -0.0012944748 0.008699888 -0.0015535882 -0.030051308 -0.017128251 -0.034427334
00000000: 4eb5 86bc 739f c43c 6f2f 4b3a c760 563c
00000010: bfb2 e03b 62b6 1abd f0ae f1bb fd55 9b3c
00000020: 3789 6fbc e256 d6bb dde3 0cbd fc2c b33c
00000030: b14c e1bb 0480 223c aef3 b93c 644d 20bd
00000040: ee5e 14bc ef10 3bbc cda8 d9bb 821c c83b
00000050: e978 abbb c6c1 4539 3d05 73bc c6a7 22bd
00000060: fe8a a4bb 3b8d 71bc 6d32 b33b 42b1 353b
00000070: 4e22 83bc 08f5 42bc f251 e8bc 5d03 813c
00000080: dca9 9a3c fbfb 123b 9901 4b3c 5c42 1f3c
00000090: e635 42bb 0fd2 d1bc 056c 253a e7fa 8e3c
000000a0: 68bb c2bc 38e8 16bd 55c1 36bd 2386 9d38
000000b0: e312 7a3c 112f 68bb cac9 edbc c3a7 1fbd
000000c0: 33ac a2bc 0405 a2bc 9fcc 03bd 97a6 2dbd
000000d0: fc96 e53a 86ca 8fbc 67c8 293c aee8 273c
000000e0: 7e28 ef3a 7842 233d ef79 50bc 11d2 233b
000000f0: fd46 fcbc d8e4 553b 87f5 cabb 84e5 21bb
00000100: 598c 683c d2d8 69bd ce76 c33c 170b d4ba
00000110: 28fc 86bc e951 babb 4171 5e3c bf79 85bc
00000120: f136 a13b 053d 793c 78d2 3dbb 182c 68bd
00000130: be3d 5bbc 728e d23c defa b73c 83d2 293d
00000140: 58ba 6cbc a1a1 783c cb2b eaba 3ef9 bf3c
00000150: 4acb 22bd 7119 ae3c 4c33 0d3c d06a 233c
00000160: 1766 bb3a b30b a83b 6b2b da3c 3931 efbc
00000170: bae8 613b ce2a cb3c cbdc 113c fb14 a4bb
00000180: 7361 9ebb a5ce f0bb 9993 7cbd a72c 8c3c
00000190: df52 07bd 0cab bebc 8744 2abc 1947 013c
000001a0: 25bd d93b 87b2 a9bc 68b1 803c 9cef a13c
000001b0: a65d 89bc b3d5 dabc 17fa 14bc 6a87 b13c
000001c0: 651d 7ebc 7634 42bc 2187 eabb bc04 6f3c
000001d0: c9e9 9d3c 05c6 54bc 201e 9d3c 3359 3b3c
000001e0: 931d c3bc ccf7 e0bb f28e ebbc 8c58 9a3a
000001f0: a654 d2ba 188e a33c c797 c6bc 51b5 f43b
00000200: e2e4 38bd f089 8bbc 7dae 86bc 4fcd e8bb
00000210: 65fa f9bb bd87 01bc dd05 56bc 49af 42bd
00000220: b3e7 3fbd 5d02 21bd f691 dabc 3a0a ae3c
00000230: c870 05bd adcf d93c f82d e03a bde7 15bd
00000240: c61f fb3a 089a 9ebc b6d5 f6ba 19c2 69bc
00000250: 3d4d 03bd a74f 473b f633 e23c bcd7 a23b
00000260: b632 dbbc 87b4 1dbc c618 563c 7e41 1cbc
00000270: 5196 12bb 0358 623d 8efa d1bc d988 f83a
00000280: 2d3c 1d3c 3793 083c 9cc0 13bd 7fd9 443c
00000290: f4bf a23c dca5 d73b 43fb 0fbc 2ba6 8b3c
000002a0: 3064 2abc 86fb 993b 84d0 0a3d a36d 993c
000002b0: 881c 533b 7566 9e3d ee7a 473b 5230 db3c
000002c0: daa8 fd3c a40a 07bc a5e2 eeba 16e1 98bc
000002d0: fbc1 88bc e468 193d 4d70 4c3c 9398 6dbc
000002e0: fb42 a03c 96b1 0bbc 1bc8 c63c 5515 923c
000002f0: 2d67 f6bb 16eb a83c 00ff 03bc b63e b73c
00000300: 3a84 91bc 1790 85bc ba1d 9e3b 53a0 7ebc
00000310: ce6a 7ebc 2c96 03bc 7ad3 903b 2f90 303c
00000320: da25 d63b f0f9 9f3c 7d00 22bd 80a9 c2bc
00000330: 6da5 a2bc 582d 5bbc 6901 abbc fb56 f9bc
00000340: 34b6 b8ba 97c0 9cbc 4eb1 d7ba 1044 2bbc
00000350: 8183 44bc 44f2 d43b 0ce6 88bc 15c7 a7bc
00000360: d54a d0bc bcc6 3f3c f2d2 b93c 7535 ddbc
00000370: 2a65 b4bc 437e 70bc 577a 5fbc 699a 353c
00000380: 2778 143d 97bb 93bb 23bf 013c b9e7 9ebb
00000390: 333b 7fbd a3df 183c f238 b23b b13e f2bc
000003a0: 355b cebc 4557 81bc a051 ce3b d39c afbc
000003b0: d117 0c3c da42 2ebb f88d 0f3c f602 efbb
000003c0: 700b a13c d164 833d 2230 d0bb 4821 c73c
000003d0: 58cb 863b 4e03 31bc f625 8abc 15f7 973b
000003e0: b5de 0bbc 3f63 45bb 5eab a9ba fa89 0e3c
000003f0: c5a1 cbba 292e f6bc 8c50 8cbc ad03 0dbd

cnn_lstm.res1.conv2.bias f4 [8]
0.010271971 -0.0019691887 -0.00028238137 0.022192348 0.007727365 0.0012201286 0.0055636126 -0.0041312915
00000000: c54b 283c 810d 01bb 960c 94b9 bacc b53c
00000010: d635 fd3b b9ec 9f3a f74e b63b c95f 87bb

cnn_lstm.conv1.weight f4 [8, 8, 21]
0.004449652 -0.029384658 0.022450397 0.010251702 -0.002417355 0.012178664 -0.023150394 0.012935929
-0.001264382 -0.00037095623 -0.0037573487 -0.008788191 -0.014153583 0.013203522 -0.013034568 -0.0127981575
0.013333181 -0.028458117 -0.016755147 -0.015301892 -0.047762524 -0.0045849504 0.008831428 -0.0294942
0.0018570445 -0.04444031 0.00061199686 0.004253489 -0.006924541 -0.00042109904 -0.038583945 -0.03069343
-0.006590061 -0.02592441 -0.04422837 -0.04169278 0.0033866465 -0.010947925 -0.027292876 0.013753238
-0.015986856 -0.004525616 -0.008171915 -0.045357805 -0.00110566 -0.012948265 -0.042890944 -0.01317892
0.0032414303 -0.011628656 -0.06728593 0.0023338292 0.0068861 -0.014141371 0.023567393 -0.014890734
0.01284105 0.002418103 4.046431e-05 0.04180093 0.024198545 -0.00064666755 -0.024454448 -0.00885037
-0.01770475 -0.026897592 0.025327496 0.02531202 -0.025690846 0.0014205187 0.036566116 0.005595902
-0.0067728595 -0.0055897823 0.024826268 -0.026019227 -0.0072115706 -0.038230553 0.038150176 0.026347991
0.02659131 -0.03860884 -0.006718998 -0.01942558 -0.022833148 -0.037603807 -0.015061899 -0.03516284
-0.024048021 -0.03683544 0.0010329628 0.005614998 -0.04789243 -0.027078321 -0.0006327897 -0.0265466
0.013727577 -0.034631822 -0.037950423 -0.00046021098 -0.008576987 -0.042194664 0.000106283536 -0.020658374
-0.020221619 0.003393138 0.01132861 -0.008606545 0.0068858624 -0.027694909 0.009128816 -0.009466171
-0.021266008 -0.0038589144 -0.00016837566 -0.013065152 -0.0064226906 0.004295439 -0.034819044 -0.009459458
-0.05542189 0.014190657 -0.010343254 0.0058083436 0.0071289428 -0.0064191986 -0.040584628 0.0030436867
0.007744651 0.004029661 0.009079121 -0.0074258433 -0.0011375636 -0.02348833 -0.05834646 0.010837249
-0.005070516 -0.030846909 -0.024236668 -0.02883497 -0.02318408 0.004296928 0.027822422 -0.02631414
-0.024022715 -0.01101116 0.003055497 -0.030517593 0.0134349475 0.012988801 -0.03347459 0.001527052
0.035776712 -0.017464077 -0.0011440779 0.008994559 -0.00085653 0.006826035 -0.010022257 0.0064165248
-0.008088495 -0.04088605 0.011062565 -0.0067694285 0.016620722 0.003105794 -0.008484155 0.006031784
0.0110228155 -0.0006707116 0.015951531 0.006961008 -0.019009233 0.014045997 -0.021430448 0.034543727
-0.00080413965 -0.0001304802 -0.01516465 0.011298349 0.022302285 0.0295907 0.0008135028 0.025940504
0.04216719 0.007402991 0.01665379 -0.00619424 0.0051798066 0.001971789 -0.0040400927 0.023653017
-0.0052228733 -0.007246329 -0.01908085 -0.025680285 -0.006143813 -0.059013844 -0.0030460313 -0.006270754
0.0075559486 -0.03238138 0.0015398128 -0.013596993 -0.007029262 -0.007837582 -0.013981451 0.008471281
-0.059403118 -0.044034105 0.032554395 0.0053253267 -0.010825685 -0.01558392 -0.012071954 -0.0067522316
-0.02625499 -0.022401877 0.0075489744 -0.008759691 0.017050697 -0.015858265 0.02085075 -0.0074692965
-0.010272385 -0.023740157 -0.039360378 0.00826534 -0.014511649 -0.037305474 0.010225699 -0.002639568
0.021234721 0.002546324 -0.0042237127 -0.0019176417 -0.0118338745 -0.0100944 -0.03039485 -0.023964243
0.030224431 0.037808698 -0.023476647 0.0127810165 0.018352821 0.035012785 0.0028086735 0.022058444
0.019533433 0.021642702 0.012191054 0.036266077 -0.008959848 -0.0013654361 0.008813075 -0.030256016
00000000: 63ce 913b 18b8 f0bc e5e9 b73c c1f6 273c
00000010: 7d6c 1ebb 0589 473c e5a5 bdbc 38f1 533c
00000020: 9fb9 a5ba e77c c2b9 da3d 76bb 58fc 0fbc
00000030: 6ee4 67bc 9653 583c f18e 55bc 5daf 51bc
00000040: 6a73 5a3c ff20 e9bc 1742 89bc c9b4 7abc
00000050: a3a2 43bd 5a3d 96bb b2b1 103c d29d f1bc
00000060: 1368 f33a 0b07 36bd 6a6e 203a da60 8b3b
00000070: 43e7 e2bb f5c6 dcb9 330a 1ebd ca70 fbbc
00000080: 70f1 d7bb 6e5f d4bc cf28 35bd 0cc6 2abd
00000090: 80f2 5d3b ed5e 33bc 4f95 dfbc 4355 613c
000000a0: def6 82bc 9e4b 94bb 7fe3 05bc 1bc9 39bd
000000b0: cbeb 90ba f624 54bc 6aae 2fbd 66ec 57bc
000000c0: 2d6e 543b 1e86 3ebc 35cd 89bd 28f3 183b
000000d0: cba4 e13b 35b1 67bc 6810 c13c 44f8 73bc
000000e0: 4463 523c 0979 1e3b 39b8 2938 7437 2b3d
000000f0: 073c c63c 2085 29ba b254 c8bc 2401 11bc
00000100: 8d09 91bc 5758 dcbc 9c7b cf3c 275b cf3c
00000110: 9c75 d2bc b330 ba3a 5ac6 153d d45d b73b
00000120: ddee ddbb 7e2a b7bb 7560 cb3c 4626 d5bc
00000130: 0a4f ecbb a497 1cbd 5c43 1c3d bed7 d73c
00000140: 05d6 d93c 4e24 1ebd 0a2b dcbb 6522 9fbc
00000150: 950c bbbc 7306 1abd 2fc6 76bc e906 10bd
00000160: 5b00 c5bc c2e0 16bd 7b64 873a 04fe b73b
00000170: da2a 44bd 5bd3 ddbc cce1 25ba 4178 d9bc
00000180: a2e9 603c 19da 0dbd e771 1bbd 7948 f1b9
00000190: 7e86 0cbc 50d4 2cbd 8ae4 de38 c03b a9bc
000001a0: cfa7 a5bc 695f 5e3b a29b 393c 7702 0dbc
000001b0: cda2 e13b 6fe0 e2bc 0891 153c 0018 1bbc
000001c0: 0d36 aebc d7e5 7cbb ff8d 30b9 380f 56bc
000001d0: 6f75 d2bb c1c0 8c3b 6a9e 0ebd d8fb 1abc
000001e0: 1002 63bd ee7f 683c c076 29bc eb53 be3b
000001f0: e899 e93b 2458 d2bb 113c 26bd 9778 473b
00000200: d7c6 fd3b 3f0b 843b 98c0 143c 7d54 f3bb
00000210: 4d1a 95ba 996a c0bc b3fc 6ebd b88e 313c
00000220: 9226 a6bb a8b2 fcbc fa8b c6bc 5137 ecbc
00000230: 8aec bdbc 3fcd 8c3b d9eb e33c c090 d7bc
00000240: 49cb c4bc 2768 34bc bc3e 483b 0800 fabc
00000250: 411e 5c3c fbce 543c a71c 09bd 5d27 c83a
00000260: 9a8a 123d d310 8fbc e2f4 95ba ea5d 133c
00000270: c188 60ba efac df3b 6534 24bc b641 d23b
00000280: 9b85 04bc 2178 27bd c33f 353c 15d2 ddbb
00000290: 2e28 883c 948a 4b3b 2001 0bbc 46a6 c53b
000002a0: 0a99 343c b2d2 2fba c9ac 823c 2b19 e43b
000002b0: 40b9 9bbc 2e21 663c e88e afbc b97d 0d3d
000002c0: e6cc 52ba 83d1 08b9 2775 78bc b61c 393c
000002d0: 48b3 b63c 3268 f23c 4041 553a 2e81 d43c
000002e0: 81b7 2c3d ca94 f23b 876d 883c 0df9 cabb
000002f0: 5ebb a93b 2139 013b c162 84bb f9c3 c13c
00000300: a324 abbb 9d72 edbb 714f 9cbc 765f d2bc
00000310: 0a52 c9bb 80b8 71bd ed9f 47bb e67a cdbb
00000320: e497 f73b 57a2 04bd 8bd3 c93a ecc5 5ebc
00000330: b955 e6bb 3469 00bc 7512 65bc 21cb 0a3c
00000340: af50 73bd 1b5d 34bd c257 053d 1480 ae3b
00000350: 375e 31bc b353 7fbc 72c9 45bc d341 ddbb
00000360: b414 d7bc 2484 b7bc 635d f73b cf84 0fbc
00000370: e7ad 8b3c 31e9 81bc 31cf aa3c 00c1 f4bb
00000380: 814d 28bc b87a c2bc 5938 21bd 596b 073c
00000390: 44c2 6dbc a0cd 18bd b189 273c 9afc 2cbb
000003a0: 70f4 ad3c 3ae0 263b 1267 8abb 6159 fbba
000003b0: dee2 41bc fb62 25bc 9ffe f8bc a950 c4bc
000003c0: 3a99 f73c 4bdd 1a3d 1952 c0bc 7867 513c
000003d0: a858 963c 9169 0f3d b911 383b e9b3 b43c
000003e0: 9404 a03c 094c b13c fdbc 473c bd8b 143d
000003f0: 54cc 12bc 6ff8 b2ba b764 103c 77db f7bc

cnn_lstm.conv1.bias f4 [8]
0.008226343 -0.013066048 0.009814115 -0.004128273 0.0042271917 -0.0092667155 -0.0099694105 -0.0022224006
00000000: c9c7 063c fa12 56bc 62cb 203c 7746 87bb
00000010: 4184 8a3b 6cd3 17bc bd56 23bc b2a5 11bb

cnn_lstm.res2.conv1.weight f4 [8, 8, 21]
-0.0048430325 -0.0026589488 0.022942938 0.010425881 -0.0042764833 0.0057119476 -0.026695622 -0.031088099
-0.0025166313 -0.013748256 -0.0074027944 -0.006374301 -0.006407381 0.017555717 0.0013311706 -0.023564562
-0.018506436 -0.012380146 0.020267716 -0.016267717 -0.022738144 -0.013509357 0.002096972 0.0062721437
-0.041100625 0.011798256 0.0047431593 0.0020576546 0.024798552 0.008410369 -0.014902753 -0.01302257
-0.009495541 -0.026650887 0.018897485 -0.009627651 0.0153990695 -0.01066982 0.00412081 0.006236986
0.010718379 -0.024068018 -0.008645739 0.01447722 0.0034720744 0.029163586 -0.009377336 -0.0141375065
-0.037784193 0.010250289 -0.018765192 -0.038562983 -0.016299546 0.007483036 -0.007460866 -0.012233932
-0.025930148 0.0067751063 -0.0038905602 -0.01836998 -0.0016593048 -0.0312311 0.012221967 0.01985858
-0.008706172 0.0018828041 -0.0059346403 -0.01163438 -0.029991671 -0.037822187 0.020474188 -0.013712118
1.8056226e-05 -0.035285134 0.02182808 -0.013944131 -0.022923732 0.018018305 -0.024625545 0.033949975
-0.007962848 0.031180331 -0.0054423017 -0.014554307 0.01739687 0.014340626 -0.020533795 -0.014815871
0.031437084 0.03167978 0.02825025 0.002738309 -0.010730963 0.057825472 -0.016770324 0.01892199
0.0133642 0.02021204 0.038774937 -0.018189142 -0.0045703226 -0.0092344135 0.033728622 -0.022718174
-0.006900752 -0.0021736089 -0.0276734 -0.01272818 0.0055735083 -0.032368373 -0.020428797 -0.018323852
-0.019668771 -0.043307655 -0.03243563 -0.05230002 0.021287097 -0.023211954 -0.03629266 -0.0130196465
-0.027944744 0.0022967053 -0.034062877 -0.028626498 0.002188776 -0.037398312 -0.0018430814 0.0012636393
0.021935223 0.021263745 -0.0014387891 -0.0058953795 0.0009911115 0.013226055 0.0031513716 0.0034506933
-0.0066338386 -0.020464376 -0.019937817 0.014370035 -0.0010183707 -0.03998187 0.010034106 -0.026627798
0.007624866 0.00661075 0.0071719517 -0.013658062 0.026060725 0.008224216 0.0024685573 0.0017405868
-0.018313587 -0.026813725 0.02611298 -0.0025403 -0.0367312 0.0044357283 0.020304251 -0.016140476
-0.02541411 -0.03317463 0.023465985 -0.0154622095 -0.049379867 -0.028118385 -0.0015086138 -0.018802272
0.0024907058 0.016024658 -0.01813111 0.0096255625 0.0060369545 -0.039125677 0.0008589443 -0.014007591
-0.042610444 -0.0022045607 0.00065006467 -0.009506554 0.00033217008 -0.011184494 0.02731888 -0.03903373
-0.01074988 -0.025622146 -0.021122556 -0.045439757 -0.047674805 0.0012462313 0.0166878 -0.051492743
0.006235268 -0.0062731253 -0.034283716 0.021740265 -0.0253602 -0.004007741 -0.01181391 0.022843992
-0.049992573 -0.028076923 -0.0059003886 -0.0049329204 0.00786854 -0.0075039812 -0.026031058 -0.016317327
0.032808423 0.0052013514 0.027340945 -0.011845854 0.0029458846 0.026410593 0.021651994 0.0107428115
-0.0142228855 0.0065381536 -0.02178174 0.007682276 -0.002595274 -0.035139505 0.017083239 0.03415264
-0.0017637063 0.021293646 -0.025291065 0.0004690842 0.009801139 0.0014012057 -0.003148399 0.00022888955
-0.01641744 -0.007034379 -0.023195647 -0.02795154 -0.0065219244 -0.0072731315 0.024203539 0.016138647
0.052711442 0.031672366 -0.0063818255 0.0039474773 0.011114886 -0.048670772 -0.019778186 -0.013996798
0.012700447 -0.03003489 0.0011615637 -0.020530602 -0.005797653 -0.011486862 -0.00159917 -0.013786427
00000000: 4db2 9ebb c241 2ebb d4f2 bb3c 50d1 2a3c
00000010: be21 8cbb 4a2b bb3b c7b0 dabc 78ac febc
00000020: 11ee 24bb 5d40 61bc 2493 f2bb 83df d0bb
00000030: 02f5 d1bb 02d1 8f3c ac7a ae3a 780a c1bc
00000040: cf9a 97bc 19d6 4abc 7b08 a63c e043 85bc
00000050: 5845 babc 5a56 5dbc 5a6d 093b 8e86 cd3b
00000060: 2159 28bd 794d 413c 816c 9b3b b7d9 063b
00000070: 5526 cb3c a5cb 093c ad2a 74bc 9e5c 55bc
00000080: 3093 1bbc f652 dabc e6ce 9a3c 4cbd 1dbc
00000090: 614c 7c3c 78d0 2ebc dc07 873b a15f cc3b
000000a0: 249c 2f3c 4b2a c5bc dca6 0dbc dd31 6d3c
000000b0: be8b 633b 79e8 ee3c 66a3 19bc 00a1 67bc
000000c0: 99c3 1abd d4f0 273c 76b9 99bc 38f4 1dbd
000000d0: a086 85bc 4134 f53b 487a f4bb d470 48bc
000000e0: 766b d4bc b601 de3b c5f8 7ebb a47c 96bc
000000f0: 087d d9ba 5dd8 ffbc a53e 483c 76ae a23c
00000100: 55a4 0ebc 6cc8 f63a 5f77 c2bb 209e 3ebc
00000110: 18b1 f5bc 70eb 1abd 7cb9 a73c cba8 60bc
00000120: 7377 9737 2587 10bd cdd0 b23c ed75 64bc
00000130: 8dca bbbc 209b 933c 83bb c9bc 210f 0b3d
00000140: 9b76 02bc e56d ff3c 5655 b2bb 3075 6ebc
00000150: e183 8e3c f2f4 6a3c 7d36 a8bc 44be 72bc
00000160: 2cc4 003d a8c2 013d 116d e73c 3475 333b
00000170: ecd0 2fbc 67da 6c3d eb61 89bc 4a02 9b3c
00000180: 84f5 5a3c b893 a53c 78d2 1e3d 6501 95bc
00000190: a5c2 95bb f04b 17bc 0627 0a3d 771b babc
000001a0: b41f e2bb 1b73 0ebb 53b3 e2bc db89 50bc
000001b0: faa1 b63b b394 04bd 4b5a a7bc e71b 96bc
000001c0: 6720 a1bc 5e63 31bd 39db 04bd 8c38 56bd
000001d0: 4762 ae3c ff26 bebc 9da7 14bd 5b50 55bc
000001e0: 60ec e4bc 5284 163b 8485 0bbd 1e82 eabc
000001f0: 9171 0f3b f92e 19bd 8d93 f1ba b3a0 a53a
00000200: 7fb1 b33c 4e31 ae3c c095 bcba 072e c1bb
00000210: 2fe8 813a 18b2 583c 3e87 4e3b 0725 623b
00000220: ac60 d9bb e8a4 a7bc a254 a3bc 4c70 6b3c
00000230: da7a 85ba 08c4 23bd 1766 243c 8a22 dabc
00000240: 03da f93b fe9e d83b b102 eb3b 10c6 5fbc
00000250: 4d7d d53c ddbe 063c 85c7 213b 6724 e43a
00000260: 6006 96bc 75a8 dbbc e3ea d53c 297b 26bb
00000270: 7473 16bd 9659 913b 1a55 a63c 0839 84bc
00000280: 4031 d0bc 1fe2 07bd bd3b c03c 3555 7dbc
00000290: 8b42 4abd 8758 e6bc aebc c5ba 3907 9abc
000002a0: 1c3b 233b 2546 833c b287 94bc 89b4 1d3c
000002b0: a5d1 c53b 3f42 20bd c72a 613a 1880 65bc
000002c0: 4a88 2ebd 647a 10bb 1a69 2a3a 61c1 1bbc
000002d0: 1d27 ae39 2b3f 37bc d8cb df3c d5e1 1fbd
000002e0: 4420 30bc 89e5 d1bc 3609 adbc 0a1f 3abd
000002f0: a846 43bd 9558 a33a dab4 883c 0eea 52bd
00000300: 3851 cc3b ca8e cdbb 156d 0cbd a418 b23c
00000310: 32c0 cfbc 5e53 83bb 218f 41bc 5323 bb3c
00000320: 03c5 4cbd 9301 e6bc 0c58 c1bb 56a4 a1bb
00000330: 0ceb 003c f5e3 f5bb 163f d5bc eaab 85bc
00000340: 2062 063d 1970 aa3b 1efa df3c 1d15 42bc
00000350: be0f 413b 075b d83c 865f b13c 9e02 303c
00000360: 1b07 69bc 023e d63b 9f6f b2bc 9abb fb3b
00000370: 7915 2abb 71ee 0fbd 26f2 8b3c a3e3 0b3d
00000380: 2a2c e7ba 0370 ae3c 352f cfbc 6aef f539
00000390: f594 203c a9a8 b73a 5f55 4ebb 1202 7039
000003a0: de7d 86bc a680 e6bb cc04 bebc a1fa e4bc
000003b0: deb5 d5bb 7353 eebb 8046 c63c 3235 843c
000003c0: f4e7 573d e2ba 013d a21e d1bb d759 813b
000003d0: 361b 363c 015b 47bd dd05 a2bc d352 65bc
000003e0: 8915 503c bb0b f6bc 9c3f 983a cb2f a8bc
000003f0: 3dfa bdbb 6433 3cbc 3e9b d1ba 77e0 61bc

cnn_lstm.res2.conv1.bias f4 [8]
0.00013400277 0.0038398567 -0.013704955 -0.0046572825 -0.009146269 -0.0058435104 -0.005360685 0.0031827418
00000000: 1883 0c39 1ba6 7b3b bf8a 60bc 1e9c 98bb
00000010: 3cda 15bc eb7a bfbb afa8 afbb 8c95 503b

cnn_lstm.res2.conv2.weight f4 [8, 8, 21]
0.044523016 -0.055234604 0.012945653 0.021508066 0.0059779477 -0.022778736 0.01983961 -0.020667238
-0.018006282 -0.038398243 -0.04418621 -0.0148451775 -0.021921374 0.03292434 -0.05317609 0.0063166805
0.012287856 -0.008824888 -0.018126447 -0.035312578 -0.019421391 0.033352796 0.024374874 -0.016947288
-0.023984706 -0.01691378 0.03390499 0.027547617 0.0026676708 -0.016457388 -0.0023828233 0.006639984
-0.0039621107 0.0036105441 -0.025132136 -0.03396888 -0.021359574 -0.010036361 0.038101308 -0.007203976
0.022827903 -0.025043368 -0.024758307 -0.012098108 0.03370964 -0.006392396 0.002167571 -0.040095672
0.009837053 -0.005939933 -0.009081014 0.0058744824 -0.025977485 0.020699326 -0.0062804064 0.021273144
0.006291283 -0.028655028 0.0340999 -0.013348019 0.018905833 -0.023233829 0.06313572 0.025207974
0.014832124 0.030965514 0.02785843 0.007257189 -0.034045666 0.03300915 -0.0025801298 0.051839415
-0.00033253685 -0.019509004 -0.01946898 0.017238617 0.004790544 0.039941695 0.012627735 -0.026641794
0.0070124553 -0.024345526 -0.006337743 0.006941476 -0.027298242 0.010182544 0.012966602 0.01251491
0.009221777 -0.023924492 0.033222325 0.0026839375 -0.008169615 0.0012732798 0.019097218 0.03049956
-0.013572113 0.027342524 0.008054597 0.03681498 0.0047217715 0.024499636 0.024426276 0.027272599
0.041013986 0.040903747 -0.026204022 -0.001716928 0.0035926874 -0.03906263 0.0065652346 0.0018953732
0.0055099074 -0.04158207 -0.0074094813 -0.03475576 -0.04327519 -0.0001342496 -0.024533952 0.012624628
-0.018825166 -0.030053072 0.012047375 -0.016423885 -0.0022613215 -0.0065810247 0.007827101 -0.027593805
-0.016312076 -0.024116931 0.013499977 -0.014394038 0.0037351805 -0.011941786 -0.034650665 -0.047339477
0.016584115 -0.0023924687 -0.019167578 -0.026411597 0.024039129 0.027507301 0.01345843 -0.0050207213
-0.0009997437 0.018536648 -0.004353982 0.016328823 -0.023361495 -0.0096709095 -0.001405643 0.006005947
0.035150632 -0.025545474 -0.0017009708 0.007659237 0.036885925 0.014095397 -0.004417696 -0.0043732477
-0.0032681236 -0.0010660787 0.007868499 0.0080154305 0.0120137045 0.02830197 0.013368525 0.011134776
-0.056494866 0.018547738 0.03508656 0.014281774 0.009172093 -0.0023963843 -0.06822368 -0.008876285
-0.053048503 -0.0041418704 -0.006151689 0.006085679 0.006905005 -0.035684347 0.029470246 0.007456425
0.0041377316 -0.026577342 -0.0320966 -0.0026984059 -0.012044081 -0.023178173 0.010128844 -0.014216058
0.025619969 -0.0061517726 0.015981248 -0.019933078 -0.020026838 -0.031827603 -0.009323201 0.0094444975
-0.03094219 -0.010104623 -0.0047785467 -0.0072413404 0.021084424 0.04000406 0.0128411595 0.01754664
0.022711346 0.048216064 -0.007963287 -0.019141005 0.0032932414 -0.0045692576 0.023869706 0.0013729454
-0.0027319007 -0.023627559 0.003936293 -0.02229318 -0.0023249649 0.014103522 -0.014906894 0.0005020472
-0.02248956 0.017631106 -0.0036864178 -0.035815064 -0.014854507 -0.0145303225 0.04561083 0.02843473
0.012092435 0.0038875404 -0.0033256474 -0.0658639 -0.008357056 0.00064633373 -0.031168839 -0.0048339902
0.001238427 0.021873428 0.017851457 -0.03293587 0.0119853495 -0.0020438037 -0.006841448 -0.006401815
-0.0092669595 -0.03757665 0.016837964 -0.02100304 -0.0028269428 -0.007389567 0.01752949 -0.026969092
00000000: c45d 363d ae3d 62bd 011a 543c af31 b03c
00000010: a9e2 c33b 799a babc ae86 a23c 574e a9bc
00000020: e981 93bc 7a47 1dbd 99fc 34bd 3039 73bc
00000030: 7494 b3bc acdb 063d 2ccf 59bd 28fc ce3b
00000040: 0153 493c 4396 10bc ea7d 94bc eca3 10bd
00000050: 9c19 9fbc f19c 083d d1ad c73c 0ad5 8abc
00000060: 937b c4bc c48e 8abc f5df 0a3d 8aab e13c
00000070: 17d4 2e3b a5d1 86bc 2429 1cbb 3994 d93b
00000080: 98d4 81bb e19e 6c3b e9e1 cdbc f422 0bbd
00000090: 46fa aebc 8d6f 24bc 1e10 1c3d 550f ecbb
000000a0: 9501 bb3c c027 cdbc efd1 cabc 2537 46bc
000000b0: 1f13 0a3d 4e77 d1bb cf0d 0e3b 5c3b 24bd
000000c0: 972b 213c c5a3 c2bb 89c8 14bc bb7e c03b
000000d0: bcce d4bc a291 a93c decb cdbb 0445 ae3c
000000e0: 1b27 ce3b f3bd eabc 56ac 0b3d a6b1 5abc
000000f0: 68e0 9a3c df54 bebc 4d4d 813d f480 ce3c
00000100: 7002 733c 64ab fd3c 5d37 e43c b7cd ed3b
00000110: 7873 0bbd 9a34 073d 6517 29bb 9155 543d
00000120: 5758 aeb9 59d1 9fbc 697d 9fbc 0038 8d3c
00000130: fff9 9c3b e799 233d 8fe4 4e3c e43f dabc
00000140: bdc8 e53b 4570 c7bc d7ac cfbb 5275 e33b
00000150: 90a0 dfbc afd4 263c df71 543c 560b 4d3c
00000160: f016 173c 4cfd c3bc 2214 083d 00e5 2f3b
00000170: d9d9 05bc 2ee4 a63a c571 9c3c 37da f93c
00000180: 915d 5ebc 6efd df3c 6ef7 033c 4ecb 163d
00000190: 17b9 9a3b 76b3 c83c 9d19 c83c c96a df3c
000001a0: 48fe 273d b08a 273d d1a9 d6bc 8b0a e1ba
000001b0: 4b73 6b3b 2300 20bd 2e21 d73b 2c6e f83a
000001c0: 748c b43b f651 2abd 3ccb f2bb 0e5c 0ebd
000001d0: 5341 31bd 5ac5 0cb9 6dfb c8bc 87d7 4e3c
000001e0: 3c37 9abc dc31 f6bc 5a62 453c 628b 86bc
000001f0: ae32 14bb a3a5 d7bb 3e3d 003c 670c e2bc
00000200: e7a0 85bc df90 c5bc 022f 5d3c f9d4 6bbc
00000210: eec9 743b 7ba7 43bc dbed 0dbd 0ae7 41bd
00000220: 69db 873c f7ca 1cbb 5305 9dbc 225d d8bc
00000230: b5ed c43c fe56 e13c bf80 5c3c dd84 a4bb
00000240: d509 83ba 2bda 973c d9ab 8ebb 06c4 853c
00000250: 9b60 bfbc bc72 1ebc 8d3d b8ba 89cd c43b
00000260: 1cfa 0f3d be44 d1bc 1cf3 deba 56fa fa3b
00000270: b215 173d 61f0 663c 52c2 90bb 764d 8fbb
00000280: 042e 56bb aabb 8bba e0ea 003c 2753 033c
00000290: 21d5 443c 88d9 e73c a807 5b3c a36e 363c
000002a0: 2967 67bd 6df1 973c edb6 0f3d 1afe 693c
000002b0: 8c46 163c a80c 1dbb dbb8 8bbd d66d 11bc
000002c0: 6349 59bd 87b8 87bb 1c94 c9bb 606a c73b
000002d0: 6143 e23b c029 12bd 966b f13c 0755 f43b
000002e0: cf95 873b bab8 d9bc b977 03bd bdd7 30bb
000002f0: 8a54 45bc 27e0 bdbc 73f3 253c 78ea 68bc
00000300: f8e0 d13c cf94 c9bb 1beb 823c b24a a3bc
00000310: 530f a4bc a95d 02bd 57c0 18bc 18bd 1a3c
00000320: 7a7a fdbc dc8d 25bc 5b95 9cbb c448 edbb
00000330: 3eb9 ac3c 4cdb 233d ba63 523c f9bd 8f3c
00000340: 250d ba3c 357e 453d 7278 02bc 99cd 9cbc
00000350: 6cd3 573b b6b9 95bb 678a c33c 67f4 b33a
00000360: b009 33bb 958e c1bc 05fc 803b 30a0 b6bc
00000370: 705e 18bb 7512 673c 0c3c 74bc d19b 033a
00000380: 073c b8bc 1c6f 903c d497 71bb d1b2 12bd
00000390: 5160 73bc 9710 6ebc 6cd2 3a3d f3ef e83c
000003a0: 591f 463c 1bc6 7e3b 1bf3 59bb a7e3 86bd
000003b0: 09ec 08bc b96e 293a cb55 ffbc 7366 9ebb
000003c0: b752 a23a e72f b33c 383d 923c c3e7 06bd
000003d0: 335e 443c 56f1 05bb 3a2e e0bb 51c6 d1bb
000003e0: 72d4 17bc f9e9 19bd c5ef 893c 910e acbc
000003f0: 3b44 39bb 2e24 f2bb 019a 8f3c 49ee dcbc

cnn_lstm.res2.conv2.bias f4 [8]
0.012925035 0.004403018 -0.00048098693 -0.0031593111 0.00067483453 -0.0027566561 -0.0008833253 0.00620035
00000000: 87c3 533c 3147 903b f92c fcb9 720c 4fbb
00000010: 61e7 303a 04a9 34bb f58e 67ba 4e2c cb3b

cnn_lstm.conv2.weight f4 [16, 8, 21]
0.0034821182 0.0019243737 0.025795538 -0.008157082 0.0060398146 -0.04569675 0.0115771815 -0.014020667
-0.004266606 -0.0592834 0.020482194 -0.010748951 -0.016346106 -0.041184273 -0.023792699 -0.048854247
-0.0048605115 -0.043886054 -0.029943848 -0.029128665 -0.00221486 -0.017627895 -0.03529934 -0.017947033
0.03295124 -0.024143048 -0.0049854717 -0.0068583563 0.009405022 0.004325426 0.05503976 0.016758429
0.0041429615 0.015636949 -0.0046952036 0.010289431 -0.017195974 0.030485613 -0.0092680175 -0.0069630533
-0.048158716 0.044376127 -0.004938448 -0.045628984 0.010981507 0.0042238752 -0.02319205 0.0005288235
-0.009417683 -0.016077004 0.007498102 -0.001851159 0.0046500647 0.0062413095 -0.015703052 0.011768819
-0.022310974 -0.0063840225 -0.038102698 -0.007486507 -0.0032366838 -0.009994637 0.004823604 -0.010162398
0.010076592 -0.005808687 -0.0152800325 -0.011359662 -0.014345623 -0.041429564 0.029019382 -0.02646343
-0.017093364 0.0056481175 0.016314412 -0.012538616 0.005924317 -0.025653686 -0.00718482 -0.0078981
-0.012734378 0.0064000394 -0.042406447 -0.0071753035 -0.018842837 -0.003405585 -0.012923307 -0.013300191
0.017036617 -0.02678493 0.0020559272 0.004746305 -0.030419078 -0.028455218 0.0045398325 -0.0018871765
-0.0029312694 0.0017957273 0.025764404 0.02929476 -0.02789818 0.0034032122 -0.029065369 0.0011030161
-0.027676472 -0.0017639947 0.02338449 0.0046206075 -0.00970424 0.01056005 -0.005418582 -0.019541454
-0.017848112 -0.013142797 -0.012495955 -0.009404963 -0.0012737203 -0.0072549367 0.038203318 0.039871052
-0.0009950177 -0.01702331 -0.011630803 -0.005063906 0.014658934 0.02098267 -0.0035783714 0.023191525
-0.015426401 0.0011469045 0.00797747 0.019587642 0.0061125737 -0.009679186 -0.037762318 0.01785533
-0.018262312 0.034782033 -0.023700723 -0.014170709 -0.025567943 -0.052954912 -0.033924364 -0.030041078
-0.039452597 -0.003248016 0.0010685133 0.012709592 -0.030897206 -0.024208052 0.01385758 0.005256586
-0.00094282144 0.029658232 0.0015469166 -0.013846683 -0.015360932 0.026556239 0.023012266 0.0035338365
-0.008561315 -0.0052092196 0.016425572 -0.027509378 -0.005328435 -0.07134155 -0.033432737 -0.03404434
-0.0016469113 -0.041584875 -0.017480168 0.0018530395 -0.004212402 -0.001851029 -0.019958962 -0.0026797142
0.0025736734 -0.0004273625 -0.019604124 -0.038684107 0.041919865 -0.016201884 -0.022750044 0.008932333
-0.03037788 0.0052925055 -0.043023378 -0.0213587 0.015623122 -0.0025997167 -0.008744018 -0.022338197
-0.023259083 -0.008840202 0.029973892 -0.0048558027 0.018133292 0.028413672 0.0035455155 -0.008803989
-0.015042219 -0.021356747 0.005954944 -0.0111691505 0.0076053157 0.03436575 -0.005726149 0.0012545014
0.010490351 -0.012938299 -0.023573909 0.0040028496 0.00169249 -0.039843008 -0.025010686 0.0035012055
0.0013663158 -0.020140693 -0.012730022 0.004997064 -0.007157111 0.0065640584 -0.029333858 0.011406352
0.018137142 0.0031796284 -0.0016238049 0.034883652 -0.017311342 -0.020947427 -0.026792215 0.00680397
0.015397573 0.008911911 -0.016952824 -0.01753243 0.016126633 -0.0129025895 0.03741076 0.006521432
-0.016753437 -0.009650667 -0.0056002005 -0.00070412614 0.020100677 -0.024122484 0.016418077 -0.008105933
0.04294859 0.0126712285 -0.015052806 -0.0013051576 0.039179012 0.013855344 0.023513502 0.014526422
00000000: 4034 643b 443b fc3a 2a51 d33c 48a5 05bc
00000010: a3e9 c53b 842c 3bbd 38ae 3d3c f1b6 65bc
00000020: e3ce 8bbb 27d3 72bd 46ca a73c 5e1c 30bc
00000030: 45e8 85bc d7b0 28bd e8e8 c2bc 641b 48bd
00000040: ed44 9fbb ddc1 33bd cd4c f5bc 3d9f eebc
00000050: 2f27 11bb 6068 90bc 0a96 10bd a805 93bc
00000060: e1f7 063d a4c7 c5bc 2b5d a3bb 10bc e0bb
00000070: 8517 1a3c 4ebc 8d3b 5f71 613d f948 893c
00000080: aec1 873b 0f19 803c 39da 99bb 0095 283c
00000090: 92de 8cbc f7bc f93c e2d8 17bc 532a e4bb
000000a0: 1342 45bd bec3 353d b4d2 a1bb 75e5 3abd
000000b0: c7eb 333c 6f68 8a3b 41fd bdbc bfa0 0a3a
000000c0: a04c 1abc ecb3 83bc a3b2 f53b 97a2 f2ba
000000d0: 925f 983b e683 cc3b b0a3 80bc 01d2 403c
000000e0: 81c5 b6bc 1031 d1bb 9311 1cbd 5f51 f5bb
000000f0: 8b1e 54bb 8cc0 23bc 530f 9e3b 3080 26bc
00000100: 4a18 253c cc56 bebb 1a59 7abc e01d 3abc
00000110: e709 6bbc 0cb2 29bd 0eba ed3c d6c9 d8bc
00000120: 6207 8cbc d813 b93b cda5 853c c46e 4dbc
00000130: c620 c23b ae27 d2bc a36e ebbb 0867 01bc
00000140: daa3 50bc 6cb7 d13b 62b2 2dbd cf1e ebbb
00000150: 4b5c 9abc 3c30 5fbb 47bc 53bc 0be9 59bc
00000160: 6090 8b3c 126c dbbc bcbc 063b e486 9b3b
00000170: 6e31 f9bc eb1a e9bc e0c2 943b 235b f7ba
00000180: 8a1a 40bb 9c5e eb3a df0f d33c 91fb ef3c
00000190: b98a e4bc 6d08 5f3b 7f1a eebc 1493 903a
000001a0: c5b9 e2bc d735 e7ba d490 bf3c 7768 973b
000001b0: 88fe 1ebc 0f04 2d3c 5c8e b1bb 6615 a0bc
000001c0: 3436 92bc e354 57bc d6bb 4cbc 4617 1abc
000001d0: f6f2 a6ba d2ba edbb 157b 1c3d d44f 233d
000001e0: 416b 82ba 7874 8bbc 208f 3ebc 1fef a5bb
000001f0: 072c 703c d9e3 ab3c 1c83 6abb 27fc bd3c
00000200: 04bf 7cbc bb53 963a efb3 023c 4376 a03c
00000210: fc4b c83b 7395 1ebc a9ac 1abd 5745 923c
00000220: d89a 95bc 9b77 0e3d 0528 c2bc 432c 68bc
00000230: dd73 d1bc 40e7 58bd 46f4 0abd b518 f6bc
00000240: 0c99 21bd aadc 54bb 5b0d 8c3a e43b 503c
00000250: 231c fdbc f74f c6bc e70a 633c 703f ac3b
00000260: ad27 77ba d2f5 f23c e8c1 ca3a 33dd 62bc
00000270: 6bac 7bbc 788c d93c 3884 bc3c f097 673b
00000280: c244 0cbc 1ab2 aabb ec8e 863c 595b e1bc
00000290: 279a aebb 851b 92bd c4f0 08bd 1472 0bbd
000002a0: 2cdd d7ba e754 2abd 9232 8fbc b0e1 f23a
000002b0: 3008 8abb 3a9e f2ba fa80 a3bc 259e 2fbb
000002c0: 13ab 283b a00f e0b9 d498 a0bc 3a73 1ebd
000002d0: 2ab4 2b3d d0b9 84bc 4d5e babc ec58 123c
000002e0: 08db f8bc c16c ad3b 4839 30bd 71f8 aebc
000002f0: 20f8 7f3c 0260 2abb 1243 0fbc 98fe b6bc
00000300: d589 bebc 7fd6 10bc cf8b f53c 6d1d 9fbb
00000310: 458c 943c cac3 e83c e15b 683b 9b3e 10bc
00000320: a473 76bc 58f4 aebc b121 c33b d0fe 36bc
00000330: 0336 f93b 1ac3 0c3d 6ba2 bbbb 156e a43a
00000340: b9df 2b3c 29fb 53bc 121e c1bc 562a 833b
00000350: 8ad6 dd3a 6c32 23bd 36e3 ccbc 7b74 653b
00000360: f315 b33a 18fe a4bc 9591 50bc 69be a33b
00000370: 3386 eabb 5017 d73b 8f4d f0bc b5e1 3a3c
00000380: 5894 943c 5061 503b dad5 d4ba 29e2 0e3d
00000390: 84d0 8dbc f099 abbc 597b dbbc d6f3 de3b
000003a0: 1a46 7c3c 4403 123c a6e0 8abc 2ca0 8fbc
000003b0: 001c 843c 6265 53bc 063c 193d bdb1 d53b
000003c0: 813e 89bc d51d 1ebc e381 b7bb 1b95 38ba
000003d0: 2daa a43c 849c c5bc 347f 863c bfce 04bc
000003e0: dcea 2f3d fc9a 4f3c 0ba0 76bc d211 abba
000003f0: 2c7a 203d 8601 633c 639f c03c 3b00 6e3c

cnn_lstm.conv2.bias f4 [16]
0.0026383772 -0.0017818422 0.0019073399 -0.010024515 0.005424985 -0.009546333 -0.0052337367 -0.005137441
0.0012219461 -0.0037178372 -0.005793419 -0.0045780395 0.0047473353 0.0064484347 -0.0055270083 0.009549514
00000000: a0e8 2c3b b48c e9ba b5ff f93a dd3d 24bc
00000010: 13c4 b13b 3968 1cbc c47f abbb fb57 a8bb
00000020: b529 a03a f5a6 73bb b9d6 bdbb 6103 96bb
00000030: 898f 9b3b 644d d33b e81b b5bb 9175 1c3c

cnn_lstm.lstm1.weight_ih_l0 f4 [32, 16]
-0.079379834 0.010165555 0.11456775 0.019492107 -0.104284376 -0.083726145 0.051954105 0.24597044
0.052851412 -0.21905832 0.13815205 -0.007143844 0.32333112 0.19893587 -0.11544921 0.080953
-0.10817486 0.22637536 -0.03541158 -0.0651891 0.2554641 -0.20865498 0.10928645 -0.24659716
-0.36040035 -0.11082554 -0.14821318 0.22353837 0.106045 0.14187403 -0.036421552 -0.20001216
0.30937734 -0.06824097 -0.17583624 0.04532226 -0.17658482 -0.33687052 -0.10780538 -0.119254895
-0.020321468 0.1541806 0.09308169 -0.2605044 -0.30329645 0.119005516 0.33885476 0.16135062
-0.09443804 0.04764123 0.22117701 -0.066776976 -0.07489447 -0.009675075 -0.30063966 -0.20002463
-0.13673684 0.2921566 -0.2631701 0.15412168 -0.089747325 0.32949266 -0.09076734 0.072023295
0.10400173 -0.04351822 -0.2805893 -0.021245377 -0.29003277 -0.13246475 0.302582 -0.015954632
0.05362015 0.28988686 -0.16465512 0.24308296 0.04066643 -0.20415466 0.06965028 0.1510824
-0.0035892592 0.18523706 0.2650073 0.2859074 -0.25317246 -0.19478197 -0.03978552 -0.02646899
-0.06099085 -0.2616975 -0.21572141 -0.06576191 0.0015118258 0.10736522 0.20033628 -0.10023424
0.17439263 0.20027834 -0.028428117 0.29677424 -0.17891595 0.22887662 -0.18512674 -0.09803746
0.23500353 -0.12529054 -0.2026166 -0.25478396 -0.34628177 0.100160435 0.106416665 -0.33049646
0.105080545 -0.23277979 -0.15737715 -0.18079141 -0.09888928 -0.3124101 -0.20972331 0.32378775
-0.06121815 -0.3303973 -0.25533906 0.23709561 0.029162185 -0.058442187 -0.08025246 -0.13914537
-0.3541975 -0.35004717 0.109554306 -0.22465798 -0.046601005 -0.3367685 0.094878145 0.088353574
-0.24511299 -0.22864068 -0.015871149 0.125667 0.20066337 -0.093803994 0.1932004 -0.28882572
-0.19426298 0.34437358 0.1970151 -0.30647978 0.24428739 0.1198019 0.042264793 0.20426178
-0.12575881 -0.15492868 0.22872679 -0.34296668 -0.023084601 -0.2712091 0.0023447815 -0.1361135
-0.03913169 -0.063958034 -0.26726657 0.31588492 -0.31015173 -0.022926312 -0.1037744 -0.16035831
0.06623567 0.19882092 0.2964781 -0.31363758 -0.06272957 0.030819204 -0.30625698 0.3562707
-0.23617418 0.3269909 -0.21160184 -0.34113115 -0.120016575 0.3605823 0.27201656 0.21713315
-0.00673977 0.112726875 -0.20968665 0.16883801 -0.057200715 -0.21489683 0.26556852 0.3251202
-0.21765782 -0.08627772 -0.18619564 -0.14638971 0.113653496 -0.33625844 0.3209648 0.039978262
-0.29284388 0.23941924 -0.063923255 -0.3174985 0.31351668 -0.16867064 -0.29422215 0.2759294
-0.080012865 0.110685945 0.10271434 0.1379951 0.0012711041 -0.026206544 -0.2695306 -0.21870658
0.0013177904 -0.21812573 -0.09370389 0.24180171 -0.30206087 0.34604794 0.28403956 -0.077311404
-0.32138863 -0.101151705 -0.18523663 -0.2851645 0.26804623 -0.11877091 -0.21990834 -0.13758798
-0.22155072 -0.19105332 -0.25776216 0.07958926 0.18551224 -0.256496 0.16396633 -0.08788865
0.024895355 0.23628062 0.017040778 0.1508181 -0.027756173 0.21046178 -0.024497418 -0.0531098
-0.3602884 -0.22607112 0.26972282 0.062464345 0.20036104 0.06483505 0.17316782 0.110774204
00000000: e591 a2bd 6e8d 263c 7fa2 ea3d e9ad 9f3c
00000010: 0c93 d5bd 9d78 abbd d4cd 543d addf 7b3e
00000020: b97a 583d d350 60be bb77 0d3e e816 eabb
00000030: a88b a53e d8b5 4b3e a370 ecbd b0ca a53d
00000040: c88a ddbd f1ce 673e bc0b 11bd dd81 85bd
00000050: 31cc 823e a7a9 55be 93d1 df3d f783 7cbe
00000060: 6586 b8be 80f8 e2bd 32c5 17be 3ee7 643e
00000070: 1f2e d93d 6d47 113e c42e 15bd fdcf 4cbe
00000080: b566 9e3e ecc1 8bbd 6a0e 34be d6a3 393d
00000090: a7d2 34be 4b7a acbe 11c9 dcbd e93b f4bd
000000a0: 3579 a6bc 85e1 1d3e 9da1 be3d d560 85be
000000b0: ac49 9bbe 2ab9 f33d 5f7e ad3e 1939 253e
000000c0: bb68 c1bd 7323 433d 3a7c 623e 5ec2 88bd
000000d0: 4662 99bd 3584 1ebc 71ed 99be 42d3 4cbe
000000e0: be04 0cbe 8d95 953e 3bbe 86be 13d2 1d3e
000000f0: 72cd b7bd 43b3 a83e 3ae4 b9bd f380 933d
00000100: dcfe d43d 2940 32bd 67a9 8fbe c90a aebc
00000110: 2d7f 94be d7a4 07be 07ec 9a3e 4ab3 82bc
00000120: cda0 5b3d 0d6c 943e 5a9b 28be bdea 783e
00000130: d891 263d eb0d 51be cea4 8e3d 58b5 1a3e
00000140: c739 6bbb c9ae 3d3e 09af 873e 7462 923e
00000150: d29f 81be ed74 47be 24f6 22bd 7fd5 d8bc
00000160: 8bd1 79bd 37fd 85be 13e6 5cbe 2eae 86bd
00000170: 7528 c63a 4ce2 db3d f424 4d3e 9c47 cdbd
00000180: fb93 323e c415 4d3e 15e2 e8bc cbf2 973e
00000190: be35 37be a25e 6a3e dd91 3dbe ddc7 c8bd
000001a0: c4a4 703e 2a4c 00be ba7a 4fbe 0b73 82be
000001b0: d84b b1be ea20 cd3d fbf0 d93d d536 a9be
000001c0: 7834 d73d d35d 6ebe 7a27 21be 6221 39be
000001d0: 7686 cabd 37f4 9fbe b5c1 56be 82c7 a53e
000001e0: e2bf 7abd d629 a9be cdbb 82be 31c9 723e
000001f0: 89e5 ee3c 1361 6fbd 675b a4bd 207c 0ebe
00000200: 6059 b5be 6239 b3be 025e e03d be0c 66be
00000210: b2e0 3ebd ec6c acbe 794f c23d b8f2 b43d
00000220: e6fe 7abe c820 6abe 3604 82bc daae 003e
00000230: b37a 4d3e 4f1c c0bd 53d6 453e f7e0 93be
00000240: e0ec 46be bc51 b03e 54be 493e ebea 9cbe
00000250: 7926 7a3e b35a f53d d91d 2d3d 002a 513e
00000260: ebc6 00be a0a5 1ebe 5b37 6a3e 5499 afbe
00000270: eb1b bdbc ebdb 8abe e8aa 193b 5661 0bbe
00000280: 8d48 20bd 6efc 82bd 2ad7 88be abbb a13e
00000290: 35cc 9ebe f6cf bbbc ac87 d4bd f834 24be
000002a0: 91a6 873d b697 4b3e facb 973e 1b95 a0be
000002b0: 5c78 80bd 8e78 fc3c b7cd 9cbe 1d69 b63e
000002c0: a5d7 71be 5a6b a73e 27ae 58be bea8 aebe
000002d0: 40cb f5bd 3e9e b83e c145 8b3e 2758 5e3e
000002e0: 4ad9 dcbb 59dd e63d 19b8 56be dfe3 2c3e
000002f0: 4c4b 6abd ea0d 5cbe 99f8 873e 2876 a63e
00000300: b1e1 5ebe 60b2 b0bd 12aa 3ebe 2fe7 15be
00000310: 2ac3 e83d 112a acbe 8055 a43e 3fc0 233d
00000320: a2ef 95be 512a 753e 32ea 82bd 2a8f a2be
00000330: 4285 a03e ffb7 2cbe 49a4 96be 9e46 8d3e
00000340: c9dd a3bd 50af e23d e55b d23d 964e 0d3e
00000350: 2d9b a63a 1baf d6bc eaff 89be 9ef4 5fbe
00000360: b5b9 ac3a 5a5c 5fbe d3e7 bfbd de9a 773e
00000370: b9a7 9abe 322d b13e a26d 913e 7155 9ebd
00000380: 0d8d a4be a028 cfbd acae 3dbe 1501 92be
00000390: 5b3d 893e 2a3e f3bd a72f 61be dde3 0cbe
000003a0: 31de 62be 7ba3 43be 67f9 83be b2ff a23d
000003b0: ecf6 3d3e 7253 83be cae6 273e f7fe b3bd
000003c0: 58f1 cb3c 8cf3 713e 1a99 8b3c 0f70 1a3e
000003d0: ea60 e3bc 4b83 573e cfae c8bc a989 59bd
000003e0: b977 b8be 307f 67be 1c19 8a3e 9dda 7f3d
000003f0: 722b 4d3e 3dc8 843d e852 313e 96dd e23d
