results/kinematic_model/model_kinematic_fold_3.pth (torch, 74495 bytes, 48 tensors)

cnn_lstm.res1.conv1.weight f4 [8, 8, 21]
00000000: a59c 0d3d 2e3d 0ebd d3c8 1c3d 643e 223d
00000010: 368f fa3c df8e 3d3c bc22 943d e7fd 063d
00000020: 4690 833b 264b c3bb f679 a2b9 8755 d33c
00000030: 44bb 0bba 6958 163c 2450 fe3c cd78 1cba
00000040: 67da 1cbc 43aa 713c ae94 013d 86c4 d43a
00000050: 93a8 7abc eecc 1d3d 4c11 e93c 32f5 d23c
00000060: d5bd 1f3d 15af e93c a6e7 1c3d 0406 213d
00000070: fab4 1d3d 21f0 883d 8bda 143d 2b92 5d3d
00000080: e486 933d 7ac0 8b3c 1104 083d 88e2 5e3d
00000090: d2fa 6a3d b8ae 8c3d 58c5 603d 7b89 1d3d
000000a0: c70c fc3c 80ca 3e3d e363 883b da90 14ba
000000b0: 9b59 1bbc c1de 4cbd 1541 a3bc fa8a 0f3d
000000c0: c159 15bd bb2a 073c dfab 7fbc 9eb4 a73c
000000d0: 1109 bbbb 6005 283c af20 e1ba e316 3ebc
000000e0: 2832 d2bc 423d 26ba efc9 193c ad45 e93c
000000f0: 6fb5 fcbc 7750 02bd b99b 38bc 49a6 783d
00000100: 6f82 6a3d 827a 343d f8a5 6f3d 0d79 9b3d
00000110: 0f41 423d b510 9a3d 8956 e33c 494b 4c3d
00000120: b27a 9a3d b5fa 143d 19c5 6e3d db29 5d3d
00000130: 4e0b 1a3d 963f b43d 50f2 7c3d 598a 953d
00000140: 5dd2 8c3c 5e63 963d da91 7b3d 756d 933d
00000150: fcd4 d5bb 8fb3 253c d10c c33c 8b04 173d
00000160: 320f 783b e2b5 adbc f422 a63b 5500 7e3c
00000170: 2fc4 f43c b64e 283d 22c4 873d 3011 2f3d
00000180: a555 833c 118b c23c dcb3 813c 2cd7 493d
00000190: da96 1f3d 4ecb 1e3d 4509 01bc 391b 073d
000001a0: a007 f23c 4f1a ca3c 7c12 80bb 0ae9 5d3d
000001b0: a580 27bb 621c a2bc bde6 4f3d 4bcc a63c
000001c0: be21 9d3c b217 853b c89f 403d 0e06 87bb
000001d0: 6235 1c3d 4acf e43b 4a03 a43c 491b b43c
000001e0: dff0 47bc 0c6c ae3c 23e9 7cbb c340 93b9
000001f0: 373d df3c 42e3 d13c e7de 3bbc c70c 1b3d
00000200: 4396 e63c dc19 17bc 99b5 c83b 9888 35bc
00000210: c687 bbbb 3dfe f6bb be3c 62bb 4d24 04bc
00000220: 827b 823b 0fae 053b a8a9 f43b e98e ca3c
00000230: 5792 1a3c ace7 a83c 9a49 cf3c 7856 14bc
00000240: 33ec 2b3c 3258 993b 646b 09bc 02a9 503d
00000250: f2a0 eb3c fad5 543c b89d 923c 74a8 873c
00000260: 2fef 3cbc 15b0 3c3c fabb 0f3d cb3e ca3c
00000270: e609 a63b 65cd 283d b33a 15bc a1b0 0a3d
00000280: cc08 bc3c 51c9 993c 49d7 a53c 17fb c13c
00000290: f8cc 383c db14 123d 8112 133d 3026 163d
000002a0: 333e 15bc 638a 79bc 529c c8bc 0f3b 283b
000002b0: 8547 4fbc b4e2 773b 9efd 2cbd 2a4b 093d
000002c0: 28ba 983c e446 c6bb 7e13 84bb 7934 9cbc
000002d0: 816e 21bc 6409 833c c49e 6fbb e22d 6abc
000002e0: 80e9 9ebb 5d4f 5f3c 0e07 13bc a007 2cba
000002f0: e8d0 60bc 1c97 7fbc 26cb 1e3d b0c8 f6bc
00000300: 71ae cabb bf01 77bd 9ee0 03bc 9dfc 0e3c
00000310: 16f0 2a3c c37d f6bc eed7 00bd 7521 03bd
00000320: 035b f1bc c9d5 893a 5442 26bb 6d12 8abc
00000330: 7002 193c 72f7 dd3b 21d7 83bc 3d92 41bc
00000340: 1b90 e3bc 2017 37bd bc78 8ebc 9d1b e43c
00000350: 9e33 2abd 1f73 ffbb 0731 fd3b a1d3 333c
00000360: 6a2a 953c d0aa f1bc 6985 30bc 97b5 a2bc
00000370: ca69 c1bc 4444 21bc 23b5 01bd d4f2 6dbc
00000380: ca8a 8cbb d4d1 4abd 7cff fd3c 18c7 d43b
00000390: 8e14 243c 6cdc 6abd f121 15bc f9ef 563c
000003a0: eba8 01bd 22b3 49bb 15ad 8ebc e33e b93c
000003b0: 8ac4 9cbc 8f31 76bc b01e e7bb 826a 45bc
000003c0: 9af7 c03b b1ba 89bc 9572 7dbb 6d21 17bd
000003d0: 1431 39bc 9efa 873c fc1c 7bbb 792e b73b
000003e0: 374d fabc 1806 82ba d840 8f3b f0ae 01bd
000003f0: 6bc9 e83b b961 0ebd 3bba 25bd 6906 80bc
0.034573216 -0.034726314 0.03827746 0.03961028 0.030585866 0.011569708 0.072331876 0.032956984
0.0040150015 -0.005959886 -0.00030989916 0.025797619 -0.0005330334 0.009176352 0.031044073 -0.00059689285
-0.009573556 0.014750066 0.031635933 0.0016232885 -0.01529898 0.038525514 0.02845063 0.025751684
0.038999397 0.028525868 0.038306855 0.039312378 0.03850267 0.06686426 0.03634123 0.054094475
0.07203463 0.017059553 0.033207003 0.054415256 0.057368107 0.068692625 0.0548757 0.03846119
0.030767811 0.046579838 0.004162298 -0.00056673365 -0.009481813 -0.050017122 -0.019928494 0.035044648
-0.03646255 0.008249934 -0.015604942 0.020471867 -0.005707868 0.010255188 -0.0017175878 -0.011602136
-0.025658682 -0.00063415256 0.009386524 0.028475607 -0.030848233 -0.03181502 -0.011267596 0.060705457
0.057253297 0.044062145 0.05850789 0.07591448 0.047425326 0.07522718 0.027751224 0.049876485
0.075429335 0.036371905 0.058293436 0.053994995 0.037608437 0.088011906 0.061754525 0.07301778
0.017190153 0.073431715 0.06141839 0.07198612 -0.006525634 0.010113611 0.023809822 0.036869567
0.0037850854 -0.021204893 0.0050700847 0.015503009 0.029878704 0.04109069 0.06629206 0.042741
0.01603205 0.023747953 0.015832834 0.04927747 0.038962223 0.038768105 -0.007875745 0.032984946
0.029544652 0.024670748 -0.0039084535 0.05417732 -0.0025558856 -0.019788925 0.05075716 0.020361086
0.019181129 0.0040616626 0.04702738 -0.004120595 0.038136847 0.0069827186 0.0200211 0.021985667
-0.012203424 0.021291755 -0.0038591109 -0.00028086276 0.02725087 0.02562106 -0.011466718 0.037853982
0.028147822 -0.009222474 0.0061251638 -0.01107993 -0.0057229726 -0.007537632 -0.0034521068 -0.008065295
0.0039820084 0.0020397936 0.0074665137 0.024726348 0.009434304 0.020618282 0.02530365 -0.009053819
0.010493326 0.004679703 -0.00838742 0.05094243 0.028763268 0.012990469 0.017897472 0.016559817
-0.011531635 0.011516591 0.035091378 0.024688145 0.005067098 0.041211504 -0.009108233 0.033859853
0.022953413 0.018772753 0.020244258 0.0236793 0.011279337 0.03566442 0.03590632 0.036657512
-0.009109068 -0.015230748 -0.024488602 0.0025669967 -0.012651329 0.0037824335 -0.042234056 0.033518948
0.018643454 -0.0060509313 -0.004030644 -0.01906799 -0.009853006 0.015995689 -0.0036563138 -0.014293166
-0.0048496127 0.0136297615 -0.00897385 -0.00065624155 -0.013721682 -0.015599992 0.038767956 -0.030124992
-0.006185346 -0.0603044 -0.008049158 0.00872722 0.0104332175 -0.030089265 -0.031455927 -0.03201433
-0.029462343 0.0010515983 -0.0025369124 -0.01685449 0.00933896 0.0067738825 -0.016093792 -0.011814651
-0.027778676 -0.044699788 -0.017391555 0.027845198 -0.041553132 -0.007795706 0.007726792 0.010975749
0.018208701 -0.029500395 -0.010773995 -0.01986198 -0.023610014 -0.009842936 -0.031666886 -0.014523227
-0.004289006 -0.049516514 0.031005614 0.0064934604 0.010014666 -0.057339117 -0.009102331 0.013118737
-0.031655233 -0.0030776937 -0.017416516 0.022612995 -0.019136686 -0.015026464 -0.007053219 -0.012049319
0.0058888914 -0.016812654 -0.0038673033 -0.03689711 -0.011303205 0.016598996 -0.0038316837 0.005590257
-0.030554397 -0.0009920029 0.0043717436 -0.031660974 0.007104089 -0.034761164 -0.040460806 -0.015628057

cnn_lstm.res1.conv1.bias f4 [8]
00000000: 1532 a63c d398 fdb8 a40b cfbb 61d5 603b
00000010: 09a3 7b3c 639b 98bb fff9 983b 1c26 22bc
0.020287553 -0.00012092446 -0.0063185263 0.0034306871 0.015358695 -0.0046571954 0.0046684737 -0.009896781

cnn_lstm.res1.conv2.weight f4 [8, 8, 21]
00000000: d8af 90bc deb9 7fbc 028e a5bd 9099 51bd
00000010: e73f 11bd 9925 733a ebd6 c6bc 59b0 85bc
00000020: f2ad 8bbb 6103 b3bc 5115 c0bc c87b 8a3c
00000030: 6585 523b 0152 25bc dfb0 a53c b947 65bb
00000040: d4ce 803a d8e8 12bd 46d0 86bd d5dc 9cbc
00000050: 7fae b23c 9f86 30bb 3f4d ad3a 43d9 a5ba
00000060: a5d1 973c fe53 993c b75a 54bc 516e 5abc
00000070: df89 293c 5c1d dfbb 4043 b73b 9690 97bb
00000080: 5e74 a0bb 08d2 6ebc f4e8 6bbc 4b72 04bd
00000090: 9aee 30bb e33a 07bc 11e7 b6bc f4fc a3bb
000000a0: 300f c3bb 53a9 11bd d4e8 983c 935e 083b
000000b0: f36e d239 b338 c53c a684 033b 801c 1d3b
000000c0: b8e1 5e3c 54b6 cbbb 2efc d13a e6a5 aa3b
000000d0: c30e 93bc 9fb0 343b 1c9a 02bd 7aee 053c
000000e0: cef9 983b f052 1bbc e0a4 3b3c 699c 6cba
000000f0: a906 1d3a c83c 123c d426 9bbb 9f0d a9bc
00000100: d47a cbbc 4fcb 2c3b ea7b 5ebc fde8 48ba
00000110: bb70 06bd 00be b5bc acc0 b7bc d06f cdbc
00000120: 5ed9 04bd 5b49 37bd 43a5 39bd ccfc 1bbd
00000130: 36fc 27bd 3b0c c2bc 9966 02bd 3d7c a23c
00000140: 9448 8e3c e949 acbc 0ba3 88bc 0bbd bbbc
00000150: 584a 0dbd 0440 2fbd 6ddb 00bd 9731 cfbc
00000160: cec7 c63b 70ba f4bc ad0e ddbc 7bad efbc
00000170: b4f2 bcbc d4f2 55bd b603 1bbd 5876 7c3c
00000180: f925 fe3b a891 533c 45e2 afbc d9b1 21bd
00000190: af99 9abc 89f4 dabc aef8 d1bc 5a50 903b
000001a0: 4616 b0bb 8872 423c 292c be3b 91c8 d2bb
000001b0: 9c20 013d 164e 453c eac1 1c3b 0d30 0ebc
000001c0: 9723 7d3c cb4c c13c bc2b b5bb d2ac eebc
000001d0: 4d29 ffbc 5d9d e6bc 2854 5cbc 7634 903c
000001e0: 6aaf 40bc b642 b4bc 04ad 9dba c0bc c4bb
000001f0: 2079 3abd e880 3c3b fc0c 8bbc c04c 0dbd
00000200: 0701 babc 3b1a 2abd f3df c43c 7409 e3bc
00000210: 00b9 263c 4ac9 7fbc 06a3 7fbc 0207 f5bb
00000220: d830 f9bc e5d2 32bd 62d4 06bc 5188 73bc
00000230: 321a 0ebd 71c3 16bd bc2a c6bc 36f9 68bc
00000240: 3dce 2abc a26d d1bc 6518 66bc 95c3 893c
00000250: 97ef 1ebc c093 d3bc 524d 71bb f5be d5bc
00000260: af66 bbbc 4649 603c adeb 7ebc fcd5 0e3c
00000270: ae57 0e3d e6dd d6bc 610d a8bc ad75 8abc
00000280: 578f f9bc 2b5e 1b3d 70e9 d1bc 3852 b33c
00000290: caa8 5ebc 2ee4 d7bc daf5 76bc 1f16 503b
000002a0: 0bc0 e3bc a4f2 ec3b 4b76 243c 6b85 62ba
000002b0: 1620 a5bc f00e 7ebc 0765 d0bc 5ba1 903c
000002c0: 093c 13bd 9965 48bb 0026 f8bc bd54 dcbc
000002d0: 6239 e93c a188 c2bc 3d69 47bd 5271 03bd
000002e0: 7e18 81bc 178c 0ebd 8152 bbbb 8ab7 e9bc
000002f0: 5882 e1bc 9ca7 593c 3213 1f3d 3e3d 1bbd
00000300: 6132 87bc a387 9a3c 8476 103c eba1 d9bb
00000310: 6983 1b3d 7001 03bc df6e 863b 9625 c6bc
00000320: a4bd a43c c665 dc3c d80f 6a3c bc38 82bc
00000330: 6e72 21bc 9b21 083c 145e e43c 1224 27bb
00000340: c163 373c 3c9b 8dbc 8822 b03c f03f c1bc
00000350: a23f 0fbc ecf6 34bc b625 00bd 96e1 b23c
00000360: 90cc 9abc a10b afbc 9f35 63bc 0cc5 bfbc
00000370: 0ceb adbc 6237 223d 6596 e33c 09b7 26bc
00000380: c09e 13bd c929 583c 8136 6e3c 08bc f3bb
00000390: 817d 27bc 2b8f 65ba 1cf0 aa3a d0f3 abbb
000003a0: ae3f 9bbb 6b1d d9bc bfb0 49bc a94c 583c
000003b0: 06b5 d1bb 8b71 3bbb c2dd 003c 6740 9d3c
000003c0: e8a2 9abc 3d76 aebb 0ebc 833c a7eb 9fba
000003d0: 8cd3 d4bc b334 11bd ff2c 213c 72cb 98bb
000003e0: 5c90 f0bc 78e9 00bd 4e94 3a3c d721 89bc
000003f0: 0a40 8fbc ff84 7dbc c9a3 14bc b08a a6bc
-0.017661974 -0.015608279 -0.080837265 -0.05117184 -0.035461333 0.0009275317 -0.024272403 -0.01631944
-0.0042626793 -0.021852197 -0.023447664 0.016904727 0.0032122966 -0.010090352 0.02022594 -0.0034985377
0.0009827265 -0.03586659 -0.06582694 -0.01914827 0.021811722 -0.002693571 0.0013221874 -0.001265325
0.018532583 0.018716808 -0.012961081 -0.013331966 0.010347812 -0.00680892 0.0055927336 -0.0046253903
-0.0048966845 -0.014576443 -0.014398802 -0.03233556 -0.0026997686 -0.008253786 -0.022326978 -0.0050045196
-0.005952738 -0.03556187 0.018665709 0.0020808324 0.00040136985 0.024074888 0.0020068078 0.0023973286
0.01360362 -0.0062168036 0.001602059 0.005207765 -0.017951375 0.0027571095 -0.03188525 0.008174533
0.004668451 -0.009480223 0.0114528835 -0.00090259925 0.0005990067 0.008925624 -0.0047348533 -0.020636378
-0.024838842 0.0026366299 -0.013579348 -0.00076641125 -0.032822352 -0.022185326 -0.02243074 -0.02507773
-0.03243386 -0.04474769 -0.04532362 -0.038082883 -0.04101201 -0.023687473 -0.031836126 0.019834632
0.017368592 -0.021031337 -0.016679307 -0.022917291 -0.034494728 -0.04278566 -0.03145926 -0.025292201
0.006066299 -0.029874057 -0.026984537 -0.029257527 -0.023064949 -0.052233532 -0.037845336 0.015409075
0.0077559915 0.012913145 -0.021470198 -0.03947625 -0.01887211 -0.026727932 -0.025631275 0.00440411
-0.005373749 0.011868127 0.005803604 -0.006432601 0.03152524 0.012042543 0.0023919293 -0.008678448
0.01545038 0.023596188 -0.005528895 -0.029135142 -0.031147623 -0.028151209 -0.013447799 0.01760314
-0.011760572 -0.022004467 -0.0012029712 -0.006003946 -0.04552567 0.0028763358 -0.016973965 -0.034497023
-0.022705568 -0.04152892 0.024032569 -0.027714469 0.010175943 -0.015611956 -0.015602833 -0.007477642
-0.030418798 -0.043658156 -0.008229347 -0.014864043 -0.03469295 -0.03680748 -0.0241903 -0.014219573
-0.010425148 -0.025564972 -0.014043902 0.016816894 -0.009700677 -0.025827289 -0.0036819768 -0.026092032
-0.022876112 0.013689345 -0.015559119 0.00871801 0.034751587 -0.026228856 -0.020514192 -0.016901815
-0.030463858 0.037931602 -0.025624007 0.02188979 -0.013590047 -0.026353922 -0.015073264 0.0031751466
-0.027801534 0.0072310735 0.010037969 -0.00086410966 -0.020156901 -0.015506491 -0.025438799 0.017655065
-0.035945926 -0.0030578135 -0.030291557 -0.026895875 0.028469745 -0.02374679 -0.048684347 -0.032090493
-0.01575875 -0.03480157 -0.0057166223 -0.028529901 -0.027527973 0.01328459 0.038836665 -0.037900202
-0.016503515 0.018863505 0.008817319 -0.0066416166 0.03796712 -0.007995948 0.0041025723 -0.024187844
0.020109959 0.026903998 0.014286004 -0.015896194 -0.009853942 0.008308793 0.027876891 -0.0025503677
0.011193217 -0.017285936 0.02150084 -0.023590058 -0.008743199 -0.011045199 -0.031285964 0.021836083
-0.018896371 -0.02136785 -0.013867765 -0.023409389 -0.021230243 0.0396036 0.027781675 -0.010175475
-0.036040068 0.013193556 0.014539362 -0.0074381866 -0.010222794 -0.00087569904 0.0013041529 -0.0052475706
-0.004737816 -0.026503285 -0.012310206 0.013201871 -0.0063997535 -0.0028601612 0.007865371 0.019195748
-0.018876508 -0.0053241537 0.016080882 -0.0012200967 -0.02597978 -0.03545065 0.009837388 -0.0046629244
-0.02936571 -0.031472653 0.011387898 -0.016739769 -0.01748659 -0.015473603 -0.009072253 -0.020329803

cnn_lstm.res1.conv2.bias f4 [8]
00000000: cb79 53bc 6515 1ebc 04bb 1a3c fb19 e9bb
00000010: aefb 70bc e28b 83bb 0cfa b83a c62f 07bb
-0.012907456 -0.009648656 0.009444002 -0.007113693 -0.014708443 -0.004014478 0.0014112606 -0.002062784

cnn_lstm.conv1.weight f4 [8, 8, 21]
00000000: 5a3e e1bc a9f3 e2bc 6d7d 053c d7be dfbc
00000010: 2676 5d3c a0ad 8d3c d21e 253d a033 fcba
00000020: e2e0 ecbc 3923 6d3c 706b 263c 8542 853b
00000030: 498c 893c fca6 bcbc 1e89 9e3c 7fec c6bc
00000040: b58c c7bc 8cd2 8c3c 9f81 9c3a 47e5 33bd
00000050: b0e3 763b c5c5 6a39 8114 06bd 38e2 80bc
00000060: 6c7a 89bc 7071 763b 480a 1b3b 5d36 ef3b
00000070: 7bf6 7f3c 4869 263d 5881 263c 8328 a33c
00000080: 109d 343c 2929 16bd fc24 20bc 967d c9bc
00000090: b0b1 2b3b 7396 cc3c c198 893b 34e3 103b
000000a0: ef93 8a3b 539a 7e3c bf51 6a3c 156b a4bc
000000b0: 352c 1a39 80e6 10bc 1e3f 723b 203b 293c
000000c0: 8d5a 7c3c 4191 693c df7c e6bb 37a5 d53c
000000d0: cfe2 f53c d533 3fbb 6bb9 1b3c 1c1a 19ba
000000e0: 512d 6d3c 5e30 963b 2176 c83c d900 3bbc
000000f0: d220 30bd 3f7e 5bbc fde3 f53c 59f2 463d
00000100: e119 1a3c 1b60 6f3b 6904 d23c 81a7 203b
00000110: cc25 6e3c 5ad8 4b3c 11cf 803c a963 8cbc
00000120: 56ab 3e3c 501d edbb 2dc4 98bc a0ca cfbb
00000130: d6de 52bc fdd4 993c c9da b0bb 5f8f a4bb
00000140: f341 2c3c 395b 3abc f83c 2dbc 56f9 dc3c
00000150: fff7 1a3c 2bc3 07bd d573 08bc b97e b5bc
00000160: 14a3 cebc c253 c2bb 5aea 153d 34e4 a3bb
00000170: 8244 693d a3b0 843a 1e4f 8e3c b660 cc3b
00000180: 7cbb 27bd e176 00bd ce73 413a c35a e83c
00000190: 1da2 fc3b badd 933b 62e9 2a3c de2b 7dbc
000001a0: 42df a33c 8966 eabb 090b 4b3c 60dd c5bb
000001b0: dc82 23bd fc56 dd3c b1c8 0f3b cad5 42bb
000001c0: c30f a5bc 46e8 6d3c 160b 9fbc 7aef d0bb
000001d0: 1eeb f4bb dd92 04bc 9b46 3dbb 739d 903b
000001e0: 0ee4 f6bb d62a 61bc cca8 00bc fbad 7dbb
000001f0: 5eb1 253c cde9 7dba b834 d5bc f21d e93b
00000200: d296 89bc 21cf 24bd 1ac2 eabc 2980 ed3a
00000210: 2480 74bc 47e5 febc 244a 233c 5ec1 1abc
00000220: dafe 5cbc bc6e 90bc 9a03 17bd 8a61 f63b
00000230: 6acf adba 83c8 a4b8 dcbf b43a 1f05 b8bb
00000240: 8e21 3cbc 83d7 18bd bb51 89bc 73de 54ba
00000250: 6a51 8c3c 5e75 493c b5d6 06bc fc75 c5bc
00000260: 1871 0d3d 6c57 853c 45fb 603c a6ea 42bd
00000270: 9a11 e4bc 1393 dfbc 3e1a 4c3b 87cb 31bd
00000280: 16f8 47bc 91eb 723c 10ca ea3b 49c8 20bc
00000290: 30e8 263b c676 efbc 98b9 dcbb 47c6 99bc
000002a0: 7d72 2bbc 6111 eabc a3d9 abbc 1bee 40bd
000002b0: b3ac c5bc 7737 8bb9 cdc7 f23a eaa8 053c
000002c0: 4d85 023d c3ad 363c e187 c23c 5ac7 e2bb
000002d0: ac8d f63b 0286 62bb ec01 97bc 3857 d23b
000002e0: d657 6c3a dee5 d0bc 8224 333b 6554 203c
000002f0: d985 d73b 892d 573d ff95 86bc 379b c7bb
00000300: f597 223a f381 27bd bdf7 013b e80f de3c
00000310: 6720 a33c 304f f73b 970d d53c 8de9 ecbb
00000320: dfe8 24bc b209 093c 7209 f2ba 08a7 a9bc
00000330: 5717 5ebc 4168 9a3c 3639 9abc 2eb3 6ebc
00000340: 8e79 523c 1bfd 8a3c a04b b4bc 6584 db3c
00000350: 2bbf c73c afb7 ba3c 87a5 0bbc ccf2 263c
00000360: 8b3c 033c 8439 0ebc ab0b ac3c a67c 5d3c
00000370: 20bd 16bd 29fe 1f3c e320 533c 2e31 193b
00000380: c5f5 d2bb 9c5c 1bbd 64a0 aa3c 0e74 c5bc
00000390: 4285 02bd 8b57 21bb bf7c 863a c211 b53c
000003a0: 2bd4 e83c b095 b1ba 851b 85bc 0d96 8abc
000003b0: 976c 173c b242 e23c 75be 8bbb 49bc 193c
000003c0: 6a77 003c ce20 713c debf 99bb cd5c c83c
000003d0: 18fb 953c d6b6 58ba 0818 4d3a 84fc 9a3c
000003e0: beb0 933c 273d 833c 6d11 d73c 7cf3 0d3b
000003f0: e82c 393b 0284 d73c 8793 25bd d6df 653c
-0.027495552 -0.027704077 0.00814758 -0.02731268 0.013516938 0.017294705 0.040312596 -0.001924146
-0.028915826 0.01447373 0.010157451 0.0040667676 0.016790526 -0.023028843 0.019352492 -0.024282692
-0.024359087 0.01719024 0.0011940486 -0.043919828 0.0037672333 0.00022389654 -0.032734398 -0.01573287
-0.016782008 0.0037604235 0.002365725 0.007300182 0.01562273 0.040627748 0.010162674 0.019916778
0.011023775 -0.036660347 -0.009774443 -0.024596017 0.002619844 0.024974084 0.004199118 0.002210808
0.004229061 0.015539723 0.014301716 -0.020070592 0.00014703053 -0.008844018 0.003696389 0.010329038
0.015402448 0.014255823 -0.0070339288 0.026079757 0.030015377 -0.0029175181 0.009504656 -0.00058403774
0.014476136 0.0045834025 0.02447039 -0.011413776 -0.04300005 -0.013396799 0.03001594 0.048570964
0.009405584 0.003652579 0.025636869 0.0024513903 0.014535379 0.012441719 0.015723737 -0.017137365
0.011637529 -0.0072361603 -0.018648231 -0.0063412935 -0.012870511 0.018778319 -0.005397175 -0.005021974
0.01051377 -0.011374288 -0.010573618 0.026974361 0.009458541 -0.03314511 -0.008328398 -0.022155153
-0.025224246 -0.005930395 0.03660045 -0.005001569 0.0569501 0.0010123443 0.01737171 0.006237115
-0.040950283 -0.03136337 0.0007379622 0.028363591 0.007709755 0.004512516 0.010431619 -0.015452353
0.020003919 -0.0071533364 0.012392768 -0.006038353 -0.03991972 0.027019016 0.002193969 -0.002972948
-0.020149117 0.01452071 -0.019414466 -0.006376204 -0.007474317 -0.008091656 -0.0028881195 0.0044133007
-0.0075345105 -0.013743123 -0.007852744 -0.0038708437 0.010113088 -0.0009686023 -0.026026115 0.0071141655
-0.01679555 -0.040236596 -0.028657008 0.001811986 -0.014923129 -0.031115187 0.009966407 -0.009445516
-0.013488496 -0.017630927 -0.03686867 0.007518952 -0.0013260667 -7.8574776e-05 0.0013790089 -0.005615845
-0.011482609 -0.037314903 -0.016762605 -0.0008120306 0.017128665 0.012296049 -0.008229901 -0.02410411
0.034531683 0.016277038 0.013731782 -0.04758706 -0.027840424 -0.02729181 0.0031143571 -0.04340699
-0.012205144 0.014826671 0.007165201 -0.009813377 0.0025467984 -0.02923144 -0.0067359917 -0.018771304
-0.010464308 -0.02857274 -0.0209778 -0.047102075 -0.024130201 -0.0002655347 0.001852268 0.008157948
0.031865407 0.011149826 0.023746433 -0.006920737 0.007524213 -0.0034564738 -0.018433534 0.0064190887
0.0009015774 -0.025500234 0.0027334993 0.009785746 0.006577235 0.05253366 -0.016428946 -0.006091501
0.0006202453 -0.040895414 0.0019831501 0.027107194 0.019912912 0.0075472817 0.026007457 -0.00722999
-0.010065286 0.008364128 -0.001846595 -0.02070953 -0.013555369 0.01884854 -0.018826108 -0.014569087
0.012846364 0.016966393 -0.022008717 0.02679653 0.024383148 0.022792665 -0.0085233515 0.010189723
0.00801004 -0.008680705 0.021001657 0.013518488 -0.036801457 0.009765186 0.012886259 0.002337526
-0.0064379894 -0.037930116 0.020828433 -0.02410319 -0.031865366 -0.002461883 0.0010260566 0.022103194
0.028421482 -0.0013548639 -0.016248474 -0.016917253 0.009242198 0.027619693 -0.0042646476 0.00938327
0.0078409705 0.014717294 -0.004692062 0.024458313 0.018308207 -0.0008266991 0.00078237103 0.018919237
0.018028613 0.01602037 0.026253426 0.002166002 0.0028255526 0.026308063 -0.040423896 0.014030417

cnn_lstm.conv1.bias f4 [8]
00000000: 2778 d03b 81e1 473b 2aad 3abc d1c2 05bb
00000010: 1af4 5cbc d9a5 bdbb 8bec afbb 17c2 0dbc
0.0063619795 0.00304994 -0.011393825 -0.002041031 -0.013485933 -0.005787593 -0.0053687743 -0.008652232

cnn_lstm.res2.conv1.weight f4 [8, 8, 21]
00000000: 58db fabb 0746 05bc 7179 443c 16cd cabc
00000010: 0c3f 20bd d47f 80b8 023c 91bc 07d9 463c
00000020: 336a a4bc 89ba b3bc 7d33 e0bb 2f52 7c3c
00000030: a6d5 323d 11d3 10bd d080 edbc 3f6d 063c
00000040: 4365 d7bc 062f 363c 3652 19bc 30d6 073b
00000050: a148 e3bc cfa5 06bc 14b7 abbc 1077 09bb
00000060: 0db7 3cbc 0c6c 9d3c 889c a3bc 622e 9d3c
00000070: 0243 923c 4f61 fb3b 394c 9a3c f5e6 9fbb
00000080: 32c8 87bc e84a efbc 6163 55bb af10 8d3b
00000090: aa57 1b3c 52a0 be3c 27e6 b63b 708c 47bd
000000a0: 5a74 6c3c 80fd ab3c e238 633b a716 92bc
000000b0: ffd5 d2bc 5dde 51bc d68a 6abc a8d0 7b3c
000000c0: 58c6 c73c a40f 283c 65f8 453b 938a 4c3c
000000d0: 6d61 f13c 8713 92bc c7a4 c0bb c41f 2dbc
000000e0: 46fc bdbc 2a9e 91bc b9f2 05bd db1b e0bc
000000f0: 2340 85bb 0694 093c 6972 ce3b 6e1b 253d
00000100: 59cd 7bbc e7c5 62bc d387 55bb 3a78 783a
00000110: ab6c 8fbc b12b eebb c801 8dbb 113e 0e3c
00000120: acdc 203b fe0d a23c edcd 07bd 2ebc 08bd
00000130: d878 34bc 3b7e 04bd 2efd 7bbc 7a9d b33b
00000140: cd5a 8c3b fff3 1b3b 67a0 863c 6989 b938
00000150: 9dd2 8bbb 72d8 5abb 9222 6cbb 0d48 d8bb
00000160: 246c 0dbd 12e6 ebbc 54ac 8fbc 11d8 88bc
00000170: d9ff ebbb 0581 ccbc 31d0 e93b 487b a7bb
00000180: 82cd 333c e25b 693c fddb 00bc d7a2 a5bb
00000190: ee39 923c 37a8 92bc cbdb 223d e477 b03c
000001a0: 03ff 39b9 2e9e 3abc f6e1 01bc 35f2 0e39
000001b0: 9670 f8bc a610 27bd 53c9 3ebc 307f 5ebb
000001c0: cdde debc d2e7 cf3b 34bc 693b 0cea 49bc
000001d0: 5228 09bd 04cd bc3c 4cd5 7abc 18c1 c6bb
000001e0: 6abb a7bc 3d4e e339 3820 75bc 44c5 d13c
000001f0: c9bc c8bb ae13 263c 4b55 20bc 9119 053d
00000200: d774 82bc 3424 f7bb bcc2 db3c 01c6 263c
00000210: ac37 91ba 6af3 dc3b 7299 953c 07d8 73bd
00000220: 58f6 c13c ef6b 6f3c e946 89bc d72d 33bb
00000230: 764e 99bc 1e0a 20bd e928 5a3b 6b99 c1bb
00000240: e110 f1bc 38d4 0fbb 5f48 19bc e2f2 1cbb
00000250: f77a 67bd a5ca 81bb 37ed 03bc 516a e73b
00000260: f004 0e3d f8c0 24bc 15ec 1dbd 8628 ddbb
00000270: 1631 34bd eee1 12bc e949 81bd 9242 633b
00000280: 7b70 b03c 81f4 58bc 114d 6fbb bce7 0dbc
00000290: b500 1dbc d40d babc 92f9 eb3c f49d 57bc
000002a0: 9442 b7bb ced1 b8bc 262d 023d 9af9 4cbc
000002b0: c71c 11bc 2307 21bd 2c21 f23b a36e 00bd
000002c0: 9461 17bc 259b f73b 1a61 08bd 908f 853c
000002d0: 992a 473b 1b8d 923c 79cc 7cba 0908 b3bb
000002e0: 8a6f 22bb 6aee f5bc 9d3d 6dbb 90fc f3bb
000002f0: 3b02 c5bc cde8 3c3c e843 2fb9 5d80 38bd
00000300: f779 e2bb ea41 953b 783c feba ec00 6dbc
00000310: 2907 903b a163 d3bc 35fd 1ebc 90f5 febb
00000320: 3c89 91bc f2ce 2dbc e65c 63bc aa8a 29bc
00000330: 3f07 bfbb 36b5 0c39 3b19 21bd 89ae ac3b
00000340: e263 263c d3e2 fcbb d0d2 2ebb 83bf 8c3a
00000350: 7c9f 3ebd c1fb 9ebb 933c 3ebc e206 b13c
00000360: 1503 0abc 2fa9 2b3d 5d21 febb 5733 e03b
00000370: 31ed 6abc 2951 f8bc 100b 8fbb 943d ae3c
00000380: 7ddb 99bc 1ea4 22bd 2305 c9bc a0ea 0dbd
00000390: fabe 4fbb e28e eabc 2c3a 8e3c 7c66 1f3d
000003a0: 5369 533c 69f6 40bc e99f 203c 35a9 2ebd
000003b0: 9780 67bc 0eaf 293d 6812 ee3c 8a05 983c
000003c0: 8be2 e93c 20c7 093c e4d4 4f3c 8393 d03b
000003d0: e2ef 91ba 788d 8cbc 269e 97bc b634 043c
000003e0: 7c01 213d d02e 0cbc a9bd 78bc c133 78bc
000003f0: 2d7d 9bbc 5098 d2bc 2d70 09bd f5cd 83bc
-0.0076555423 -0.008134372 0.0119918445 -0.024755996 -0.039122626 -6.1273255e-05 -0.01772881 0.012136704
-0.020070171 -0.021939533 -0.0068420754 0.0154004535 0.043660782 -0.03535754 -0.028992087 0.008204757
-0.026293403 0.01111961 -0.0093579795 0.002072703 -0.027744593 -0.008218243 -0.020961322 -0.0020975508
-0.011518252 0.01921656 -0.0199721 0.019187156 0.017854217 0.007671512 0.018835174 -0.004879827
-0.016574953 -0.029210523 -0.0032560455 0.0043049674 0.00948135 0.023269806 0.0055816355 -0.048717916
0.014432037 0.020994902 0.0034671356 -0.017833067 -0.025736807 -0.012809363 -0.014315328 0.015369572
0.02438657 0.010257635 0.003020787 0.012484211 0.029465402 -0.017831577 -0.005879018 -0.010566656
-0.023191582 -0.017775614 -0.03270218 -0.027357033 -0.0040664836 0.008397108 0.00630026 0.040309362
-0.015368783 -0.013841129 -0.0032582178 0.00094783644 -0.017507872 -0.007268392 -0.004303191 0.00868179
0.0024545593 0.019782063 -0.03315537 -0.033382587 -0.0110151395 -0.032346945 -0.015380187 0.005481419
0.0042832852 0.0023796556 0.016433908 8.847082e-05 -0.0042670504 -0.0033393172 -0.0036031348 -0.006600386
-0.03452696 -0.02879623 -0.017538227 -0.016704591 -0.0072021303 -0.024963865 0.007135414 -0.005111132
0.01097429 0.014243098 -0.007864949 -0.0050548124 0.017849889 -0.017902477 0.039760392 0.021541543
-0.00017737974 -0.011390252 -0.007927408 0.00013632404 -0.030327123 -0.04078736 -0.011644679 -0.0033950321
-0.027205849 0.006344774 0.0035665156 -0.0123238675 -0.033485718 0.023046978 -0.015309643 -0.006065499
-0.020475108 0.00043355106 -0.014961295 0.025606759 -0.0061260206 0.010136528 -0.00978596 0.032495085
-0.015924854 -0.0075421575 0.026826255 0.010179044 -0.0011079214 0.0067428844 0.018261645 -0.05953219
0.023677036 0.014613136 -0.016757445 -0.0027340555 -0.01871417 -0.03907215 0.0033288545 -0.0059081814
-0.029426994 -0.002194656 -0.0093556335 -0.002394848 -0.056513753 -0.0039609247 -0.008052162 0.0070622345
0.034672678 -0.010055773 -0.038555223 -0.0067492155 -0.043992124 -0.008964999 -0.06312925 0.003467713
0.02153801 -0.013241888 -0.003651444 -0.008661207 -0.009582688 -0.022711672 0.028805528 -0.013160218
-0.0055926535 -0.02256098 0.03178134 -0.0125106815 -0.008856959 -0.039313447 0.0073892083 -0.03135551
-0.009239573 0.0075563365 -0.03329573 0.016303807 0.003039038 0.01788955 -0.0009643506 -0.0054636043
-0.002478572 -0.030020911 -0.0036200054 -0.0074458793 -0.024048915 0.011530113 -0.00016714598 -0.04504429
-0.006911512 0.0045549767 -0.0019396683 -0.014465552 0.004395385 -0.025804343 -0.009703924 -0.007780738
-0.017765634 -0.010608422 -0.013877129 -0.0103480015 -0.005829721 0.00013418947 -0.039330702 0.0052698296
0.01015565 -0.0077174692 -0.0026675947 0.0010738227 -0.046538815 -0.0048517887 -0.011611122 0.021609727
-0.008423586 0.041909393 -0.007755442 0.0068420577 -0.014338777 -0.030312138 -0.0043653324 0.021269597
-0.018781418 -0.039707296 -0.024538582 -0.034647584 -0.0031699524 -0.028632585 0.017361723 0.038916096
0.012903529 -0.011777499 0.009803751 -0.042641837 -0.014129779 0.04142671 0.029061511 0.018557329
0.028550407 0.0084092915 0.012685034 0.006365241 -0.0011134113 -0.017157301 -0.018508028 0.008069208
0.039308056 -0.008556083 -0.015181937 -0.015149058 -0.018980587 -0.025707394 -0.033554245 -0.016089419

cnn_lstm.res2.conv1.bias f4 [8]
00000000: fc70 89bb f38b a4bb d281 423c 120e fcbb
00000010: 8783 353c 954b 5a3a 0094 aaba 8748 e2bb
-0.004194377 -0.005021566 0.011871772 -0.007692107 0.011078722 0.00083273026 -0.0013014078 -0.0069056186

cnn_lstm.res2.conv2.weight f4 [8, 8, 21]
00000000: 50e6 e4bc ce97 093c 1630 ebbc bb13 fdbb
00000010: b386 353c 9b15 82bb cd87 4c3c d15d dd3c
00000020: 5b5d 6bbc ffb2 d8bb 91cc 113b a571 0e3c
00000030: b839 00bd 7e68 f63b d584 4e3b 3017 eeba
00000040: 68b0 06bd f2a4 9abc b6cb 7b3c ef19 b13c
00000050: 5824 e03c a3b0 8bbd 5d0d 74bc 7c99 c4bc
00000060: 8da4 b9bc 4f47 4ebc 21d5 46bb 88f4 4dbb
00000070: 3865 2fbc a856 b4bc 5fd7 92bb 1299 4a3c
00000080: 439f 1fbc 8c85 813b 520f 1bbc 13d6 073b
00000090: 4e0b b8bb ec24 643c 1b68 4cbb 4827 aa3c
000000a0: a116 753c a2cb 71bc cadb 1dbc 7d4d beba
000000b0: c3a3 72bc 0bc4 0e3b c3e1 253c 6ca8 ec3a
000000c0: 0326 88bc 4465 8c3c 77d3 ec3b 7633 903c
000000d0: e7db 1f3c d120 ad3c 8a25 62bc 3195 343c
000000e0: 33be 52ba 9b3b 90bc 0c05 603c cd81 6cbb
000000f0: 6f35 09bd dae1 bfbc 8e81 46ba 6dfb 5cbb
00000100: 840f 203d 60fe 503c 8e6f 8abc f65e 27bc
00000110: 7788 46bc 76ed 08bd cfd3 b93c d1c1 b43c
00000120: 226a 1abd e021 9cbc 3de4 e03c f769 c23c
00000130: b002 a7bc 886f 91bc 1a83 bebc 684f 0abd
00000140: e178 64bb c314 b03c db8e 1abb 996e 54bb
00000150: 2529 d03b f786 513c 3c9d 01bd 1b57 33b9
00000160: 1393 15bd a1da 60bc 0d19 d1bc 8420 bcbb
00000170: 9ba7 28bb 0996 25bd 1cca c93a 37c0 1ebd
00000180: a022 36bc 864c 91bc ae5c 24bc 308f 0839
00000190: c4e1 59bc 1626 5dbc 614c debb 9cf0 f4bc
000001a0: b966 eabb ef9a 033d a12b c1bc 9b64 76ba
000001b0: 91f5 673b 0bb9 c4bc eab4 5e3c 995c c33b
000001c0: 7d6a 023c c83a 683c d15d 2f3c e646 4d3d
000001d0: f4c3 313d 36ef 82bc 0641 14bb 6c08 c2bb
000001e0: b84b 223d 7706 a5bc df8c b93c 179e 193d
000001f0: 8abd 363d 5c68 a33c 2fa8 2a3b 79ad 8d3c
00000200: ec61 5ebc efe2 a6bc 9668 aabc 2259 9d3b
00000210: 3bd6 c8bc f60e 23bc b719 9dbb 6959 a83c
00000220: 51fb 973c d7bd 7bbc 5f37 053d 6a77 a3bc
00000230: c24e a4bc df03 45bd 14e8 b33c f1f9 063d
00000240: 6e7a 7cbc 9b6c 04bd 5ae4 d1bb d874 733c
00000250: 451c 003d 717c 91bb f7ff 463c bb55 bb3a
00000260: 0b54 663a 98e8 eabc c9d5 213c de79 e73c
00000270: 4960 dc3b 6872 dd3c d276 9e3c c9fa 093b
00000280: 71dd 7c3c a4bd 373c ddcb bc3c 22e7 443d
00000290: b71b 973d 978f 933a ca21 173d 1b5b c33c
000002a0: 8541 f4bc 8cd4 d63c 9d9d 293d 2533 9d3c
000002b0: c2dd 0cb9 dc8e 903c 6d20 98bc 6ef2 913c
000002c0: f5fa 073b e84f e8bc a53e a43b c841 313c
000002d0: 1962 3cbc 126e 46bc 52b4 0abb 93ff e23b
000002e0: 1e44 253d e706 cfbb 340a 08bc a76e 6ebc
000002f0: af1c 5d3a e041 b13c 9827 36bd 80fc 9b3c
00000300: c927 07bc f22b db3c 5ea1 12bc 884e 7f3c
00000310: d29a 23bd 4d00 83bc 1a44 ae3c bb2e b53c
00000320: a144 fabc 577a a13c e1de d0bb 69fc aeba
00000330: e323 1e39 5c94 22bc 2dec 0cbd 4fd8 a13b
00000340: 5b5f 85bc 2378 373c 5910 ec3c 1958 353d
00000350: e607 2039 a66b 2b3d 6fef db3c 4e7c 203d
00000360: 42dd 133c 3982 c13c 110c 603c 9a4e 683c
00000370: 3206 fdbb d44a 3d3d b45e 033c 086f 2e3d
00000380: 2886 d93b cdb5 303d c111 283d 58c4 973c
00000390: 0e47 3e3d 042a 863c b962 853c f478 92bc
000003a0: e9f7 cb3a e451 bebc 3094 cc3b f176 fabb
000003b0: 623c 0bbd 0e11 3abc 9ccf 9d3c b2fe 483c
000003c0: c04b d4bc f38d 133c 1b73 b3b9 137a 153c
000003d0: 4780 d43c 2800 67bc 8cf6 2ebc 6965 5d3c
000003e0: 8c57 0a3c 8043 79b9 8fd3 aabc 0b1c d6b7
000003f0: 8523 a4bc dd24 e23b 7e7c 91bc 9448 debc
-0.027941853 0.008398009 -0.028709453 -0.0077232993 0.011079478 -0.0039698607 0.012483549 0.027022274
-0.014365519 -0.006613135 0.0022247175 0.008694087 -0.031305045 0.0075197807 0.003151228 -0.0018164869
-0.032883078 -0.01887748 0.015368393 0.021618811 0.02736108 -0.068208 -0.014895764 -0.023998968
-0.022661472 -0.0125902435 -0.0030339437 -0.003142627 -0.010705285 -0.022013977 -0.0044812406 0.012365596
-0.009742561 0.0039526876 -0.009464102 0.0020726963 -0.005616582 0.0139248185 -0.0031189981 0.020770684
0.014959008 -0.0147580225 -0.009634921 -0.0014518943 -0.014809552 0.0021784331 0.010124627 0.0018055565
-0.016619688 0.017138131 0.007227357 0.017602663 0.009757019 0.021133812 -0.013802895 0.011021898
-0.0008039206 -0.017606547 0.013673078 -0.003608811 -0.033498224 -0.023423124 -0.0007572406 -0.0033719197
0.039077297 0.01275596 -0.016898897 -0.010215512 -0.012117497 -0.033429585 0.022684006 0.022065075
-0.037698872 -0.019059122 0.027452582 0.023732169 -0.020387024 -0.017753378 -0.023255873 -0.033767134
-0.0034862089 0.021494275 -0.0023583684 -0.0032414554 0.006352561 0.012788526 -0.03164409 -0.0001710322
-0.036517214 -0.013724 -0.02552464 -0.005741181 -0.0025734666 -0.040426288 0.0015395316 -0.03875753
-0.011116654 -0.017736685 -0.010031862 0.00013023312 -0.013298456 -0.01349785 -0.0067840074 -0.029899888
-0.007153359 0.032130178 -0.023580374 -0.00093991467 0.0035394172 -0.024014017 0.013592938 0.0059619662
0.007959959 0.014174171 0.01070352 0.050116442 0.043399766 -0.015983205 -0.0022621765 -0.005921414
0.039622992 -0.020144684 0.02265018 0.03750428 0.044614352 0.019947223 0.0026040187 0.017294632
-0.013573151 -0.020371882 -0.020801824 0.004801885 -0.024516216 -0.009952297 -0.004794325 0.020550447
0.018552454 -0.015365086 0.03252351 -0.019954402 -0.020057086 -0.048099395 0.02196125 0.032953206
-0.015410049 -0.032330137 -0.0064053955 0.014859401 0.03127696 -0.0044398834 0.012145988 0.0014292517
0.0008786327 -0.028675362 0.0098776305 0.028256353 0.0067253453 0.027032092 0.019343767 0.002105402
0.015433655 0.011214647 0.023046428 0.048071988 0.07378333 0.0011258003 0.036897458 0.023847153
-0.029816398 0.026224397 0.041410077 0.019189427 -0.00013434052 0.017646246 -0.01857015 0.017815795
0.0020748947 -0.028358415 0.0050123506 0.010818906 -0.011497998 -0.012111204 -0.0021164608 0.0069274395
0.040348165 -0.0063179615 -0.008303214 -0.014552749 0.0008434755 0.021637857 -0.044471353 0.0190413
-0.008249232 0.026754353 -0.008949606 0.015582688 -0.03994257 -0.015991354 0.021272708 0.02211701
-0.030550303 0.019711656 -0.0063742255 -0.001335037 0.00015081423 -0.009923067 -0.034404922 0.004939116
-0.01628082 0.011198076 0.028816389 0.04427347 0.00015261731 0.04185071 0.02684757 0.039181046
0.00902492 0.023621665 0.013674752 0.014178896 -0.007721686 0.04621394 0.008018184 0.042586356
0.006638307 0.04314213 0.041032556 0.018526241 0.04645448 0.016377456 0.016282426 -0.01787994
0.0015561554 -0.023232408 0.0062432513 -0.0076435735 -0.033993132 -0.011356605 0.019264035 0.012267755
-0.025915027 0.009006011 -0.000342273 0.009123343 0.025940074 -0.014099158 -0.010678899 0.013512948
0.008443724 -0.00023771636 -0.020852832 -2.5523846e-05 -0.020036468 0.006901367 -0.017759558 -0.027134217

cnn_lstm.res2.conv2.bias f4 [8]
00000000: 8171 25bb 1c25 223b 5da7 2f3c 3a03 5c3b
00000010: 5c51 c83a f2ac 133b c801 60bb e3b1 02bb
-0.0025244656 0.0024741357 0.010721055 0.003357126 0.0015283036 0.0022533503 -0.003418075 -0.0019942455

cnn_lstm.conv2.weight f4 [16, 8, 21]
00000000: 044e 15bb db89 a1bc a99d 8e3c 0759 4a3c
00000010: 02aa 14bc 8791 c23c 2c81 22bc e6ce 863c
00000020: ccf2 95bb d045 253d ee2e b63c d63f 223c
00000030: 42a5 663c 0273 96bb 4197 9b3c 956d 203d
00000040: c962 4f3c ab93 bf3c b504 423d e392 03bd
00000050: f2e1 673b d41d 9ebc ccd9 99b8 927d d3bc
00000060: e631 4cbc 5c06 80ba 99d4 6f3c 3e8f 1fbd
00000070: 32a5 b0bb 38ee dcbc 030f e23c 565d d5bc
00000080: 43f3 103d acd9 bdbc 2063 8e3c 22f2 9f3a
00000090: 8e02 59bb 9f66 0cbd 3f9b e4bc 8e84 07bd
000000a0: b595 163d bdef 3abd 5aa9 a6bb d7b9 293c
000000b0: bf93 88b9 b6ec 8c3c 4685 e23c c0ab 9dbc
000000c0: 9305 983c 0878 93bb 0370 cebb 4566 353d
000000d0: 408d a5bb f160 ae39 0733 8e3c 081a da3a
000000e0: 1588 b73b 54ca 603c 7f60 643c f9c2 423d
000000f0: 1656 363c a151 ed3c c65b d73c b236 813c
00000100: d018 0e3d f506 41bc 4a7b 603c 544d 84bc
00000110: 4d2f 1a3d 5e9f a839 61b5 4fbd 972d 5ebc
00000120: 1a8a f93c b55a 2f3b b33e f43c 54f2 79bb
00000130: b1d8 d6bb 48d5 cb3b c171 25bc 2efb d4bc
00000140: 1b77 99bc 7426 8a3b 50d9 b73b ec15 f53c
00000150: 205e 6f3c c62a bcbc f0d0 663c 5ce0 0cbc
00000160: cb86 843b 1031 9d3b e85a 01bd 83f8 33bc
00000170: b5d5 cfbc b3f3 9ebc ea9c 313c ccc1 92bc
00000180: 1ee1 83bb eff2 733c 3760 cdbb b324 cf3b
00000190: eb88 093c 34ef 453b 9422 13bc cac0 a4bc
000001a0: f334 68bb 026e 18bd 81f0 7abb 9a20 673c
000001b0: f4af 6fbd 6c4f d23b 6914 e1bb 9db6 25bd
000001c0: 5087 b9bb dfd9 043b 7632 f4bc e729 9a3b
000001d0: f49f b6bc a026 cb3c 8ce4 443b 3c77 0a38
000001e0: 2e8c 7dbc 2c0e 173c 9bba adbc fa01 2bbd
000001f0: d176 173b da0a 12bd 7b3d 353d 2a32 453d
00000200: cfca 823c 1693 283c 49d3 f13b f375 df3c
00000210: 724b a23d bcb5 2e3c 1b40 09bb 93cc 203c
00000220: cce6 e83c 3c1f a5bc d3a5 d43b 3a7f 8e3c
00000230: 15b5 d73c e5f2 c13c c373 81bc 5f04 513d
00000240: eb9d e73b 522b 09bb 8f89 213c 84d0 243b
00000250: 13ab b9bc 4c0e 6abc 7fc9 0abd 35f1 0d3d
00000260: aabe ba3c 7211 8e3b 99c3 f53a 8f5a 82bb
00000270: 83df 4ebd 2ff3 dbbc cbf1 29bc bfc7 12bd
00000280: d110 7abc 4344 6cbc f334 a9bb 8e2c e3bb
00000290: 4c73 4138 942f cfbc 3602 92bc fdfa d8bc
000002a0: 818a ddbc 5190 893c 6c4f a63c 9dee 2bbb
000002b0: 47dd 13bb 926e afbc 855c b5bc adcd 573c
000002c0: 2b6c a03a f490 eebb ede8 a43c 752d b7bb
000002d0: 6389 053d 3e19 f43b 873f 143c 610b d83a
000002e0: 69ea b63c 8289 aa3c 9f43 ad3c 3487 023d
000002f0: 72e7 ac3c 2684 133d 451e 063d 52e4 653d
00000300: e150 b33c 61a7 bbbb ed5e 55bc 902b 1c3d
00000310: 2035 dabb f152 293d ea56 05bc 22b8 693c
00000320: b5b6 50bd bead 0bbd d39c d03b ad01 d9bb
00000330: b228 70bb b714 37bc 882a 94bc 4346 b1bc
00000340: d62f a939 8cd0 35bc d9df c03c 249f dd3b
00000350: b68b cd3c 5249 adbc b55b 96bc 9f76 77bb
00000360: c437 7b3c d689 2f3d 060f 6fb8 8b26 483d
00000370: b215 8dbc 94dc 983c 04a0 873c eb88 4c3c
00000380: 3ff9 e13c ae82 093d f601 a03b f075 3c3c
00000390: a682 a43c cede 183d 1627 35bb 3f08 dbbb
000003a0: 023a f73b 9192 99bc ee42 f0ba 9369 a3bb
000003b0: e138 513d 5e31 e4bc e2e2 c8b8 151e 2dbd
000003c0: 0453 393c 93e7 63bc d2b9 ad3c 9307 44bd
000003d0: 6ab0 89bb 83c9 953c 6ba1 1c3d 64fa f23a
000003e0: c60c 073d db13 c13c 395e 8d3c 319b 0d3d
000003f0: 5a2b 91bb 32b2 8e3b 5635 04bb 46a9 05bd
-0.0022782097 -0.019719055 0.017409163 0.012350327 -0.009073736 0.023751033 -0.009918492 0.016456079
-0.004576063 0.04034978 0.022239175 0.009902915 0.0140774865 -0.0045913467 0.018993022 0.039167006
0.01265783 0.023385843 0.04736777 -0.032122504 0.0035382477 -0.019301333 -7.336176e-05 -0.025816713
-0.012463069 -0.000976752 0.01463809 -0.038954966 -0.0053907866 -0.02696906 0.027595049 -0.026045483
0.035388242 -0.023175083 0.01738125 0.0012202899 -0.0033113095 -0.034277555 -0.027906058 -0.0330854
0.036763866 -0.04563879 -0.0050861062 0.010359249 -0.0002605002 0.017202716 0.02765144 -0.019246936
0.018557345 -0.004500393 -0.006299974 0.044286985 -0.0050522387 0.00033260093 0.017358316 0.0016639838
0.005600939 0.013720114 0.013939022 0.04754922 0.011128923 0.028969588 0.026288878 0.015773151
0.03469163 -0.011781444 0.013701269 -0.016150154 0.037642766 0.00032162195 -0.050710086 -0.013560674
0.03046136 0.0026756946 0.029815054 -0.0038138824 -0.0065565933 0.0062204935 -0.010097922 -0.025998678
-0.018733552 0.0042160098 0.0056106225 0.02991768 0.0146098435 -0.022969615 0.0140879005 -0.008598413
0.004044389 0.0047971085 -0.031580836 -0.010984543 -0.025370458 -0.019403314 0.010840634 -0.017914675
-0.004024639 0.014889463 -0.006267573 0.0063215136 0.00839446 0.003020239 -0.008980412 -0.02011146
-0.003543195 -0.037214287 -0.0038290324 0.014106894 -0.05851741 0.006418159 -0.006868888 -0.040457357
-0.0056618825 0.0020271463 -0.029809218 0.004704702 -0.022293068 0.024798691 0.003004345 3.301281e-05
-0.015475316 0.009219687 -0.021207144 -0.041749932 0.0023111592 -0.03565488 0.044248085 0.048143543
0.015965847 0.010288974 0.0073799235 0.027277922 0.07924546 0.010663446 -0.002094275 0.009814399
0.028430365 -0.020156495 0.0064894943 0.01739465 0.026331464 0.023675391 -0.01580227 0.05102956
0.007068386 -0.0020930362 0.009859457 0.00251487 -0.022664582 -0.014285635 -0.033883568 0.03465386
0.022795994 0.0043355757 0.0018750309 -0.0039780806 -0.050506126 -0.026849357 -0.010372589 -0.035835024
-0.015262798 -0.014420572 -0.0051637827 -0.0069328016 4.6122164e-05 -0.025291242 -0.01782332 -0.026486868
-0.027043583 0.016792448 0.020301543 -0.0026234754 -0.0022562311 -0.021415029 -0.022138843 0.0131715955
0.0012239268 -0.0072804634 0.020130599 -0.0055901357 0.032601725 0.007449298 0.009048349 0.0016482883
0.022328572 0.020817522 0.021150408 0.03186722 0.021106455 0.0360147 0.03274371 0.056125946
0.021889152 -0.00572674 -0.01302312 0.038127482 -0.006659165 0.041338865 -0.008138398 0.014265092
-0.050955493 -0.03410124 0.006366351 -0.006622514 -0.003664535 -0.011174372 -0.018086687 -0.021639949
0.00032269832 -0.011097085 0.023544239 0.006763356 0.025091033 -0.021153126 -0.018354276 -0.0037759913
0.01533312 0.04285606 -5.6996032e-05 0.048864882 -0.01722226 0.018659867 0.016555794 0.012483816
0.02758467 0.03357189 0.0048830463 0.011502728 0.02008183 0.037321858 -0.0027641705 -0.0066843326
0.007544757 -0.018746646 -0.0018330493 -0.0049869507 0.051079635 -0.027855571 -9.5790034e-05 -0.042265017
0.011311296 -0.013910192 0.02120677 -0.047858786 -0.0042019384 0.018284565 0.038239878 0.0018537757
0.032971166 0.023569038 0.017256843 0.03457183 -0.0044302167 0.0043547386 -0.0020173392 -0.032632135

cnn_lstm.conv2.bias f4 [16]
00000000: c72e 4c3a 8e7b afb9 1d02 edba bbdb 053b
00000010: 6a03 a63b cfc3 243b e432 48ba 3e9c 00bb
00000020: 8945 5d3b 940d aa3a 2e0a 9b3b f1bd 96ba
00000030: f4e2 eeba 7947 25bb a0a1 533a 1ef9 3c3a
0.0007788953 -0.00033470656 -0.0018082295 0.002042516 0.005066325 0.0025141125 -0.0007636978 -0.0019624378
0.003376337 0.0012974017 0.004731438 -0.0011500699 -0.0018225596 -0.0025219603 0.0008073095 0.0007208752

cnn_lstm.lstm1.weight_ih_l0 f4 [32, 16]
00000000: 64ad a9be dcc6 933d 72c7 9a3e c875 19be
00000010: bdb0 b03e 7203 873e 4f42 52be f5f0 9b3d
00000020: 691f ab3e 3e6f 9fbe e77a 8cbe b392 1d3d
00000030: d5f5 1c3e 5ba3 963e c34f 87be 65b6 6dbe
00000040: bc70 923e e2be 1fbe 9959 9cbe a906 293e
00000050: 8adc c33c 9667 b33d 2534 da3c 8781 32be
00000060: 4246 b7be b0d5 42be 486b 433d bb14 01be
00000070: 26a1 a2be 9b2f e33d fa18 66be 3c39 253c
00000080: e0a8 f03c a013 1d3d 6f9a 86bd 38ad a7bd
00000090: 44f8 21be d6a7 233e 9b45 6c3d ddb7 333d
000000a0: 5980 093e 22c2 813e 44c1 23be 6f53 683e
000000b0: ac23 8fbe edf8 76be 81e0 bdbd ada1 a9bc
000000c0: 978c a53d edf6 bc3c 8cd7 15bd 8bb5 a0be
000000d0: c45c 5ebe 3433 8e3e a582 78be 4395 b93d
000000e0: f33b 4b3e 0c46 6b3e da44 023e 5eb0 aa3d
000000f0: 3845 b7bd 857a 9a3e 416f 0e3d 0156 95be
00000100: cd19 ff3c 08eb de3d b825 903e dbe9 fd3c
00000110: 5385 b63e d76f 76be 5ff3 20bd f564 b7bb
00000120: 2154 603e ee97 263d e3ca 3dbe 44c8 97be
00000130: 08f6 533e 8fe3 0cbe 251f 17be 5976 89bd
00000140: 1566 9abd dd56 913e 4c6e 4c3d e66d 883e
00000150: aec1 48be ed63 06be 1df7 02be 5033 e03d
00000160: 98f1 db3c 7400 92bd 7d57 d83d 7883 713d
00000170: ea82 293e 4a00 a0be 4247 933e ad13 4bbe
00000180: b9b8 5cbd 363c 9cbe 0240 e43c 60ad a13e
00000190: cb89 97be e8d9 b43e 760e 963e 4f57 073d
000001a0: 7791 5e3e 38f4 18be eb90 9abe fbb6 a93e
000001b0: e154 0c3e 6279 973e b14b 9d3e 0ec3 52be
000001c0: 37a5 453c 63bb 2fbe d234 793e cf43 183e
000001d0: 7f9a 4c3d a168 8c3e 9c2e 393e 9d6d 0b3e
000001e0: 6f63 a3be b2eb 85bb 429a c03d e4a2 583e
000001f0: 2c2b 7b3e 93d8 63be 1d6e 5e3e eaf2 c0bd
00000200: 7fff b8bd 8a63 0e3e 31de e73d 7e18 9abe
00000210: 8742 c5bd 8504 5b3e 0d99 a73e 8e1e 4ebe
00000220: 040f 2c3e c366 c2bd 9ed4 503d a6b5 363c
00000230: 4e63 72be 318f 893e 8c07 893c 6bd7 543e
00000240: 9c34 bcbd 8df8 493d 83aa 48bd 0cd7 0f3e
00000250: aabd 263e 1a1d 4ebe 5d69 f3bd 9573 f13d
00000260: 2111 88bc b065 cf3b 1b40 95bc e2b1 33bd
00000270: 8e8e aabd ced2 10be 6856 523e fe1d 2e3e
00000280: 3ab4 883e bdfb 01be df97 023c dfa9 80be
00000290: 3073 1b3d 0f19 84bc 8138 b1be 1f0b 283e
000002a0: bd3e 653e 1c8e 10bd ae4a 4cbe 107e fdbd
000002b0: aa61 cbbd 5a86 253e b20b 72be 3981 4abe
000002c0: a23b e03d 7ee0 0f3e 01b1 a9bd 2e19 07be
000002d0: f2e6 10be 8a5f 153d 30f0 d2bc f056 e8bc
000002e0: c4c6 b93e c791 a13c 9e12 8bbe 56fa 73be
000002f0: 2421 4ebe 7843 bfbd f543 ae3d 682c 6d3d
00000300: 45dd 73be 127e 633c 0d13 183e 25e6 b03e
00000310: 562d 9ebd f95c 993e 8fed b3be bfec 223e
00000320: 80f9 9a3c 141c 28bd b61c e3bd fed2 e4bd
00000330: b853 a9be 67bf bcbc d2b0 863e f1b1 96be
00000340: 6a93 d7bd 37d2 863d 1e3e 8a3e 4f13 4d3e
00000350: 0e1d 79be 29d6 b83e 1f8d 9f3d 3cf2 7abe
00000360: 014c 96be a823 91bd 07a8 03be 6fb8 3abe
00000370: e100 543d 2900 44be 2810 863d 0d01 313e
00000380: 8964 7a3e 94b5 2b3e 991a 863e 404e 783e
00000390: 3d5d 503e 3272 84bd ef7c 323d f77b 7cbe
000003a0: 16ea c2bd ef00 953d 1263 6c3e d43a 8abe
000003b0: 32e6 873c 8e91 87be ddbe abbe ea2d 5e3d
000003c0: 23bd 473e 83b1 6fbe e676 86be 2c07 403e
000003d0: 1298 d03d caed a5be caed 14be c79f a03d
000003e0: 1f46 a6bc e479 013e 2c5b a63d ceb4 9fbe
000003f0: bd26 73be 4408 18be ddcc 6abe 503f 4d3e
-0.331401 0.07215664 0.3023029 -0.14986336 0.3450984 0.26369816 -0.20533107 0.07614318
0.33422402 -0.3113956 -0.27437517 0.03846998 0.15328152 0.29421505 -0.2642804 -0.23214109
0.28601635 -0.1560016 -0.30537108 0.16506447 0.023908872 0.08759992 0.026636193 -0.17432223
-0.3579579 -0.19026828 0.047709733 -0.12605564 -0.31763572 0.110930644 -0.22470465 0.0100844465
0.0293774 0.038348794 -0.065724246 -0.08187336 -0.15817362 0.15981993 0.05768357 0.043876518
0.13427867 0.25343424 -0.15991694 0.22688077 -0.27956903 -0.24118395 -0.09271336 -0.020706976
0.08083456 0.023066962 -0.036582515 -0.31388506 -0.21715075 0.2777344 -0.24268587 0.090616725
0.19847088 0.2297594 0.12721577 0.083344206 -0.08948749 0.301716 0.03477407 -0.29167178
0.031140232 0.108846724 0.28153777 0.0309953 0.35648593 -0.24066101 -0.039294597 -0.005596752
0.21907093 0.040672235 -0.18534426 -0.29644978 0.20699322 -0.13758682 -0.14757974 -0.06712026
-0.07539002 0.28386584 0.049909875 0.26646346 -0.19605133 -0.13124056 -0.12789579 0.10947287
0.0268486 -0.07128993 0.10563562 0.05896327 0.16553846 -0.3125022 0.28765303 -0.19831724
-0.053887103 -0.30514687 0.027862553 0.31577587 -0.29597315 0.353225 0.29307908 0.03304225
0.21735178 -0.14936912 -0.3018869 0.33147416 0.13704254 0.29584795 0.3072181 -0.2058222
0.012063316 -0.17161326 0.24336556 0.14869617 0.049952026 0.27423576 0.18084186 0.13616033
-0.319118 -0.004086935 0.09404422 0.21155888 0.24528188 -0.22250585 0.21721692 -0.09421332
-0.09033107 0.13905159 0.113216765 -0.3009681 -0.0963183 0.21388443 0.32733956 -0.20128843
0.16802603 -0.094922565 0.050984018 0.011151707 -0.23670694 0.2686706 0.016727231 0.207853
-0.09189722 0.049309302 -0.048990738 0.14046878 0.16283289 -0.20128289 -0.11885331 0.11789624
-0.01660973 0.0063292608 -0.018219044 -0.043870814 -0.083279714 -0.14142916 0.20540774 0.17003629
0.26700002 -0.12693687 0.007970779 -0.251296 0.03795165 -0.01612523 -0.34613422 0.16410492
0.22387214 -0.035291776 -0.19950363 -0.1237756 -0.09930737 0.16164532 -0.23637274 -0.19775857
0.10948874 0.1405048 -0.08285714 -0.13193199 -0.14150599 0.036468066 -0.025749296 -0.028361768
0.3628446 0.019722832 -0.2716264 -0.23825964 -0.2012983 -0.093390405 0.085090555 0.057903677
-0.23814876 0.013885038 0.14851017 0.34550586 -0.07723491 0.29953745 -0.3514218 0.15910624
0.018917799 -0.041042402 -0.110894606 -0.11173056 -0.33071685 -0.023040486 0.26306778 -0.29432634
-0.10526164 0.06583064 0.27000517 0.20026897 -0.2432749 0.3610089 0.077905886 -0.24506468
-0.2935486 -0.07086879 -0.12857066 -0.18234418 0.05175865 -0.19140686 0.0654605 0.17285557
0.24452414 0.16768485 0.26192167 0.242486 0.20348068 -0.064670935 0.043576177 -0.24656664
-0.095173046 0.07275569 0.23084667 -0.26998007 0.016589258 -0.26478237 -0.33544055 0.054243006
0.19505744 -0.23407559 -0.26262587 0.18752736 0.10185255 -0.3240798 -0.14543834 0.07842975
-0.020297108 0.12644154 0.081228584 -0.3119263 -0.23745246 -0.14846903 -0.22929712 0.20043683
